program(1.0)
[buildInfo = dict<tensor<string, []>, tensor<string, []>>({{"coremlc-component-MIL", "3405.2.1"}, {"coremlc-version", "3404.23.1"}, {"coremltools-component-torch", "2.8.0"}, {"coremltools-source-dialect", "TorchScript"}, {"coremltools-version", "8.3.0"}})]
{
    func main<ios16>(tensor<fp16, [1, 256, 80]> audio_chunk, tensor<fp16, [1, 1, 256]> predictor_hidden_in, tensor<fp16, [1, 1]> token_in) {
            tensor<int32, [3]> input_1_perm_0 = const()[name = tensor<string, []>("input_1_perm_0"), val = tensor<int32, [3]>([0, 2, 1])];
            tensor<string, []> input_3_pad_type_0 = const()[name = tensor<string, []>("input_3_pad_type_0"), val = tensor<string, []>("custom")];
            tensor<int32, [2]> input_3_pad_0 = const()[name = tensor<string, []>("input_3_pad_0"), val = tensor<int32, [2]>([2, 2])];
            tensor<int32, [1]> input_3_strides_0 = const()[name = tensor<string, []>("input_3_strides_0"), val = tensor<int32, [1]>([2])];
            tensor<int32, [1]> input_3_dilations_0 = const()[name = tensor<string, []>("input_3_dilations_0"), val = tensor<int32, [1]>([1])];
            tensor<int32, []> input_3_groups_0 = const()[name = tensor<string, []>("input_3_groups_0"), val = tensor<int32, []>(1)];
            tensor<fp16, [256, 80, 5]> model_frontend_conv_network_0_weight_to_fp16 = const()[name = tensor<string, []>("model_frontend_conv_network_0_weight_to_fp16"), val = tensor<fp16, [256, 80, 5]>(BLOBFILE(path = tensor<string, []>("@model_path/weights/weight.bin"), offset = tensor<uint64, []>(64)))];
            tensor<fp16, [256]> model_frontend_conv_network_0_bias_to_fp16 = const()[name = tensor<string, []>("model_frontend_conv_network_0_bias_to_fp16"), val = tensor<fp16, [256]>(BLOBFILE(path = tensor<string, []>("@model_path/weights/weight.bin"), offset = tensor<uint64, []>(204928)))];
            tensor<fp16, [1, 80, 256]> input_1_cast_fp16 = transpose(perm = input_1_perm_0, x = audio_chunk)[name = tensor<string, []>("transpose_787")];
            tensor<fp16, [1, 256, 128]> input_3_cast_fp16 = conv(bias = model_frontend_conv_network_0_bias_to_fp16, dilations = input_3_dilations_0, groups = input_3_groups_0, pad = input_3_pad_0, pad_type = input_3_pad_type_0, strides = input_3_strides_0, weight = model_frontend_conv_network_0_weight_to_fp16, x = input_1_cast_fp16)[name = tensor<string, []>("input_3_cast_fp16")];
            tensor<string, []> input_5_mode_0 = const()[name = tensor<string, []>("input_5_mode_0"), val = tensor<string, []>("EXACT")];
            tensor<fp16, [1, 256, 128]> input_5_cast_fp16 = gelu(mode = input_5_mode_0, x = input_3_cast_fp16)[name = tensor<string, []>("input_5_cast_fp16")];
            tensor<string, []> input_7_pad_type_0 = const()[name = tensor<string, []>("input_7_pad_type_0"), val = tensor<string, []>("custom")];
            tensor<int32, [2]> input_7_pad_0 = const()[name = tensor<string, []>("input_7_pad_0"), val = tensor<int32, [2]>([2, 2])];
            tensor<int32, [1]> input_7_strides_0 = const()[name = tensor<string, []>("input_7_strides_0"), val = tensor<int32, [1]>([2])];
            tensor<int32, [1]> input_7_dilations_0 = const()[name = tensor<string, []>("input_7_dilations_0"), val = tensor<int32, [1]>([1])];
            tensor<int32, []> input_7_groups_0 = const()[name = tensor<string, []>("input_7_groups_0"), val = tensor<int32, []>(1)];
            tensor<fp16, [256, 256, 5]> model_frontend_conv_network_2_weight_to_fp16 = const()[name = tensor<string, []>("model_frontend_conv_network_2_weight_to_fp16"), val = tensor<fp16, [256, 256, 5]>(BLOBFILE(path = tensor<string, []>("@model_path/weights/weight.bin"), offset = tensor<uint64, []>(205504)))];
            tensor<fp16, [256]> model_frontend_conv_network_2_bias_to_fp16 = const()[name = tensor<string, []>("model_frontend_conv_network_2_bias_to_fp16"), val = tensor<fp16, [256]>(BLOBFILE(path = tensor<string, []>("@model_path/weights/weight.bin"), offset = tensor<uint64, []>(860928)))];
            tensor<fp16, [1, 256, 64]> input_7_cast_fp16 = conv(bias = model_frontend_conv_network_2_bias_to_fp16, dilations = input_7_dilations_0, groups = input_7_groups_0, pad = input_7_pad_0, pad_type = input_7_pad_type_0, strides = input_7_strides_0, weight = model_frontend_conv_network_2_weight_to_fp16, x = input_5_cast_fp16)[name = tensor<string, []>("input_7_cast_fp16")];
            tensor<string, []> input_9_mode_0 = const()[name = tensor<string, []>("input_9_mode_0"), val = tensor<string, []>("EXACT")];
            tensor<fp16, [1, 256, 64]> input_9_cast_fp16 = gelu(mode = input_9_mode_0, x = input_7_cast_fp16)[name = tensor<string, []>("input_9_cast_fp16")];
            tensor<string, []> input_11_pad_type_0 = const()[name = tensor<string, []>("input_11_pad_type_0"), val = tensor<string, []>("custom")];
            tensor<int32, [2]> input_11_pad_0 = const()[name = tensor<string, []>("input_11_pad_0"), val = tensor<int32, [2]>([1, 1])];
            tensor<int32, [1]> input_11_strides_0 = const()[name = tensor<string, []>("input_11_strides_0"), val = tensor<int32, [1]>([1])];
            tensor<int32, [1]> input_11_dilations_0 = const()[name = tensor<string, []>("input_11_dilations_0"), val = tensor<int32, [1]>([1])];
            tensor<int32, []> input_11_groups_0 = const()[name = tensor<string, []>("input_11_groups_0"), val = tensor<int32, []>(1)];
            tensor<fp16, [256, 256, 3]> model_frontend_conv_network_4_weight_to_fp16 = const()[name = tensor<string, []>("model_frontend_conv_network_4_weight_to_fp16"), val = tensor<fp16, [256, 256, 3]>(BLOBFILE(path = tensor<string, []>("@model_path/weights/weight.bin"), offset = tensor<uint64, []>(861504)))];
            tensor<fp16, [256]> model_frontend_conv_network_4_bias_to_fp16 = const()[name = tensor<string, []>("model_frontend_conv_network_4_bias_to_fp16"), val = tensor<fp16, [256]>(BLOBFILE(path = tensor<string, []>("@model_path/weights/weight.bin"), offset = tensor<uint64, []>(1254784)))];
            tensor<fp16, [1, 256, 64]> input_11_cast_fp16 = conv(bias = model_frontend_conv_network_4_bias_to_fp16, dilations = input_11_dilations_0, groups = input_11_groups_0, pad = input_11_pad_0, pad_type = input_11_pad_type_0, strides = input_11_strides_0, weight = model_frontend_conv_network_4_weight_to_fp16, x = input_9_cast_fp16)[name = tensor<string, []>("input_11_cast_fp16")];
            tensor<string, []> conv_output_mode_0 = const()[name = tensor<string, []>("conv_output_mode_0"), val = tensor<string, []>("EXACT")];
            tensor<fp16, [1, 256, 64]> conv_output_cast_fp16 = gelu(mode = conv_output_mode_0, x = input_11_cast_fp16)[name = tensor<string, []>("conv_output_cast_fp16")];
            tensor<int32, [3]> input_13_perm_0 = const()[name = tensor<string, []>("input_13_perm_0"), val = tensor<int32, [3]>([0, 2, 1])];
            tensor<int32, [1]> x_1_axes_0 = const()[name = tensor<string, []>("x_1_axes_0"), val = tensor<int32, [1]>([-1])];
            tensor<fp16, [256]> model_frontend_output_norm_weight_to_fp16 = const()[name = tensor<string, []>("model_frontend_output_norm_weight_to_fp16"), val = tensor<fp16, [256]>(BLOBFILE(path = tensor<string, []>("@model_path/weights/weight.bin"), offset = tensor<uint64, []>(1255360)))];
            tensor<fp16, [256]> model_frontend_output_norm_bias_to_fp16 = const()[name = tensor<string, []>("model_frontend_output_norm_bias_to_fp16"), val = tensor<fp16, [256]>(BLOBFILE(path = tensor<string, []>("@model_path/weights/weight.bin"), offset = tensor<uint64, []>(1255936)))];
            tensor<fp16, []> var_23_to_fp16 = const()[name = tensor<string, []>("op_23_to_fp16"), val = tensor<fp16, []>(0x1.5p-17)];
            tensor<fp16, [1, 64, 256]> input_13_cast_fp16 = transpose(perm = input_13_perm_0, x = conv_output_cast_fp16)[name = tensor<string, []>("transpose_786")];
            tensor<fp16, [1, 64, 256]> x_1_cast_fp16 = layer_norm(axes = x_1_axes_0, beta = model_frontend_output_norm_bias_to_fp16, epsilon = var_23_to_fp16, gamma = model_frontend_output_norm_weight_to_fp16, x = input_13_cast_fp16)[name = tensor<string, []>("x_1_cast_fp16")];
            tensor<fp32, []> var_77 = const()[name = tensor<string, []>("op_77"), val = tensor<fp32, []>(0x1.2a05f2p+33)];
            tensor<fp16, [256, 256]> model_encoder_blocks_0_in_proj_weight_to_fp16 = const()[name = tensor<string, []>("model_encoder_blocks_0_in_proj_weight_to_fp16"), val = tensor<fp16, [256, 256]>(BLOBFILE(path = tensor<string, []>("@model_path/weights/weight.bin"), offset = tensor<uint64, []>(1256512)))];
            tensor<fp16, [256]> model_encoder_blocks_0_in_proj_bias_to_fp16 = const()[name = tensor<string, []>("model_encoder_blocks_0_in_proj_bias_to_fp16"), val = tensor<fp16, [256]>(BLOBFILE(path = tensor<string, []>("@model_path/weights/weight.bin"), offset = tensor<uint64, []>(1387648)))];
            tensor<fp16, [1, 64, 256]> linear_0_cast_fp16 = linear(bias = model_encoder_blocks_0_in_proj_bias_to_fp16, weight = model_encoder_blocks_0_in_proj_weight_to_fp16, x = x_1_cast_fp16)[name = tensor<string, []>("linear_0_cast_fp16")];
            tensor<fp16, [256, 256]> model_encoder_blocks_0_z_proj_weight_to_fp16 = const()[name = tensor<string, []>("model_encoder_blocks_0_z_proj_weight_to_fp16"), val = tensor<fp16, [256, 256]>(BLOBFILE(path = tensor<string, []>("@model_path/weights/weight.bin"), offset = tensor<uint64, []>(1388224)))];
            tensor<fp16, [256]> model_encoder_blocks_0_z_proj_bias_to_fp16 = const()[name = tensor<string, []>("model_encoder_blocks_0_z_proj_bias_to_fp16"), val = tensor<fp16, [256]>(BLOBFILE(path = tensor<string, []>("@model_path/weights/weight.bin"), offset = tensor<uint64, []>(1519360)))];
            tensor<fp16, [1, 64, 256]> linear_1_cast_fp16 = linear(bias = model_encoder_blocks_0_z_proj_bias_to_fp16, weight = model_encoder_blocks_0_z_proj_weight_to_fp16, x = x_1_cast_fp16)[name = tensor<string, []>("linear_1_cast_fp16")];
            tensor<int32, [3]> input_15_perm_0 = const()[name = tensor<string, []>("input_15_perm_0"), val = tensor<int32, [3]>([0, 2, 1])];
            tensor<string, []> var_178_pad_type_0 = const()[name = tensor<string, []>("op_178_pad_type_0"), val = tensor<string, []>("valid")];
            tensor<int32, [1]> var_178_strides_0 = const()[name = tensor<string, []>("op_178_strides_0"), val = tensor<int32, [1]>([1])];
            tensor<int32, [2]> var_178_pad_0 = const()[name = tensor<string, []>("op_178_pad_0"), val = tensor<int32, [2]>([0, 0])];
            tensor<int32, [1]> var_178_dilations_0 = const()[name = tensor<string, []>("op_178_dilations_0"), val = tensor<int32, [1]>([1])];
            tensor<int32, []> var_178_groups_0 = const()[name = tensor<string, []>("op_178_groups_0"), val = tensor<int32, []>(1)];
            tensor<fp16, [16, 256, 1]> model_encoder_blocks_0_B_conv_weight_to_fp16 = const()[name = tensor<string, []>("model_encoder_blocks_0_B_conv_weight_to_fp16"), val = tensor<fp16, [16, 256, 1]>(BLOBFILE(path = tensor<string, []>("@model_path/weights/weight.bin"), offset = tensor<uint64, []>(1519936)))];
            tensor<fp16, [16]> model_encoder_blocks_0_B_conv_bias_to_fp16 = const()[name = tensor<string, []>("model_encoder_blocks_0_B_conv_bias_to_fp16"), val = tensor<fp16, [16]>(BLOBFILE(path = tensor<string, []>("@model_path/weights/weight.bin"), offset = tensor<uint64, []>(1528192)))];
            tensor<fp16, [1, 256, 64]> input_15_cast_fp16 = transpose(perm = input_15_perm_0, x = linear_0_cast_fp16)[name = tensor<string, []>("transpose_785")];
            tensor<fp16, [1, 16, 64]> var_178_cast_fp16 = conv(bias = model_encoder_blocks_0_B_conv_bias_to_fp16, dilations = var_178_dilations_0, groups = var_178_groups_0, pad = var_178_pad_0, pad_type = var_178_pad_type_0, strides = var_178_strides_0, weight = model_encoder_blocks_0_B_conv_weight_to_fp16, x = input_15_cast_fp16)[name = tensor<string, []>("op_178_cast_fp16")];
            tensor<int32, [3]> B_proj_1_perm_0 = const()[name = tensor<string, []>("B_proj_1_perm_0"), val = tensor<int32, [3]>([0, 2, 1])];
            tensor<string, []> var_186_pad_type_0 = const()[name = tensor<string, []>("op_186_pad_type_0"), val = tensor<string, []>("valid")];
            tensor<int32, [1]> var_186_strides_0 = const()[name = tensor<string, []>("op_186_strides_0"), val = tensor<int32, [1]>([1])];
            tensor<int32, [2]> var_186_pad_0 = const()[name = tensor<string, []>("op_186_pad_0"), val = tensor<int32, [2]>([0, 0])];
            tensor<int32, [1]> var_186_dilations_0 = const()[name = tensor<string, []>("op_186_dilations_0"), val = tensor<int32, [1]>([1])];
            tensor<int32, []> var_186_groups_0 = const()[name = tensor<string, []>("op_186_groups_0"), val = tensor<int32, []>(1)];
            tensor<fp16, [16, 256, 1]> model_encoder_blocks_0_C_conv_weight_to_fp16 = const()[name = tensor<string, []>("model_encoder_blocks_0_C_conv_weight_to_fp16"), val = tensor<fp16, [16, 256, 1]>(BLOBFILE(path = tensor<string, []>("@model_path/weights/weight.bin"), offset = tensor<uint64, []>(1528320)))];
            tensor<fp16, [16]> model_encoder_blocks_0_C_conv_bias_to_fp16 = const()[name = tensor<string, []>("model_encoder_blocks_0_C_conv_bias_to_fp16"), val = tensor<fp16, [16]>(BLOBFILE(path = tensor<string, []>("@model_path/weights/weight.bin"), offset = tensor<uint64, []>(1536576)))];
            tensor<fp16, [1, 16, 64]> var_186_cast_fp16 = conv(bias = model_encoder_blocks_0_C_conv_bias_to_fp16, dilations = var_186_dilations_0, groups = var_186_groups_0, pad = var_186_pad_0, pad_type = var_186_pad_type_0, strides = var_186_strides_0, weight = model_encoder_blocks_0_C_conv_weight_to_fp16, x = input_15_cast_fp16)[name = tensor<string, []>("op_186_cast_fp16")];
            tensor<int32, [3]> C_proj_1_perm_0 = const()[name = tensor<string, []>("C_proj_1_perm_0"), val = tensor<int32, [3]>([0, 2, 1])];
            tensor<fp16, [1, 64, 256]> delta_positive_1_cast_fp16 = softplus(x = linear_0_cast_fp16)[name = tensor<string, []>("delta_positive_1_cast_fp16")];
            tensor<fp16, []> var_76_to_fp16 = const()[name = tensor<string, []>("op_76_to_fp16"), val = tensor<fp16, []>(0x1p-24)];
            tensor<fp16, []> const_2_to_fp16 = const()[name = tensor<string, []>("const_2_to_fp16"), val = tensor<fp16, []>(inf)];
            tensor<fp16, [1, 64, 256]> clip_0_cast_fp16 = clip(alpha = var_76_to_fp16, beta = const_2_to_fp16, x = delta_positive_1_cast_fp16)[name = tensor<string, []>("clip_0_cast_fp16")];
            tensor<int32, [1]> var_193_axes_0 = const()[name = tensor<string, []>("op_193_axes_0"), val = tensor<int32, [1]>([-1])];
            tensor<fp16, [1, 64, 256, 1]> var_193_cast_fp16 = expand_dims(axes = var_193_axes_0, x = clip_0_cast_fp16)[name = tensor<string, []>("op_193_cast_fp16")];
            tensor<fp16, [1, 1, 256, 16]> var_197_to_fp16 = const()[name = tensor<string, []>("op_197_to_fp16"), val = tensor<fp16, [1, 1, 256, 16]>(BLOBFILE(path = tensor<string, []>("@model_path/weights/weight.bin"), offset = tensor<uint64, []>(1536704)))];
            tensor<fp16, [1, 64, 256, 16]> var_198_cast_fp16 = mul(x = var_193_cast_fp16, y = var_197_to_fp16)[name = tensor<string, []>("op_198_cast_fp16")];
            tensor<fp16, [1, 64, 256, 16]> delta_A_1_cast_fp16 = exp(x = var_198_cast_fp16)[name = tensor<string, []>("delta_A_1_cast_fp16")];
            tensor<string, []> delta_A_1_cast_fp16_to_fp32_dtype_0 = const()[name = tensor<string, []>("delta_A_1_cast_fp16_to_fp32_dtype_0"), val = tensor<string, []>("fp32")];
            tensor<fp32, []> const_5 = const()[name = tensor<string, []>("const_5"), val = tensor<fp32, []>(-0x1.fffffep+127)];
            tensor<fp32, [1, 64, 256, 16]> delta_A_1_cast_fp16_to_fp32 = cast(dtype = delta_A_1_cast_fp16_to_fp32_dtype_0, x = delta_A_1_cast_fp16)[name = tensor<string, []>("cast_36")];
            tensor<fp32, [1, 64, 256, 16]> clip_1 = clip(alpha = const_5, beta = var_77, x = delta_A_1_cast_fp16_to_fp32)[name = tensor<string, []>("clip_1")];
            tensor<fp16, [1, 64, 256]> delta_u_1_cast_fp16 = mul(x = clip_0_cast_fp16, y = linear_0_cast_fp16)[name = tensor<string, []>("delta_u_1_cast_fp16")];
            tensor<int32, [1]> delta_u_scalar_1_axes_0 = const()[name = tensor<string, []>("delta_u_scalar_1_axes_0"), val = tensor<int32, [1]>([2])];
            tensor<bool, []> delta_u_scalar_1_keep_dims_0 = const()[name = tensor<string, []>("delta_u_scalar_1_keep_dims_0"), val = tensor<bool, []>(true)];
            tensor<fp16, [1, 64, 1]> delta_u_scalar_1_cast_fp16 = reduce_mean(axes = delta_u_scalar_1_axes_0, keep_dims = delta_u_scalar_1_keep_dims_0, x = delta_u_1_cast_fp16)[name = tensor<string, []>("delta_u_scalar_1_cast_fp16")];
            tensor<int32, [1]> var_204_axes_0 = const()[name = tensor<string, []>("op_204_axes_0"), val = tensor<int32, [1]>([-1])];
            tensor<fp16, [1, 64, 1, 1]> var_204_cast_fp16 = expand_dims(axes = var_204_axes_0, x = delta_u_scalar_1_cast_fp16)[name = tensor<string, []>("op_204_cast_fp16")];
            tensor<int32, [1]> var_205_axes_0 = const()[name = tensor<string, []>("op_205_axes_0"), val = tensor<int32, [1]>([2])];
            tensor<fp16, [1, 64, 16]> B_proj_1_cast_fp16 = transpose(perm = B_proj_1_perm_0, x = var_178_cast_fp16)[name = tensor<string, []>("transpose_784")];
            tensor<fp16, [1, 64, 1, 16]> var_205_cast_fp16 = expand_dims(axes = var_205_axes_0, x = B_proj_1_cast_fp16)[name = tensor<string, []>("op_205_cast_fp16")];
            tensor<fp16, [1, 64, 1, 16]> delta_B_u_1_cast_fp16 = mul(x = var_204_cast_fp16, y = var_205_cast_fp16)[name = tensor<string, []>("delta_B_u_1_cast_fp16")];
            tensor<int32, [4]> var_209_begin_0 = const()[name = tensor<string, []>("op_209_begin_0"), val = tensor<int32, [4]>([0, 0, 0, 0])];
            tensor<int32, [4]> var_209_end_0 = const()[name = tensor<string, []>("op_209_end_0"), val = tensor<int32, [4]>([1, 1, 256, 16])];
            tensor<bool, [4]> var_209_end_mask_0 = const()[name = tensor<string, []>("op_209_end_mask_0"), val = tensor<bool, [4]>([true, false, true, true])];
            tensor<bool, [4]> var_209_squeeze_mask_0 = const()[name = tensor<string, []>("op_209_squeeze_mask_0"), val = tensor<bool, [4]>([false, true, false, false])];
            tensor<string, []> clip_1_to_fp16_dtype_0 = const()[name = tensor<string, []>("clip_1_to_fp16_dtype_0"), val = tensor<string, []>("fp16")];
            tensor<fp16, [1, 64, 256, 16]> clip_1_to_fp16 = cast(dtype = clip_1_to_fp16_dtype_0, x = clip_1)[name = tensor<string, []>("cast_35")];
            tensor<fp16, [1, 256, 16]> var_209_cast_fp16 = slice_by_index(begin = var_209_begin_0, end = var_209_end_0, end_mask = var_209_end_mask_0, squeeze_mask = var_209_squeeze_mask_0, x = clip_1_to_fp16)[name = tensor<string, []>("op_209_cast_fp16")];
            tensor<fp16, [1, 256, 16]> h0_1_to_fp16 = const()[name = tensor<string, []>("h0_1_to_fp16"), val = tensor<fp16, [1, 256, 16]>(BLOBFILE(path = tensor<string, []>("@model_path/weights/weight.bin"), offset = tensor<uint64, []>(1544960)))];
            tensor<fp16, [1, 256, 16]> var_210_cast_fp16 = mul(x = var_209_cast_fp16, y = h0_1_to_fp16)[name = tensor<string, []>("op_210_cast_fp16")];
            tensor<int32, [4]> var_212_begin_0 = const()[name = tensor<string, []>("op_212_begin_0"), val = tensor<int32, [4]>([0, 0, 0, 0])];
            tensor<int32, [4]> var_212_end_0 = const()[name = tensor<string, []>("op_212_end_0"), val = tensor<int32, [4]>([1, 1, 1, 16])];
            tensor<bool, [4]> var_212_end_mask_0 = const()[name = tensor<string, []>("op_212_end_mask_0"), val = tensor<bool, [4]>([true, false, true, true])];
            tensor<bool, [4]> var_212_squeeze_mask_0 = const()[name = tensor<string, []>("op_212_squeeze_mask_0"), val = tensor<bool, [4]>([false, true, false, false])];
            tensor<fp16, [1, 1, 16]> var_212_cast_fp16 = slice_by_index(begin = var_212_begin_0, end = var_212_end_0, end_mask = var_212_end_mask_0, squeeze_mask = var_212_squeeze_mask_0, x = delta_B_u_1_cast_fp16)[name = tensor<string, []>("op_212_cast_fp16")];
            tensor<fp16, [1, 256, 16]> hidden_state_3_cast_fp16 = add(x = var_210_cast_fp16, y = var_212_cast_fp16)[name = tensor<string, []>("hidden_state_3_cast_fp16")];
            tensor<int32, [3]> var_215_begin_0 = const()[name = tensor<string, []>("op_215_begin_0"), val = tensor<int32, [3]>([0, 0, 0])];
            tensor<int32, [3]> var_215_end_0 = const()[name = tensor<string, []>("op_215_end_0"), val = tensor<int32, [3]>([1, 1, 16])];
            tensor<bool, [3]> var_215_end_mask_0 = const()[name = tensor<string, []>("op_215_end_mask_0"), val = tensor<bool, [3]>([true, false, true])];
            tensor<bool, [3]> var_215_squeeze_mask_0 = const()[name = tensor<string, []>("op_215_squeeze_mask_0"), val = tensor<bool, [3]>([false, true, false])];
            tensor<fp16, [1, 64, 16]> C_proj_1_cast_fp16 = transpose(perm = C_proj_1_perm_0, x = var_186_cast_fp16)[name = tensor<string, []>("transpose_783")];
            tensor<fp16, [1, 16]> var_215_cast_fp16 = slice_by_index(begin = var_215_begin_0, end = var_215_end_0, end_mask = var_215_end_mask_0, squeeze_mask = var_215_squeeze_mask_0, x = C_proj_1_cast_fp16)[name = tensor<string, []>("op_215_cast_fp16")];
            tensor<int32, [3]> concat_4 = const()[name = tensor<string, []>("concat_4"), val = tensor<int32, [3]>([1, 16, 1])];
            tensor<fp16, [1, 16, 1]> reshape_1_cast_fp16 = reshape(shape = concat_4, x = var_215_cast_fp16)[name = tensor<string, []>("reshape_1_cast_fp16")];
            tensor<bool, []> matmul_0_transpose_x_0 = const()[name = tensor<string, []>("matmul_0_transpose_x_0"), val = tensor<bool, []>(false)];
            tensor<bool, []> matmul_0_transpose_y_0 = const()[name = tensor<string, []>("matmul_0_transpose_y_0"), val = tensor<bool, []>(false)];
            tensor<fp16, [1, 256, 1]> matmul_0_cast_fp16 = matmul(transpose_x = matmul_0_transpose_x_0, transpose_y = matmul_0_transpose_y_0, x = hidden_state_3_cast_fp16, y = reshape_1_cast_fp16)[name = tensor<string, []>("matmul_0_cast_fp16")];
            tensor<int32, [2]> concat_7 = const()[name = tensor<string, []>("concat_7"), val = tensor<int32, [2]>([1, 256])];
            tensor<fp16, [1, 256]> reshape_2_cast_fp16 = reshape(shape = concat_7, x = matmul_0_cast_fp16)[name = tensor<string, []>("reshape_2_cast_fp16")];
            tensor<int32, [4]> var_220_begin_0 = const()[name = tensor<string, []>("op_220_begin_0"), val = tensor<int32, [4]>([0, 1, 0, 0])];
            tensor<int32, [4]> var_220_end_0 = const()[name = tensor<string, []>("op_220_end_0"), val = tensor<int32, [4]>([1, 2, 256, 16])];
            tensor<bool, [4]> var_220_end_mask_0 = const()[name = tensor<string, []>("op_220_end_mask_0"), val = tensor<bool, [4]>([true, false, true, true])];
            tensor<bool, [4]> var_220_squeeze_mask_0 = const()[name = tensor<string, []>("op_220_squeeze_mask_0"), val = tensor<bool, [4]>([false, true, false, false])];
            tensor<fp16, [1, 256, 16]> var_220_cast_fp16 = slice_by_index(begin = var_220_begin_0, end = var_220_end_0, end_mask = var_220_end_mask_0, squeeze_mask = var_220_squeeze_mask_0, x = clip_1_to_fp16)[name = tensor<string, []>("op_220_cast_fp16")];
            tensor<fp16, [1, 256, 16]> var_221_cast_fp16 = mul(x = var_220_cast_fp16, y = hidden_state_3_cast_fp16)[name = tensor<string, []>("op_221_cast_fp16")];
            tensor<int32, [4]> var_223_begin_0 = const()[name = tensor<string, []>("op_223_begin_0"), val = tensor<int32, [4]>([0, 1, 0, 0])];
            tensor<int32, [4]> var_223_end_0 = const()[name = tensor<string, []>("op_223_end_0"), val = tensor<int32, [4]>([1, 2, 1, 16])];
            tensor<bool, [4]> var_223_end_mask_0 = const()[name = tensor<string, []>("op_223_end_mask_0"), val = tensor<bool, [4]>([true, false, true, true])];
            tensor<bool, [4]> var_223_squeeze_mask_0 = const()[name = tensor<string, []>("op_223_squeeze_mask_0"), val = tensor<bool, [4]>([false, true, false, false])];
            tensor<fp16, [1, 1, 16]> var_223_cast_fp16 = slice_by_index(begin = var_223_begin_0, end = var_223_end_0, end_mask = var_223_end_mask_0, squeeze_mask = var_223_squeeze_mask_0, x = delta_B_u_1_cast_fp16)[name = tensor<string, []>("op_223_cast_fp16")];
            tensor<fp16, [1, 256, 16]> hidden_state_5_cast_fp16 = add(x = var_221_cast_fp16, y = var_223_cast_fp16)[name = tensor<string, []>("hidden_state_5_cast_fp16")];
            tensor<int32, [3]> var_226_begin_0 = const()[name = tensor<string, []>("op_226_begin_0"), val = tensor<int32, [3]>([0, 1, 0])];
            tensor<int32, [3]> var_226_end_0 = const()[name = tensor<string, []>("op_226_end_0"), val = tensor<int32, [3]>([1, 2, 16])];
            tensor<bool, [3]> var_226_end_mask_0 = const()[name = tensor<string, []>("op_226_end_mask_0"), val = tensor<bool, [3]>([true, false, true])];
            tensor<bool, [3]> var_226_squeeze_mask_0 = const()[name = tensor<string, []>("op_226_squeeze_mask_0"), val = tensor<bool, [3]>([false, true, false])];
            tensor<fp16, [1, 16]> var_226_cast_fp16 = slice_by_index(begin = var_226_begin_0, end = var_226_end_0, end_mask = var_226_end_mask_0, squeeze_mask = var_226_squeeze_mask_0, x = C_proj_1_cast_fp16)[name = tensor<string, []>("op_226_cast_fp16")];
            tensor<int32, [3]> concat_12 = const()[name = tensor<string, []>("concat_12"), val = tensor<int32, [3]>([1, 16, 1])];
            tensor<fp16, [1, 16, 1]> reshape_4_cast_fp16 = reshape(shape = concat_12, x = var_226_cast_fp16)[name = tensor<string, []>("reshape_4_cast_fp16")];
            tensor<bool, []> matmul_1_transpose_x_0 = const()[name = tensor<string, []>("matmul_1_transpose_x_0"), val = tensor<bool, []>(false)];
            tensor<bool, []> matmul_1_transpose_y_0 = const()[name = tensor<string, []>("matmul_1_transpose_y_0"), val = tensor<bool, []>(false)];
            tensor<fp16, [1, 256, 1]> matmul_1_cast_fp16 = matmul(transpose_x = matmul_1_transpose_x_0, transpose_y = matmul_1_transpose_y_0, x = hidden_state_5_cast_fp16, y = reshape_4_cast_fp16)[name = tensor<string, []>("matmul_1_cast_fp16")];
            tensor<int32, [2]> concat_15 = const()[name = tensor<string, []>("concat_15"), val = tensor<int32, [2]>([1, 256])];
            tensor<fp16, [1, 256]> reshape_5_cast_fp16 = reshape(shape = concat_15, x = matmul_1_cast_fp16)[name = tensor<string, []>("reshape_5_cast_fp16")];
            tensor<int32, [4]> var_231_begin_0 = const()[name = tensor<string, []>("op_231_begin_0"), val = tensor<int32, [4]>([0, 2, 0, 0])];
            tensor<int32, [4]> var_231_end_0 = const()[name = tensor<string, []>("op_231_end_0"), val = tensor<int32, [4]>([1, 3, 256, 16])];
            tensor<bool, [4]> var_231_end_mask_0 = const()[name = tensor<string, []>("op_231_end_mask_0"), val = tensor<bool, [4]>([true, false, true, true])];
            tensor<bool, [4]> var_231_squeeze_mask_0 = const()[name = tensor<string, []>("op_231_squeeze_mask_0"), val = tensor<bool, [4]>([false, true, false, false])];
            tensor<fp16, [1, 256, 16]> var_231_cast_fp16 = slice_by_index(begin = var_231_begin_0, end = var_231_end_0, end_mask = var_231_end_mask_0, squeeze_mask = var_231_squeeze_mask_0, x = clip_1_to_fp16)[name = tensor<string, []>("op_231_cast_fp16")];
            tensor<fp16, [1, 256, 16]> var_232_cast_fp16 = mul(x = var_231_cast_fp16, y = hidden_state_5_cast_fp16)[name = tensor<string, []>("op_232_cast_fp16")];
            tensor<int32, [4]> var_234_begin_0 = const()[name = tensor<string, []>("op_234_begin_0"), val = tensor<int32, [4]>([0, 2, 0, 0])];
            tensor<int32, [4]> var_234_end_0 = const()[name = tensor<string, []>("op_234_end_0"), val = tensor<int32, [4]>([1, 3, 1, 16])];
            tensor<bool, [4]> var_234_end_mask_0 = const()[name = tensor<string, []>("op_234_end_mask_0"), val = tensor<bool, [4]>([true, false, true, true])];
            tensor<bool, [4]> var_234_squeeze_mask_0 = const()[name = tensor<string, []>("op_234_squeeze_mask_0"), val = tensor<bool, [4]>([false, true, false, false])];
            tensor<fp16, [1, 1, 16]> var_234_cast_fp16 = slice_by_index(begin = var_234_begin_0, end = var_234_end_0, end_mask = var_234_end_mask_0, squeeze_mask = var_234_squeeze_mask_0, x = delta_B_u_1_cast_fp16)[name = tensor<string, []>("op_234_cast_fp16")];
            tensor<fp16, [1, 256, 16]> hidden_state_7_cast_fp16 = add(x = var_232_cast_fp16, y = var_234_cast_fp16)[name = tensor<string, []>("hidden_state_7_cast_fp16")];
            tensor<int32, [3]> var_237_begin_0 = const()[name = tensor<string, []>("op_237_begin_0"), val = tensor<int32, [3]>([0, 2, 0])];
            tensor<int32, [3]> var_237_end_0 = const()[name = tensor<string, []>("op_237_end_0"), val = tensor<int32, [3]>([1, 3, 16])];
            tensor<bool, [3]> var_237_end_mask_0 = const()[name = tensor<string, []>("op_237_end_mask_0"), val = tensor<bool, [3]>([true, false, true])];
            tensor<bool, [3]> var_237_squeeze_mask_0 = const()[name = tensor<string, []>("op_237_squeeze_mask_0"), val = tensor<bool, [3]>([false, true, false])];
            tensor<fp16, [1, 16]> var_237_cast_fp16 = slice_by_index(begin = var_237_begin_0, end = var_237_end_0, end_mask = var_237_end_mask_0, squeeze_mask = var_237_squeeze_mask_0, x = C_proj_1_cast_fp16)[name = tensor<string, []>("op_237_cast_fp16")];
            tensor<int32, [3]> concat_20 = const()[name = tensor<string, []>("concat_20"), val = tensor<int32, [3]>([1, 16, 1])];
            tensor<fp16, [1, 16, 1]> reshape_7_cast_fp16 = reshape(shape = concat_20, x = var_237_cast_fp16)[name = tensor<string, []>("reshape_7_cast_fp16")];
            tensor<bool, []> matmul_2_transpose_x_0 = const()[name = tensor<string, []>("matmul_2_transpose_x_0"), val = tensor<bool, []>(false)];
            tensor<bool, []> matmul_2_transpose_y_0 = const()[name = tensor<string, []>("matmul_2_transpose_y_0"), val = tensor<bool, []>(false)];
            tensor<fp16, [1, 256, 1]> matmul_2_cast_fp16 = matmul(transpose_x = matmul_2_transpose_x_0, transpose_y = matmul_2_transpose_y_0, x = hidden_state_7_cast_fp16, y = reshape_7_cast_fp16)[name = tensor<string, []>("matmul_2_cast_fp16")];
            tensor<int32, [2]> concat_23 = const()[name = tensor<string, []>("concat_23"), val = tensor<int32, [2]>([1, 256])];
            tensor<fp16, [1, 256]> reshape_8_cast_fp16 = reshape(shape = concat_23, x = matmul_2_cast_fp16)[name = tensor<string, []>("reshape_8_cast_fp16")];
            tensor<int32, [4]> var_242_begin_0 = const()[name = tensor<string, []>("op_242_begin_0"), val = tensor<int32, [4]>([0, 3, 0, 0])];
            tensor<int32, [4]> var_242_end_0 = const()[name = tensor<string, []>("op_242_end_0"), val = tensor<int32, [4]>([1, 4, 256, 16])];
            tensor<bool, [4]> var_242_end_mask_0 = const()[name = tensor<string, []>("op_242_end_mask_0"), val = tensor<bool, [4]>([true, false, true, true])];
            tensor<bool, [4]> var_242_squeeze_mask_0 = const()[name = tensor<string, []>("op_242_squeeze_mask_0"), val = tensor<bool, [4]>([false, true, false, false])];
            tensor<fp16, [1, 256, 16]> var_242_cast_fp16 = slice_by_index(begin = var_242_begin_0, end = var_242_end_0, end_mask = var_242_end_mask_0, squeeze_mask = var_242_squeeze_mask_0, x = clip_1_to_fp16)[name = tensor<string, []>("op_242_cast_fp16")];
            tensor<fp16, [1, 256, 16]> var_243_cast_fp16 = mul(x = var_242_cast_fp16, y = hidden_state_7_cast_fp16)[name = tensor<string, []>("op_243_cast_fp16")];
            tensor<int32, [4]> var_245_begin_0 = const()[name = tensor<string, []>("op_245_begin_0"), val = tensor<int32, [4]>([0, 3, 0, 0])];
            tensor<int32, [4]> var_245_end_0 = const()[name = tensor<string, []>("op_245_end_0"), val = tensor<int32, [4]>([1, 4, 1, 16])];
            tensor<bool, [4]> var_245_end_mask_0 = const()[name = tensor<string, []>("op_245_end_mask_0"), val = tensor<bool, [4]>([true, false, true, true])];
            tensor<bool, [4]> var_245_squeeze_mask_0 = const()[name = tensor<string, []>("op_245_squeeze_mask_0"), val = tensor<bool, [4]>([false, true, false, false])];
            tensor<fp16, [1, 1, 16]> var_245_cast_fp16 = slice_by_index(begin = var_245_begin_0, end = var_245_end_0, end_mask = var_245_end_mask_0, squeeze_mask = var_245_squeeze_mask_0, x = delta_B_u_1_cast_fp16)[name = tensor<string, []>("op_245_cast_fp16")];
            tensor<fp16, [1, 256, 16]> hidden_state_9_cast_fp16 = add(x = var_243_cast_fp16, y = var_245_cast_fp16)[name = tensor<string, []>("hidden_state_9_cast_fp16")];
            tensor<int32, [3]> var_248_begin_0 = const()[name = tensor<string, []>("op_248_begin_0"), val = tensor<int32, [3]>([0, 3, 0])];
            tensor<int32, [3]> var_248_end_0 = const()[name = tensor<string, []>("op_248_end_0"), val = tensor<int32, [3]>([1, 4, 16])];
            tensor<bool, [3]> var_248_end_mask_0 = const()[name = tensor<string, []>("op_248_end_mask_0"), val = tensor<bool, [3]>([true, false, true])];
            tensor<bool, [3]> var_248_squeeze_mask_0 = const()[name = tensor<string, []>("op_248_squeeze_mask_0"), val = tensor<bool, [3]>([false, true, false])];
            tensor<fp16, [1, 16]> var_248_cast_fp16 = slice_by_index(begin = var_248_begin_0, end = var_248_end_0, end_mask = var_248_end_mask_0, squeeze_mask = var_248_squeeze_mask_0, x = C_proj_1_cast_fp16)[name = tensor<string, []>("op_248_cast_fp16")];
            tensor<int32, [3]> concat_28 = const()[name = tensor<string, []>("concat_28"), val = tensor<int32, [3]>([1, 16, 1])];
            tensor<fp16, [1, 16, 1]> reshape_10_cast_fp16 = reshape(shape = concat_28, x = var_248_cast_fp16)[name = tensor<string, []>("reshape_10_cast_fp16")];
            tensor<bool, []> matmul_3_transpose_x_0 = const()[name = tensor<string, []>("matmul_3_transpose_x_0"), val = tensor<bool, []>(false)];
            tensor<bool, []> matmul_3_transpose_y_0 = const()[name = tensor<string, []>("matmul_3_transpose_y_0"), val = tensor<bool, []>(false)];
            tensor<fp16, [1, 256, 1]> matmul_3_cast_fp16 = matmul(transpose_x = matmul_3_transpose_x_0, transpose_y = matmul_3_transpose_y_0, x = hidden_state_9_cast_fp16, y = reshape_10_cast_fp16)[name = tensor<string, []>("matmul_3_cast_fp16")];
            tensor<int32, [2]> concat_31 = const()[name = tensor<string, []>("concat_31"), val = tensor<int32, [2]>([1, 256])];
            tensor<fp16, [1, 256]> reshape_11_cast_fp16 = reshape(shape = concat_31, x = matmul_3_cast_fp16)[name = tensor<string, []>("reshape_11_cast_fp16")];
            tensor<int32, [4]> var_253_begin_0 = const()[name = tensor<string, []>("op_253_begin_0"), val = tensor<int32, [4]>([0, 4, 0, 0])];
            tensor<int32, [4]> var_253_end_0 = const()[name = tensor<string, []>("op_253_end_0"), val = tensor<int32, [4]>([1, 5, 256, 16])];
            tensor<bool, [4]> var_253_end_mask_0 = const()[name = tensor<string, []>("op_253_end_mask_0"), val = tensor<bool, [4]>([true, false, true, true])];
            tensor<bool, [4]> var_253_squeeze_mask_0 = const()[name = tensor<string, []>("op_253_squeeze_mask_0"), val = tensor<bool, [4]>([false, true, false, false])];
            tensor<fp16, [1, 256, 16]> var_253_cast_fp16 = slice_by_index(begin = var_253_begin_0, end = var_253_end_0, end_mask = var_253_end_mask_0, squeeze_mask = var_253_squeeze_mask_0, x = clip_1_to_fp16)[name = tensor<string, []>("op_253_cast_fp16")];
            tensor<fp16, [1, 256, 16]> var_254_cast_fp16 = mul(x = var_253_cast_fp16, y = hidden_state_9_cast_fp16)[name = tensor<string, []>("op_254_cast_fp16")];
            tensor<int32, [4]> var_256_begin_0 = const()[name = tensor<string, []>("op_256_begin_0"), val = tensor<int32, [4]>([0, 4, 0, 0])];
            tensor<int32, [4]> var_256_end_0 = const()[name = tensor<string, []>("op_256_end_0"), val = tensor<int32, [4]>([1, 5, 1, 16])];
            tensor<bool, [4]> var_256_end_mask_0 = const()[name = tensor<string, []>("op_256_end_mask_0"), val = tensor<bool, [4]>([true, false, true, true])];
            tensor<bool, [4]> var_256_squeeze_mask_0 = const()[name = tensor<string, []>("op_256_squeeze_mask_0"), val = tensor<bool, [4]>([false, true, false, false])];
            tensor<fp16, [1, 1, 16]> var_256_cast_fp16 = slice_by_index(begin = var_256_begin_0, end = var_256_end_0, end_mask = var_256_end_mask_0, squeeze_mask = var_256_squeeze_mask_0, x = delta_B_u_1_cast_fp16)[name = tensor<string, []>("op_256_cast_fp16")];
            tensor<fp16, [1, 256, 16]> hidden_state_11_cast_fp16 = add(x = var_254_cast_fp16, y = var_256_cast_fp16)[name = tensor<string, []>("hidden_state_11_cast_fp16")];
            tensor<int32, [3]> var_259_begin_0 = const()[name = tensor<string, []>("op_259_begin_0"), val = tensor<int32, [3]>([0, 4, 0])];
            tensor<int32, [3]> var_259_end_0 = const()[name = tensor<string, []>("op_259_end_0"), val = tensor<int32, [3]>([1, 5, 16])];
            tensor<bool, [3]> var_259_end_mask_0 = const()[name = tensor<string, []>("op_259_end_mask_0"), val = tensor<bool, [3]>([true, false, true])];
            tensor<bool, [3]> var_259_squeeze_mask_0 = const()[name = tensor<string, []>("op_259_squeeze_mask_0"), val = tensor<bool, [3]>([false, true, false])];
            tensor<fp16, [1, 16]> var_259_cast_fp16 = slice_by_index(begin = var_259_begin_0, end = var_259_end_0, end_mask = var_259_end_mask_0, squeeze_mask = var_259_squeeze_mask_0, x = C_proj_1_cast_fp16)[name = tensor<string, []>("op_259_cast_fp16")];
            tensor<int32, [3]> concat_36 = const()[name = tensor<string, []>("concat_36"), val = tensor<int32, [3]>([1, 16, 1])];
            tensor<fp16, [1, 16, 1]> reshape_13_cast_fp16 = reshape(shape = concat_36, x = var_259_cast_fp16)[name = tensor<string, []>("reshape_13_cast_fp16")];
            tensor<bool, []> matmul_4_transpose_x_0 = const()[name = tensor<string, []>("matmul_4_transpose_x_0"), val = tensor<bool, []>(false)];
            tensor<bool, []> matmul_4_transpose_y_0 = const()[name = tensor<string, []>("matmul_4_transpose_y_0"), val = tensor<bool, []>(false)];
            tensor<fp16, [1, 256, 1]> matmul_4_cast_fp16 = matmul(transpose_x = matmul_4_transpose_x_0, transpose_y = matmul_4_transpose_y_0, x = hidden_state_11_cast_fp16, y = reshape_13_cast_fp16)[name = tensor<string, []>("matmul_4_cast_fp16")];
            tensor<int32, [2]> concat_39 = const()[name = tensor<string, []>("concat_39"), val = tensor<int32, [2]>([1, 256])];
            tensor<fp16, [1, 256]> reshape_14_cast_fp16 = reshape(shape = concat_39, x = matmul_4_cast_fp16)[name = tensor<string, []>("reshape_14_cast_fp16")];
            tensor<int32, [4]> var_264_begin_0 = const()[name = tensor<string, []>("op_264_begin_0"), val = tensor<int32, [4]>([0, 5, 0, 0])];
            tensor<int32, [4]> var_264_end_0 = const()[name = tensor<string, []>("op_264_end_0"), val = tensor<int32, [4]>([1, 6, 256, 16])];
            tensor<bool, [4]> var_264_end_mask_0 = const()[name = tensor<string, []>("op_264_end_mask_0"), val = tensor<bool, [4]>([true, false, true, true])];
            tensor<bool, [4]> var_264_squeeze_mask_0 = const()[name = tensor<string, []>("op_264_squeeze_mask_0"), val = tensor<bool, [4]>([false, true, false, false])];
            tensor<fp16, [1, 256, 16]> var_264_cast_fp16 = slice_by_index(begin = var_264_begin_0, end = var_264_end_0, end_mask = var_264_end_mask_0, squeeze_mask = var_264_squeeze_mask_0, x = clip_1_to_fp16)[name = tensor<string, []>("op_264_cast_fp16")];
            tensor<fp16, [1, 256, 16]> var_265_cast_fp16 = mul(x = var_264_cast_fp16, y = hidden_state_11_cast_fp16)[name = tensor<string, []>("op_265_cast_fp16")];
            tensor<int32, [4]> var_267_begin_0 = const()[name = tensor<string, []>("op_267_begin_0"), val = tensor<int32, [4]>([0, 5, 0, 0])];
            tensor<int32, [4]> var_267_end_0 = const()[name = tensor<string, []>("op_267_end_0"), val = tensor<int32, [4]>([1, 6, 1, 16])];
            tensor<bool, [4]> var_267_end_mask_0 = const()[name = tensor<string, []>("op_267_end_mask_0"), val = tensor<bool, [4]>([true, false, true, true])];
            tensor<bool, [4]> var_267_squeeze_mask_0 = const()[name = tensor<string, []>("op_267_squeeze_mask_0"), val = tensor<bool, [4]>([false, true, false, false])];
            tensor<fp16, [1, 1, 16]> var_267_cast_fp16 = slice_by_index(begin = var_267_begin_0, end = var_267_end_0, end_mask = var_267_end_mask_0, squeeze_mask = var_267_squeeze_mask_0, x = delta_B_u_1_cast_fp16)[name = tensor<string, []>("op_267_cast_fp16")];
            tensor<fp16, [1, 256, 16]> hidden_state_13_cast_fp16 = add(x = var_265_cast_fp16, y = var_267_cast_fp16)[name = tensor<string, []>("hidden_state_13_cast_fp16")];
            tensor<int32, [3]> var_270_begin_0 = const()[name = tensor<string, []>("op_270_begin_0"), val = tensor<int32, [3]>([0, 5, 0])];
            tensor<int32, [3]> var_270_end_0 = const()[name = tensor<string, []>("op_270_end_0"), val = tensor<int32, [3]>([1, 6, 16])];
            tensor<bool, [3]> var_270_end_mask_0 = const()[name = tensor<string, []>("op_270_end_mask_0"), val = tensor<bool, [3]>([true, false, true])];
            tensor<bool, [3]> var_270_squeeze_mask_0 = const()[name = tensor<string, []>("op_270_squeeze_mask_0"), val = tensor<bool, [3]>([false, true, false])];
            tensor<fp16, [1, 16]> var_270_cast_fp16 = slice_by_index(begin = var_270_begin_0, end = var_270_end_0, end_mask = var_270_end_mask_0, squeeze_mask = var_270_squeeze_mask_0, x = C_proj_1_cast_fp16)[name = tensor<string, []>("op_270_cast_fp16")];
            tensor<int32, [3]> concat_44 = const()[name = tensor<string, []>("concat_44"), val = tensor<int32, [3]>([1, 16, 1])];
            tensor<fp16, [1, 16, 1]> reshape_16_cast_fp16 = reshape(shape = concat_44, x = var_270_cast_fp16)[name = tensor<string, []>("reshape_16_cast_fp16")];
            tensor<bool, []> matmul_5_transpose_x_0 = const()[name = tensor<string, []>("matmul_5_transpose_x_0"), val = tensor<bool, []>(false)];
            tensor<bool, []> matmul_5_transpose_y_0 = const()[name = tensor<string, []>("matmul_5_transpose_y_0"), val = tensor<bool, []>(false)];
            tensor<fp16, [1, 256, 1]> matmul_5_cast_fp16 = matmul(transpose_x = matmul_5_transpose_x_0, transpose_y = matmul_5_transpose_y_0, x = hidden_state_13_cast_fp16, y = reshape_16_cast_fp16)[name = tensor<string, []>("matmul_5_cast_fp16")];
            tensor<int32, [2]> concat_47 = const()[name = tensor<string, []>("concat_47"), val = tensor<int32, [2]>([1, 256])];
            tensor<fp16, [1, 256]> reshape_17_cast_fp16 = reshape(shape = concat_47, x = matmul_5_cast_fp16)[name = tensor<string, []>("reshape_17_cast_fp16")];
            tensor<int32, [4]> var_275_begin_0 = const()[name = tensor<string, []>("op_275_begin_0"), val = tensor<int32, [4]>([0, 6, 0, 0])];
            tensor<int32, [4]> var_275_end_0 = const()[name = tensor<string, []>("op_275_end_0"), val = tensor<int32, [4]>([1, 7, 256, 16])];
            tensor<bool, [4]> var_275_end_mask_0 = const()[name = tensor<string, []>("op_275_end_mask_0"), val = tensor<bool, [4]>([true, false, true, true])];
            tensor<bool, [4]> var_275_squeeze_mask_0 = const()[name = tensor<string, []>("op_275_squeeze_mask_0"), val = tensor<bool, [4]>([false, true, false, false])];
            tensor<fp16, [1, 256, 16]> var_275_cast_fp16 = slice_by_index(begin = var_275_begin_0, end = var_275_end_0, end_mask = var_275_end_mask_0, squeeze_mask = var_275_squeeze_mask_0, x = clip_1_to_fp16)[name = tensor<string, []>("op_275_cast_fp16")];
            tensor<fp16, [1, 256, 16]> var_276_cast_fp16 = mul(x = var_275_cast_fp16, y = hidden_state_13_cast_fp16)[name = tensor<string, []>("op_276_cast_fp16")];
            tensor<int32, [4]> var_278_begin_0 = const()[name = tensor<string, []>("op_278_begin_0"), val = tensor<int32, [4]>([0, 6, 0, 0])];
            tensor<int32, [4]> var_278_end_0 = const()[name = tensor<string, []>("op_278_end_0"), val = tensor<int32, [4]>([1, 7, 1, 16])];
            tensor<bool, [4]> var_278_end_mask_0 = const()[name = tensor<string, []>("op_278_end_mask_0"), val = tensor<bool, [4]>([true, false, true, true])];
            tensor<bool, [4]> var_278_squeeze_mask_0 = const()[name = tensor<string, []>("op_278_squeeze_mask_0"), val = tensor<bool, [4]>([false, true, false, false])];
            tensor<fp16, [1, 1, 16]> var_278_cast_fp16 = slice_by_index(begin = var_278_begin_0, end = var_278_end_0, end_mask = var_278_end_mask_0, squeeze_mask = var_278_squeeze_mask_0, x = delta_B_u_1_cast_fp16)[name = tensor<string, []>("op_278_cast_fp16")];
            tensor<fp16, [1, 256, 16]> hidden_state_15_cast_fp16 = add(x = var_276_cast_fp16, y = var_278_cast_fp16)[name = tensor<string, []>("hidden_state_15_cast_fp16")];
            tensor<int32, [3]> var_281_begin_0 = const()[name = tensor<string, []>("op_281_begin_0"), val = tensor<int32, [3]>([0, 6, 0])];
            tensor<int32, [3]> var_281_end_0 = const()[name = tensor<string, []>("op_281_end_0"), val = tensor<int32, [3]>([1, 7, 16])];
            tensor<bool, [3]> var_281_end_mask_0 = const()[name = tensor<string, []>("op_281_end_mask_0"), val = tensor<bool, [3]>([true, false, true])];
            tensor<bool, [3]> var_281_squeeze_mask_0 = const()[name = tensor<string, []>("op_281_squeeze_mask_0"), val = tensor<bool, [3]>([false, true, false])];
            tensor<fp16, [1, 16]> var_281_cast_fp16 = slice_by_index(begin = var_281_begin_0, end = var_281_end_0, end_mask = var_281_end_mask_0, squeeze_mask = var_281_squeeze_mask_0, x = C_proj_1_cast_fp16)[name = tensor<string, []>("op_281_cast_fp16")];
            tensor<int32, [3]> concat_52 = const()[name = tensor<string, []>("concat_52"), val = tensor<int32, [3]>([1, 16, 1])];
            tensor<fp16, [1, 16, 1]> reshape_19_cast_fp16 = reshape(shape = concat_52, x = var_281_cast_fp16)[name = tensor<string, []>("reshape_19_cast_fp16")];
            tensor<bool, []> matmul_6_transpose_x_0 = const()[name = tensor<string, []>("matmul_6_transpose_x_0"), val = tensor<bool, []>(false)];
            tensor<bool, []> matmul_6_transpose_y_0 = const()[name = tensor<string, []>("matmul_6_transpose_y_0"), val = tensor<bool, []>(false)];
            tensor<fp16, [1, 256, 1]> matmul_6_cast_fp16 = matmul(transpose_x = matmul_6_transpose_x_0, transpose_y = matmul_6_transpose_y_0, x = hidden_state_15_cast_fp16, y = reshape_19_cast_fp16)[name = tensor<string, []>("matmul_6_cast_fp16")];
            tensor<int32, [2]> concat_55 = const()[name = tensor<string, []>("concat_55"), val = tensor<int32, [2]>([1, 256])];
            tensor<fp16, [1, 256]> reshape_20_cast_fp16 = reshape(shape = concat_55, x = matmul_6_cast_fp16)[name = tensor<string, []>("reshape_20_cast_fp16")];
            tensor<int32, [4]> var_286_begin_0 = const()[name = tensor<string, []>("op_286_begin_0"), val = tensor<int32, [4]>([0, 7, 0, 0])];
            tensor<int32, [4]> var_286_end_0 = const()[name = tensor<string, []>("op_286_end_0"), val = tensor<int32, [4]>([1, 8, 256, 16])];
            tensor<bool, [4]> var_286_end_mask_0 = const()[name = tensor<string, []>("op_286_end_mask_0"), val = tensor<bool, [4]>([true, false, true, true])];
            tensor<bool, [4]> var_286_squeeze_mask_0 = const()[name = tensor<string, []>("op_286_squeeze_mask_0"), val = tensor<bool, [4]>([false, true, false, false])];
            tensor<fp16, [1, 256, 16]> var_286_cast_fp16 = slice_by_index(begin = var_286_begin_0, end = var_286_end_0, end_mask = var_286_end_mask_0, squeeze_mask = var_286_squeeze_mask_0, x = clip_1_to_fp16)[name = tensor<string, []>("op_286_cast_fp16")];
            tensor<fp16, [1, 256, 16]> var_287_cast_fp16 = mul(x = var_286_cast_fp16, y = hidden_state_15_cast_fp16)[name = tensor<string, []>("op_287_cast_fp16")];
            tensor<int32, [4]> var_289_begin_0 = const()[name = tensor<string, []>("op_289_begin_0"), val = tensor<int32, [4]>([0, 7, 0, 0])];
            tensor<int32, [4]> var_289_end_0 = const()[name = tensor<string, []>("op_289_end_0"), val = tensor<int32, [4]>([1, 8, 1, 16])];
            tensor<bool, [4]> var_289_end_mask_0 = const()[name = tensor<string, []>("op_289_end_mask_0"), val = tensor<bool, [4]>([true, false, true, true])];
            tensor<bool, [4]> var_289_squeeze_mask_0 = const()[name = tensor<string, []>("op_289_squeeze_mask_0"), val = tensor<bool, [4]>([false, true, false, false])];
            tensor<fp16, [1, 1, 16]> var_289_cast_fp16 = slice_by_index(begin = var_289_begin_0, end = var_289_end_0, end_mask = var_289_end_mask_0, squeeze_mask = var_289_squeeze_mask_0, x = delta_B_u_1_cast_fp16)[name = tensor<string, []>("op_289_cast_fp16")];
            tensor<fp16, [1, 256, 16]> hidden_state_17_cast_fp16 = add(x = var_287_cast_fp16, y = var_289_cast_fp16)[name = tensor<string, []>("hidden_state_17_cast_fp16")];
            tensor<int32, [3]> var_292_begin_0 = const()[name = tensor<string, []>("op_292_begin_0"), val = tensor<int32, [3]>([0, 7, 0])];
            tensor<int32, [3]> var_292_end_0 = const()[name = tensor<string, []>("op_292_end_0"), val = tensor<int32, [3]>([1, 8, 16])];
            tensor<bool, [3]> var_292_end_mask_0 = const()[name = tensor<string, []>("op_292_end_mask_0"), val = tensor<bool, [3]>([true, false, true])];
            tensor<bool, [3]> var_292_squeeze_mask_0 = const()[name = tensor<string, []>("op_292_squeeze_mask_0"), val = tensor<bool, [3]>([false, true, false])];
            tensor<fp16, [1, 16]> var_292_cast_fp16 = slice_by_index(begin = var_292_begin_0, end = var_292_end_0, end_mask = var_292_end_mask_0, squeeze_mask = var_292_squeeze_mask_0, x = C_proj_1_cast_fp16)[name = tensor<string, []>("op_292_cast_fp16")];
            tensor<int32, [3]> concat_60 = const()[name = tensor<string, []>("concat_60"), val = tensor<int32, [3]>([1, 16, 1])];
            tensor<fp16, [1, 16, 1]> reshape_22_cast_fp16 = reshape(shape = concat_60, x = var_292_cast_fp16)[name = tensor<string, []>("reshape_22_cast_fp16")];
            tensor<bool, []> matmul_7_transpose_x_0 = const()[name = tensor<string, []>("matmul_7_transpose_x_0"), val = tensor<bool, []>(false)];
            tensor<bool, []> matmul_7_transpose_y_0 = const()[name = tensor<string, []>("matmul_7_transpose_y_0"), val = tensor<bool, []>(false)];
            tensor<fp16, [1, 256, 1]> matmul_7_cast_fp16 = matmul(transpose_x = matmul_7_transpose_x_0, transpose_y = matmul_7_transpose_y_0, x = hidden_state_17_cast_fp16, y = reshape_22_cast_fp16)[name = tensor<string, []>("matmul_7_cast_fp16")];
            tensor<int32, [2]> concat_63 = const()[name = tensor<string, []>("concat_63"), val = tensor<int32, [2]>([1, 256])];
            tensor<fp16, [1, 256]> reshape_23_cast_fp16 = reshape(shape = concat_63, x = matmul_7_cast_fp16)[name = tensor<string, []>("reshape_23_cast_fp16")];
            tensor<int32, [4]> var_297_begin_0 = const()[name = tensor<string, []>("op_297_begin_0"), val = tensor<int32, [4]>([0, 8, 0, 0])];
            tensor<int32, [4]> var_297_end_0 = const()[name = tensor<string, []>("op_297_end_0"), val = tensor<int32, [4]>([1, 9, 256, 16])];
            tensor<bool, [4]> var_297_end_mask_0 = const()[name = tensor<string, []>("op_297_end_mask_0"), val = tensor<bool, [4]>([true, false, true, true])];
            tensor<bool, [4]> var_297_squeeze_mask_0 = const()[name = tensor<string, []>("op_297_squeeze_mask_0"), val = tensor<bool, [4]>([false, true, false, false])];
            tensor<fp16, [1, 256, 16]> var_297_cast_fp16 = slice_by_index(begin = var_297_begin_0, end = var_297_end_0, end_mask = var_297_end_mask_0, squeeze_mask = var_297_squeeze_mask_0, x = clip_1_to_fp16)[name = tensor<string, []>("op_297_cast_fp16")];
            tensor<fp16, [1, 256, 16]> var_298_cast_fp16 = mul(x = var_297_cast_fp16, y = hidden_state_17_cast_fp16)[name = tensor<string, []>("op_298_cast_fp16")];
            tensor<int32, [4]> var_300_begin_0 = const()[name = tensor<string, []>("op_300_begin_0"), val = tensor<int32, [4]>([0, 8, 0, 0])];
            tensor<int32, [4]> var_300_end_0 = const()[name = tensor<string, []>("op_300_end_0"), val = tensor<int32, [4]>([1, 9, 1, 16])];
            tensor<bool, [4]> var_300_end_mask_0 = const()[name = tensor<string, []>("op_300_end_mask_0"), val = tensor<bool, [4]>([true, false, true, true])];
            tensor<bool, [4]> var_300_squeeze_mask_0 = const()[name = tensor<string, []>("op_300_squeeze_mask_0"), val = tensor<bool, [4]>([false, true, false, false])];
            tensor<fp16, [1, 1, 16]> var_300_cast_fp16 = slice_by_index(begin = var_300_begin_0, end = var_300_end_0, end_mask = var_300_end_mask_0, squeeze_mask = var_300_squeeze_mask_0, x = delta_B_u_1_cast_fp16)[name = tensor<string, []>("op_300_cast_fp16")];
            tensor<fp16, [1, 256, 16]> hidden_state_19_cast_fp16 = add(x = var_298_cast_fp16, y = var_300_cast_fp16)[name = tensor<string, []>("hidden_state_19_cast_fp16")];
            tensor<int32, [3]> var_303_begin_0 = const()[name = tensor<string, []>("op_303_begin_0"), val = tensor<int32, [3]>([0, 8, 0])];
            tensor<int32, [3]> var_303_end_0 = const()[name = tensor<string, []>("op_303_end_0"), val = tensor<int32, [3]>([1, 9, 16])];
            tensor<bool, [3]> var_303_end_mask_0 = const()[name = tensor<string, []>("op_303_end_mask_0"), val = tensor<bool, [3]>([true, false, true])];
            tensor<bool, [3]> var_303_squeeze_mask_0 = const()[name = tensor<string, []>("op_303_squeeze_mask_0"), val = tensor<bool, [3]>([false, true, false])];
            tensor<fp16, [1, 16]> var_303_cast_fp16 = slice_by_index(begin = var_303_begin_0, end = var_303_end_0, end_mask = var_303_end_mask_0, squeeze_mask = var_303_squeeze_mask_0, x = C_proj_1_cast_fp16)[name = tensor<string, []>("op_303_cast_fp16")];
            tensor<int32, [3]> concat_68 = const()[name = tensor<string, []>("concat_68"), val = tensor<int32, [3]>([1, 16, 1])];
            tensor<fp16, [1, 16, 1]> reshape_25_cast_fp16 = reshape(shape = concat_68, x = var_303_cast_fp16)[name = tensor<string, []>("reshape_25_cast_fp16")];
            tensor<bool, []> matmul_8_transpose_x_0 = const()[name = tensor<string, []>("matmul_8_transpose_x_0"), val = tensor<bool, []>(false)];
            tensor<bool, []> matmul_8_transpose_y_0 = const()[name = tensor<string, []>("matmul_8_transpose_y_0"), val = tensor<bool, []>(false)];
            tensor<fp16, [1, 256, 1]> matmul_8_cast_fp16 = matmul(transpose_x = matmul_8_transpose_x_0, transpose_y = matmul_8_transpose_y_0, x = hidden_state_19_cast_fp16, y = reshape_25_cast_fp16)[name = tensor<string, []>("matmul_8_cast_fp16")];
            tensor<int32, [2]> concat_71 = const()[name = tensor<string, []>("concat_71"), val = tensor<int32, [2]>([1, 256])];
            tensor<fp16, [1, 256]> reshape_26_cast_fp16 = reshape(shape = concat_71, x = matmul_8_cast_fp16)[name = tensor<string, []>("reshape_26_cast_fp16")];
            tensor<int32, [4]> var_308_begin_0 = const()[name = tensor<string, []>("op_308_begin_0"), val = tensor<int32, [4]>([0, 9, 0, 0])];
            tensor<int32, [4]> var_308_end_0 = const()[name = tensor<string, []>("op_308_end_0"), val = tensor<int32, [4]>([1, 10, 256, 16])];
            tensor<bool, [4]> var_308_end_mask_0 = const()[name = tensor<string, []>("op_308_end_mask_0"), val = tensor<bool, [4]>([true, false, true, true])];
            tensor<bool, [4]> var_308_squeeze_mask_0 = const()[name = tensor<string, []>("op_308_squeeze_mask_0"), val = tensor<bool, [4]>([false, true, false, false])];
            tensor<fp16, [1, 256, 16]> var_308_cast_fp16 = slice_by_index(begin = var_308_begin_0, end = var_308_end_0, end_mask = var_308_end_mask_0, squeeze_mask = var_308_squeeze_mask_0, x = clip_1_to_fp16)[name = tensor<string, []>("op_308_cast_fp16")];
            tensor<fp16, [1, 256, 16]> var_309_cast_fp16 = mul(x = var_308_cast_fp16, y = hidden_state_19_cast_fp16)[name = tensor<string, []>("op_309_cast_fp16")];
            tensor<int32, [4]> var_311_begin_0 = const()[name = tensor<string, []>("op_311_begin_0"), val = tensor<int32, [4]>([0, 9, 0, 0])];
            tensor<int32, [4]> var_311_end_0 = const()[name = tensor<string, []>("op_311_end_0"), val = tensor<int32, [4]>([1, 10, 1, 16])];
            tensor<bool, [4]> var_311_end_mask_0 = const()[name = tensor<string, []>("op_311_end_mask_0"), val = tensor<bool, [4]>([true, false, true, true])];
            tensor<bool, [4]> var_311_squeeze_mask_0 = const()[name = tensor<string, []>("op_311_squeeze_mask_0"), val = tensor<bool, [4]>([false, true, false, false])];
            tensor<fp16, [1, 1, 16]> var_311_cast_fp16 = slice_by_index(begin = var_311_begin_0, end = var_311_end_0, end_mask = var_311_end_mask_0, squeeze_mask = var_311_squeeze_mask_0, x = delta_B_u_1_cast_fp16)[name = tensor<string, []>("op_311_cast_fp16")];
            tensor<fp16, [1, 256, 16]> hidden_state_21_cast_fp16 = add(x = var_309_cast_fp16, y = var_311_cast_fp16)[name = tensor<string, []>("hidden_state_21_cast_fp16")];
            tensor<int32, [3]> var_314_begin_0 = const()[name = tensor<string, []>("op_314_begin_0"), val = tensor<int32, [3]>([0, 9, 0])];
            tensor<int32, [3]> var_314_end_0 = const()[name = tensor<string, []>("op_314_end_0"), val = tensor<int32, [3]>([1, 10, 16])];
            tensor<bool, [3]> var_314_end_mask_0 = const()[name = tensor<string, []>("op_314_end_mask_0"), val = tensor<bool, [3]>([true, false, true])];
            tensor<bool, [3]> var_314_squeeze_mask_0 = const()[name = tensor<string, []>("op_314_squeeze_mask_0"), val = tensor<bool, [3]>([false, true, false])];
            tensor<fp16, [1, 16]> var_314_cast_fp16 = slice_by_index(begin = var_314_begin_0, end = var_314_end_0, end_mask = var_314_end_mask_0, squeeze_mask = var_314_squeeze_mask_0, x = C_proj_1_cast_fp16)[name = tensor<string, []>("op_314_cast_fp16")];
            tensor<int32, [3]> concat_76 = const()[name = tensor<string, []>("concat_76"), val = tensor<int32, [3]>([1, 16, 1])];
            tensor<fp16, [1, 16, 1]> reshape_28_cast_fp16 = reshape(shape = concat_76, x = var_314_cast_fp16)[name = tensor<string, []>("reshape_28_cast_fp16")];
            tensor<bool, []> matmul_9_transpose_x_0 = const()[name = tensor<string, []>("matmul_9_transpose_x_0"), val = tensor<bool, []>(false)];
            tensor<bool, []> matmul_9_transpose_y_0 = const()[name = tensor<string, []>("matmul_9_transpose_y_0"), val = tensor<bool, []>(false)];
            tensor<fp16, [1, 256, 1]> matmul_9_cast_fp16 = matmul(transpose_x = matmul_9_transpose_x_0, transpose_y = matmul_9_transpose_y_0, x = hidden_state_21_cast_fp16, y = reshape_28_cast_fp16)[name = tensor<string, []>("matmul_9_cast_fp16")];
            tensor<int32, [2]> concat_79 = const()[name = tensor<string, []>("concat_79"), val = tensor<int32, [2]>([1, 256])];
            tensor<fp16, [1, 256]> reshape_29_cast_fp16 = reshape(shape = concat_79, x = matmul_9_cast_fp16)[name = tensor<string, []>("reshape_29_cast_fp16")];
            tensor<int32, [4]> var_319_begin_0 = const()[name = tensor<string, []>("op_319_begin_0"), val = tensor<int32, [4]>([0, 10, 0, 0])];
            tensor<int32, [4]> var_319_end_0 = const()[name = tensor<string, []>("op_319_end_0"), val = tensor<int32, [4]>([1, 11, 256, 16])];
            tensor<bool, [4]> var_319_end_mask_0 = const()[name = tensor<string, []>("op_319_end_mask_0"), val = tensor<bool, [4]>([true, false, true, true])];
            tensor<bool, [4]> var_319_squeeze_mask_0 = const()[name = tensor<string, []>("op_319_squeeze_mask_0"), val = tensor<bool, [4]>([false, true, false, false])];
            tensor<fp16, [1, 256, 16]> var_319_cast_fp16 = slice_by_index(begin = var_319_begin_0, end = var_319_end_0, end_mask = var_319_end_mask_0, squeeze_mask = var_319_squeeze_mask_0, x = clip_1_to_fp16)[name = tensor<string, []>("op_319_cast_fp16")];
            tensor<fp16, [1, 256, 16]> var_320_cast_fp16 = mul(x = var_319_cast_fp16, y = hidden_state_21_cast_fp16)[name = tensor<string, []>("op_320_cast_fp16")];
            tensor<int32, [4]> var_322_begin_0 = const()[name = tensor<string, []>("op_322_begin_0"), val = tensor<int32, [4]>([0, 10, 0, 0])];
            tensor<int32, [4]> var_322_end_0 = const()[name = tensor<string, []>("op_322_end_0"), val = tensor<int32, [4]>([1, 11, 1, 16])];
            tensor<bool, [4]> var_322_end_mask_0 = const()[name = tensor<string, []>("op_322_end_mask_0"), val = tensor<bool, [4]>([true, false, true, true])];
            tensor<bool, [4]> var_322_squeeze_mask_0 = const()[name = tensor<string, []>("op_322_squeeze_mask_0"), val = tensor<bool, [4]>([false, true, false, false])];
            tensor<fp16, [1, 1, 16]> var_322_cast_fp16 = slice_by_index(begin = var_322_begin_0, end = var_322_end_0, end_mask = var_322_end_mask_0, squeeze_mask = var_322_squeeze_mask_0, x = delta_B_u_1_cast_fp16)[name = tensor<string, []>("op_322_cast_fp16")];
            tensor<fp16, [1, 256, 16]> hidden_state_23_cast_fp16 = add(x = var_320_cast_fp16, y = var_322_cast_fp16)[name = tensor<string, []>("hidden_state_23_cast_fp16")];
            tensor<int32, [3]> var_325_begin_0 = const()[name = tensor<string, []>("op_325_begin_0"), val = tensor<int32, [3]>([0, 10, 0])];
            tensor<int32, [3]> var_325_end_0 = const()[name = tensor<string, []>("op_325_end_0"), val = tensor<int32, [3]>([1, 11, 16])];
            tensor<bool, [3]> var_325_end_mask_0 = const()[name = tensor<string, []>("op_325_end_mask_0"), val = tensor<bool, [3]>([true, false, true])];
            tensor<bool, [3]> var_325_squeeze_mask_0 = const()[name = tensor<string, []>("op_325_squeeze_mask_0"), val = tensor<bool, [3]>([false, true, false])];
            tensor<fp16, [1, 16]> var_325_cast_fp16 = slice_by_index(begin = var_325_begin_0, end = var_325_end_0, end_mask = var_325_end_mask_0, squeeze_mask = var_325_squeeze_mask_0, x = C_proj_1_cast_fp16)[name = tensor<string, []>("op_325_cast_fp16")];
            tensor<int32, [3]> concat_84 = const()[name = tensor<string, []>("concat_84"), val = tensor<int32, [3]>([1, 16, 1])];
            tensor<fp16, [1, 16, 1]> reshape_31_cast_fp16 = reshape(shape = concat_84, x = var_325_cast_fp16)[name = tensor<string, []>("reshape_31_cast_fp16")];
            tensor<bool, []> matmul_10_transpose_x_0 = const()[name = tensor<string, []>("matmul_10_transpose_x_0"), val = tensor<bool, []>(false)];
            tensor<bool, []> matmul_10_transpose_y_0 = const()[name = tensor<string, []>("matmul_10_transpose_y_0"), val = tensor<bool, []>(false)];
            tensor<fp16, [1, 256, 1]> matmul_10_cast_fp16 = matmul(transpose_x = matmul_10_transpose_x_0, transpose_y = matmul_10_transpose_y_0, x = hidden_state_23_cast_fp16, y = reshape_31_cast_fp16)[name = tensor<string, []>("matmul_10_cast_fp16")];
            tensor<int32, [2]> concat_87 = const()[name = tensor<string, []>("concat_87"), val = tensor<int32, [2]>([1, 256])];
            tensor<fp16, [1, 256]> reshape_32_cast_fp16 = reshape(shape = concat_87, x = matmul_10_cast_fp16)[name = tensor<string, []>("reshape_32_cast_fp16")];
            tensor<int32, [4]> var_330_begin_0 = const()[name = tensor<string, []>("op_330_begin_0"), val = tensor<int32, [4]>([0, 11, 0, 0])];
            tensor<int32, [4]> var_330_end_0 = const()[name = tensor<string, []>("op_330_end_0"), val = tensor<int32, [4]>([1, 12, 256, 16])];
            tensor<bool, [4]> var_330_end_mask_0 = const()[name = tensor<string, []>("op_330_end_mask_0"), val = tensor<bool, [4]>([true, false, true, true])];
            tensor<bool, [4]> var_330_squeeze_mask_0 = const()[name = tensor<string, []>("op_330_squeeze_mask_0"), val = tensor<bool, [4]>([false, true, false, false])];
            tensor<fp16, [1, 256, 16]> var_330_cast_fp16 = slice_by_index(begin = var_330_begin_0, end = var_330_end_0, end_mask = var_330_end_mask_0, squeeze_mask = var_330_squeeze_mask_0, x = clip_1_to_fp16)[name = tensor<string, []>("op_330_cast_fp16")];
            tensor<fp16, [1, 256, 16]> var_331_cast_fp16 = mul(x = var_330_cast_fp16, y = hidden_state_23_cast_fp16)[name = tensor<string, []>("op_331_cast_fp16")];
            tensor<int32, [4]> var_333_begin_0 = const()[name = tensor<string, []>("op_333_begin_0"), val = tensor<int32, [4]>([0, 11, 0, 0])];
            tensor<int32, [4]> var_333_end_0 = const()[name = tensor<string, []>("op_333_end_0"), val = tensor<int32, [4]>([1, 12, 1, 16])];
            tensor<bool, [4]> var_333_end_mask_0 = const()[name = tensor<string, []>("op_333_end_mask_0"), val = tensor<bool, [4]>([true, false, true, true])];
            tensor<bool, [4]> var_333_squeeze_mask_0 = const()[name = tensor<string, []>("op_333_squeeze_mask_0"), val = tensor<bool, [4]>([false, true, false, false])];
            tensor<fp16, [1, 1, 16]> var_333_cast_fp16 = slice_by_index(begin = var_333_begin_0, end = var_333_end_0, end_mask = var_333_end_mask_0, squeeze_mask = var_333_squeeze_mask_0, x = delta_B_u_1_cast_fp16)[name = tensor<string, []>("op_333_cast_fp16")];
            tensor<fp16, [1, 256, 16]> hidden_state_25_cast_fp16 = add(x = var_331_cast_fp16, y = var_333_cast_fp16)[name = tensor<string, []>("hidden_state_25_cast_fp16")];
            tensor<int32, [3]> var_336_begin_0 = const()[name = tensor<string, []>("op_336_begin_0"), val = tensor<int32, [3]>([0, 11, 0])];
            tensor<int32, [3]> var_336_end_0 = const()[name = tensor<string, []>("op_336_end_0"), val = tensor<int32, [3]>([1, 12, 16])];
            tensor<bool, [3]> var_336_end_mask_0 = const()[name = tensor<string, []>("op_336_end_mask_0"), val = tensor<bool, [3]>([true, false, true])];
            tensor<bool, [3]> var_336_squeeze_mask_0 = const()[name = tensor<string, []>("op_336_squeeze_mask_0"), val = tensor<bool, [3]>([false, true, false])];
            tensor<fp16, [1, 16]> var_336_cast_fp16 = slice_by_index(begin = var_336_begin_0, end = var_336_end_0, end_mask = var_336_end_mask_0, squeeze_mask = var_336_squeeze_mask_0, x = C_proj_1_cast_fp16)[name = tensor<string, []>("op_336_cast_fp16")];
            tensor<int32, [3]> concat_92 = const()[name = tensor<string, []>("concat_92"), val = tensor<int32, [3]>([1, 16, 1])];
            tensor<fp16, [1, 16, 1]> reshape_34_cast_fp16 = reshape(shape = concat_92, x = var_336_cast_fp16)[name = tensor<string, []>("reshape_34_cast_fp16")];
            tensor<bool, []> matmul_11_transpose_x_0 = const()[name = tensor<string, []>("matmul_11_transpose_x_0"), val = tensor<bool, []>(false)];
            tensor<bool, []> matmul_11_transpose_y_0 = const()[name = tensor<string, []>("matmul_11_transpose_y_0"), val = tensor<bool, []>(false)];
            tensor<fp16, [1, 256, 1]> matmul_11_cast_fp16 = matmul(transpose_x = matmul_11_transpose_x_0, transpose_y = matmul_11_transpose_y_0, x = hidden_state_25_cast_fp16, y = reshape_34_cast_fp16)[name = tensor<string, []>("matmul_11_cast_fp16")];
            tensor<int32, [2]> concat_95 = const()[name = tensor<string, []>("concat_95"), val = tensor<int32, [2]>([1, 256])];
            tensor<fp16, [1, 256]> reshape_35_cast_fp16 = reshape(shape = concat_95, x = matmul_11_cast_fp16)[name = tensor<string, []>("reshape_35_cast_fp16")];
            tensor<int32, [4]> var_341_begin_0 = const()[name = tensor<string, []>("op_341_begin_0"), val = tensor<int32, [4]>([0, 12, 0, 0])];
            tensor<int32, [4]> var_341_end_0 = const()[name = tensor<string, []>("op_341_end_0"), val = tensor<int32, [4]>([1, 13, 256, 16])];
            tensor<bool, [4]> var_341_end_mask_0 = const()[name = tensor<string, []>("op_341_end_mask_0"), val = tensor<bool, [4]>([true, false, true, true])];
            tensor<bool, [4]> var_341_squeeze_mask_0 = const()[name = tensor<string, []>("op_341_squeeze_mask_0"), val = tensor<bool, [4]>([false, true, false, false])];
            tensor<fp16, [1, 256, 16]> var_341_cast_fp16 = slice_by_index(begin = var_341_begin_0, end = var_341_end_0, end_mask = var_341_end_mask_0, squeeze_mask = var_341_squeeze_mask_0, x = clip_1_to_fp16)[name = tensor<string, []>("op_341_cast_fp16")];
            tensor<fp16, [1, 256, 16]> var_342_cast_fp16 = mul(x = var_341_cast_fp16, y = hidden_state_25_cast_fp16)[name = tensor<string, []>("op_342_cast_fp16")];
            tensor<int32, [4]> var_344_begin_0 = const()[name = tensor<string, []>("op_344_begin_0"), val = tensor<int32, [4]>([0, 12, 0, 0])];
            tensor<int32, [4]> var_344_end_0 = const()[name = tensor<string, []>("op_344_end_0"), val = tensor<int32, [4]>([1, 13, 1, 16])];
            tensor<bool, [4]> var_344_end_mask_0 = const()[name = tensor<string, []>("op_344_end_mask_0"), val = tensor<bool, [4]>([true, false, true, true])];
            tensor<bool, [4]> var_344_squeeze_mask_0 = const()[name = tensor<string, []>("op_344_squeeze_mask_0"), val = tensor<bool, [4]>([false, true, false, false])];
            tensor<fp16, [1, 1, 16]> var_344_cast_fp16 = slice_by_index(begin = var_344_begin_0, end = var_344_end_0, end_mask = var_344_end_mask_0, squeeze_mask = var_344_squeeze_mask_0, x = delta_B_u_1_cast_fp16)[name = tensor<string, []>("op_344_cast_fp16")];
            tensor<fp16, [1, 256, 16]> hidden_state_27_cast_fp16 = add(x = var_342_cast_fp16, y = var_344_cast_fp16)[name = tensor<string, []>("hidden_state_27_cast_fp16")];
            tensor<int32, [3]> var_347_begin_0 = const()[name = tensor<string, []>("op_347_begin_0"), val = tensor<int32, [3]>([0, 12, 0])];
            tensor<int32, [3]> var_347_end_0 = const()[name = tensor<string, []>("op_347_end_0"), val = tensor<int32, [3]>([1, 13, 16])];
            tensor<bool, [3]> var_347_end_mask_0 = const()[name = tensor<string, []>("op_347_end_mask_0"), val = tensor<bool, [3]>([true, false, true])];
            tensor<bool, [3]> var_347_squeeze_mask_0 = const()[name = tensor<string, []>("op_347_squeeze_mask_0"), val = tensor<bool, [3]>([false, true, false])];
            tensor<fp16, [1, 16]> var_347_cast_fp16 = slice_by_index(begin = var_347_begin_0, end = var_347_end_0, end_mask = var_347_end_mask_0, squeeze_mask = var_347_squeeze_mask_0, x = C_proj_1_cast_fp16)[name = tensor<string, []>("op_347_cast_fp16")];
            tensor<int32, [3]> concat_100 = const()[name = tensor<string, []>("concat_100"), val = tensor<int32, [3]>([1, 16, 1])];
            tensor<fp16, [1, 16, 1]> reshape_37_cast_fp16 = reshape(shape = concat_100, x = var_347_cast_fp16)[name = tensor<string, []>("reshape_37_cast_fp16")];
            tensor<bool, []> matmul_12_transpose_x_0 = const()[name = tensor<string, []>("matmul_12_transpose_x_0"), val = tensor<bool, []>(false)];
            tensor<bool, []> matmul_12_transpose_y_0 = const()[name = tensor<string, []>("matmul_12_transpose_y_0"), val = tensor<bool, []>(false)];
            tensor<fp16, [1, 256, 1]> matmul_12_cast_fp16 = matmul(transpose_x = matmul_12_transpose_x_0, transpose_y = matmul_12_transpose_y_0, x = hidden_state_27_cast_fp16, y = reshape_37_cast_fp16)[name = tensor<string, []>("matmul_12_cast_fp16")];
            tensor<int32, [2]> concat_103 = const()[name = tensor<string, []>("concat_103"), val = tensor<int32, [2]>([1, 256])];
            tensor<fp16, [1, 256]> reshape_38_cast_fp16 = reshape(shape = concat_103, x = matmul_12_cast_fp16)[name = tensor<string, []>("reshape_38_cast_fp16")];
            tensor<int32, [4]> var_352_begin_0 = const()[name = tensor<string, []>("op_352_begin_0"), val = tensor<int32, [4]>([0, 13, 0, 0])];
            tensor<int32, [4]> var_352_end_0 = const()[name = tensor<string, []>("op_352_end_0"), val = tensor<int32, [4]>([1, 14, 256, 16])];
            tensor<bool, [4]> var_352_end_mask_0 = const()[name = tensor<string, []>("op_352_end_mask_0"), val = tensor<bool, [4]>([true, false, true, true])];
            tensor<bool, [4]> var_352_squeeze_mask_0 = const()[name = tensor<string, []>("op_352_squeeze_mask_0"), val = tensor<bool, [4]>([false, true, false, false])];
            tensor<fp16, [1, 256, 16]> var_352_cast_fp16 = slice_by_index(begin = var_352_begin_0, end = var_352_end_0, end_mask = var_352_end_mask_0, squeeze_mask = var_352_squeeze_mask_0, x = clip_1_to_fp16)[name = tensor<string, []>("op_352_cast_fp16")];
            tensor<fp16, [1, 256, 16]> var_353_cast_fp16 = mul(x = var_352_cast_fp16, y = hidden_state_27_cast_fp16)[name = tensor<string, []>("op_353_cast_fp16")];
            tensor<int32, [4]> var_355_begin_0 = const()[name = tensor<string, []>("op_355_begin_0"), val = tensor<int32, [4]>([0, 13, 0, 0])];
            tensor<int32, [4]> var_355_end_0 = const()[name = tensor<string, []>("op_355_end_0"), val = tensor<int32, [4]>([1, 14, 1, 16])];
            tensor<bool, [4]> var_355_end_mask_0 = const()[name = tensor<string, []>("op_355_end_mask_0"), val = tensor<bool, [4]>([true, false, true, true])];
            tensor<bool, [4]> var_355_squeeze_mask_0 = const()[name = tensor<string, []>("op_355_squeeze_mask_0"), val = tensor<bool, [4]>([false, true, false, false])];
            tensor<fp16, [1, 1, 16]> var_355_cast_fp16 = slice_by_index(begin = var_355_begin_0, end = var_355_end_0, end_mask = var_355_end_mask_0, squeeze_mask = var_355_squeeze_mask_0, x = delta_B_u_1_cast_fp16)[name = tensor<string, []>("op_355_cast_fp16")];
            tensor<fp16, [1, 256, 16]> hidden_state_29_cast_fp16 = add(x = var_353_cast_fp16, y = var_355_cast_fp16)[name = tensor<string, []>("hidden_state_29_cast_fp16")];
            tensor<int32, [3]> var_358_begin_0 = const()[name = tensor<string, []>("op_358_begin_0"), val = tensor<int32, [3]>([0, 13, 0])];
            tensor<int32, [3]> var_358_end_0 = const()[name = tensor<string, []>("op_358_end_0"), val = tensor<int32, [3]>([1, 14, 16])];
            tensor<bool, [3]> var_358_end_mask_0 = const()[name = tensor<string, []>("op_358_end_mask_0"), val = tensor<bool, [3]>([true, false, true])];
            tensor<bool, [3]> var_358_squeeze_mask_0 = const()[name = tensor<string, []>("op_358_squeeze_mask_0"), val = tensor<bool, [3]>([false, true, false])];
            tensor<fp16, [1, 16]> var_358_cast_fp16 = slice_by_index(begin = var_358_begin_0, end = var_358_end_0, end_mask = var_358_end_mask_0, squeeze_mask = var_358_squeeze_mask_0, x = C_proj_1_cast_fp16)[name = tensor<string, []>("op_358_cast_fp16")];
            tensor<int32, [3]> concat_108 = const()[name = tensor<string, []>("concat_108"), val = tensor<int32, [3]>([1, 16, 1])];
            tensor<fp16, [1, 16, 1]> reshape_40_cast_fp16 = reshape(shape = concat_108, x = var_358_cast_fp16)[name = tensor<string, []>("reshape_40_cast_fp16")];
            tensor<bool, []> matmul_13_transpose_x_0 = const()[name = tensor<string, []>("matmul_13_transpose_x_0"), val = tensor<bool, []>(false)];
            tensor<bool, []> matmul_13_transpose_y_0 = const()[name = tensor<string, []>("matmul_13_transpose_y_0"), val = tensor<bool, []>(false)];
            tensor<fp16, [1, 256, 1]> matmul_13_cast_fp16 = matmul(transpose_x = matmul_13_transpose_x_0, transpose_y = matmul_13_transpose_y_0, x = hidden_state_29_cast_fp16, y = reshape_40_cast_fp16)[name = tensor<string, []>("matmul_13_cast_fp16")];
            tensor<int32, [2]> concat_111 = const()[name = tensor<string, []>("concat_111"), val = tensor<int32, [2]>([1, 256])];
            tensor<fp16, [1, 256]> reshape_41_cast_fp16 = reshape(shape = concat_111, x = matmul_13_cast_fp16)[name = tensor<string, []>("reshape_41_cast_fp16")];
            tensor<int32, [4]> var_363_begin_0 = const()[name = tensor<string, []>("op_363_begin_0"), val = tensor<int32, [4]>([0, 14, 0, 0])];
            tensor<int32, [4]> var_363_end_0 = const()[name = tensor<string, []>("op_363_end_0"), val = tensor<int32, [4]>([1, 15, 256, 16])];
            tensor<bool, [4]> var_363_end_mask_0 = const()[name = tensor<string, []>("op_363_end_mask_0"), val = tensor<bool, [4]>([true, false, true, true])];
            tensor<bool, [4]> var_363_squeeze_mask_0 = const()[name = tensor<string, []>("op_363_squeeze_mask_0"), val = tensor<bool, [4]>([false, true, false, false])];
            tensor<fp16, [1, 256, 16]> var_363_cast_fp16 = slice_by_index(begin = var_363_begin_0, end = var_363_end_0, end_mask = var_363_end_mask_0, squeeze_mask = var_363_squeeze_mask_0, x = clip_1_to_fp16)[name = tensor<string, []>("op_363_cast_fp16")];
            tensor<fp16, [1, 256, 16]> var_364_cast_fp16 = mul(x = var_363_cast_fp16, y = hidden_state_29_cast_fp16)[name = tensor<string, []>("op_364_cast_fp16")];
            tensor<int32, [4]> var_366_begin_0 = const()[name = tensor<string, []>("op_366_begin_0"), val = tensor<int32, [4]>([0, 14, 0, 0])];
            tensor<int32, [4]> var_366_end_0 = const()[name = tensor<string, []>("op_366_end_0"), val = tensor<int32, [4]>([1, 15, 1, 16])];
            tensor<bool, [4]> var_366_end_mask_0 = const()[name = tensor<string, []>("op_366_end_mask_0"), val = tensor<bool, [4]>([true, false, true, true])];
            tensor<bool, [4]> var_366_squeeze_mask_0 = const()[name = tensor<string, []>("op_366_squeeze_mask_0"), val = tensor<bool, [4]>([false, true, false, false])];
            tensor<fp16, [1, 1, 16]> var_366_cast_fp16 = slice_by_index(begin = var_366_begin_0, end = var_366_end_0, end_mask = var_366_end_mask_0, squeeze_mask = var_366_squeeze_mask_0, x = delta_B_u_1_cast_fp16)[name = tensor<string, []>("op_366_cast_fp16")];
            tensor<fp16, [1, 256, 16]> hidden_state_31_cast_fp16 = add(x = var_364_cast_fp16, y = var_366_cast_fp16)[name = tensor<string, []>("hidden_state_31_cast_fp16")];
            tensor<int32, [3]> var_369_begin_0 = const()[name = tensor<string, []>("op_369_begin_0"), val = tensor<int32, [3]>([0, 14, 0])];
            tensor<int32, [3]> var_369_end_0 = const()[name = tensor<string, []>("op_369_end_0"), val = tensor<int32, [3]>([1, 15, 16])];
            tensor<bool, [3]> var_369_end_mask_0 = const()[name = tensor<string, []>("op_369_end_mask_0"), val = tensor<bool, [3]>([true, false, true])];
            tensor<bool, [3]> var_369_squeeze_mask_0 = const()[name = tensor<string, []>("op_369_squeeze_mask_0"), val = tensor<bool, [3]>([false, true, false])];
            tensor<fp16, [1, 16]> var_369_cast_fp16 = slice_by_index(begin = var_369_begin_0, end = var_369_end_0, end_mask = var_369_end_mask_0, squeeze_mask = var_369_squeeze_mask_0, x = C_proj_1_cast_fp16)[name = tensor<string, []>("op_369_cast_fp16")];
            tensor<int32, [3]> concat_116 = const()[name = tensor<string, []>("concat_116"), val = tensor<int32, [3]>([1, 16, 1])];
            tensor<fp16, [1, 16, 1]> reshape_43_cast_fp16 = reshape(shape = concat_116, x = var_369_cast_fp16)[name = tensor<string, []>("reshape_43_cast_fp16")];
            tensor<bool, []> matmul_14_transpose_x_0 = const()[name = tensor<string, []>("matmul_14_transpose_x_0"), val = tensor<bool, []>(false)];
            tensor<bool, []> matmul_14_transpose_y_0 = const()[name = tensor<string, []>("matmul_14_transpose_y_0"), val = tensor<bool, []>(false)];
            tensor<fp16, [1, 256, 1]> matmul_14_cast_fp16 = matmul(transpose_x = matmul_14_transpose_x_0, transpose_y = matmul_14_transpose_y_0, x = hidden_state_31_cast_fp16, y = reshape_43_cast_fp16)[name = tensor<string, []>("matmul_14_cast_fp16")];
            tensor<int32, [2]> concat_119 = const()[name = tensor<string, []>("concat_119"), val = tensor<int32, [2]>([1, 256])];
            tensor<fp16, [1, 256]> reshape_44_cast_fp16 = reshape(shape = concat_119, x = matmul_14_cast_fp16)[name = tensor<string, []>("reshape_44_cast_fp16")];
            tensor<int32, [4]> var_374_begin_0 = const()[name = tensor<string, []>("op_374_begin_0"), val = tensor<int32, [4]>([0, 15, 0, 0])];
            tensor<int32, [4]> var_374_end_0 = const()[name = tensor<string, []>("op_374_end_0"), val = tensor<int32, [4]>([1, 16, 256, 16])];
            tensor<bool, [4]> var_374_end_mask_0 = const()[name = tensor<string, []>("op_374_end_mask_0"), val = tensor<bool, [4]>([true, false, true, true])];
            tensor<bool, [4]> var_374_squeeze_mask_0 = const()[name = tensor<string, []>("op_374_squeeze_mask_0"), val = tensor<bool, [4]>([false, true, false, false])];
            tensor<fp16, [1, 256, 16]> var_374_cast_fp16 = slice_by_index(begin = var_374_begin_0, end = var_374_end_0, end_mask = var_374_end_mask_0, squeeze_mask = var_374_squeeze_mask_0, x = clip_1_to_fp16)[name = tensor<string, []>("op_374_cast_fp16")];
            tensor<fp16, [1, 256, 16]> var_375_cast_fp16 = mul(x = var_374_cast_fp16, y = hidden_state_31_cast_fp16)[name = tensor<string, []>("op_375_cast_fp16")];
            tensor<int32, [4]> var_377_begin_0 = const()[name = tensor<string, []>("op_377_begin_0"), val = tensor<int32, [4]>([0, 15, 0, 0])];
            tensor<int32, [4]> var_377_end_0 = const()[name = tensor<string, []>("op_377_end_0"), val = tensor<int32, [4]>([1, 16, 1, 16])];
            tensor<bool, [4]> var_377_end_mask_0 = const()[name = tensor<string, []>("op_377_end_mask_0"), val = tensor<bool, [4]>([true, false, true, true])];
            tensor<bool, [4]> var_377_squeeze_mask_0 = const()[name = tensor<string, []>("op_377_squeeze_mask_0"), val = tensor<bool, [4]>([false, true, false, false])];
            tensor<fp16, [1, 1, 16]> var_377_cast_fp16 = slice_by_index(begin = var_377_begin_0, end = var_377_end_0, end_mask = var_377_end_mask_0, squeeze_mask = var_377_squeeze_mask_0, x = delta_B_u_1_cast_fp16)[name = tensor<string, []>("op_377_cast_fp16")];
            tensor<fp16, [1, 256, 16]> hidden_state_33_cast_fp16 = add(x = var_375_cast_fp16, y = var_377_cast_fp16)[name = tensor<string, []>("hidden_state_33_cast_fp16")];
            tensor<int32, [3]> var_380_begin_0 = const()[name = tensor<string, []>("op_380_begin_0"), val = tensor<int32, [3]>([0, 15, 0])];
            tensor<int32, [3]> var_380_end_0 = const()[name = tensor<string, []>("op_380_end_0"), val = tensor<int32, [3]>([1, 16, 16])];
            tensor<bool, [3]> var_380_end_mask_0 = const()[name = tensor<string, []>("op_380_end_mask_0"), val = tensor<bool, [3]>([true, false, true])];
            tensor<bool, [3]> var_380_squeeze_mask_0 = const()[name = tensor<string, []>("op_380_squeeze_mask_0"), val = tensor<bool, [3]>([false, true, false])];
            tensor<fp16, [1, 16]> var_380_cast_fp16 = slice_by_index(begin = var_380_begin_0, end = var_380_end_0, end_mask = var_380_end_mask_0, squeeze_mask = var_380_squeeze_mask_0, x = C_proj_1_cast_fp16)[name = tensor<string, []>("op_380_cast_fp16")];
            tensor<int32, [3]> concat_124 = const()[name = tensor<string, []>("concat_124"), val = tensor<int32, [3]>([1, 16, 1])];
            tensor<fp16, [1, 16, 1]> reshape_46_cast_fp16 = reshape(shape = concat_124, x = var_380_cast_fp16)[name = tensor<string, []>("reshape_46_cast_fp16")];
            tensor<bool, []> matmul_15_transpose_x_0 = const()[name = tensor<string, []>("matmul_15_transpose_x_0"), val = tensor<bool, []>(false)];
            tensor<bool, []> matmul_15_transpose_y_0 = const()[name = tensor<string, []>("matmul_15_transpose_y_0"), val = tensor<bool, []>(false)];
            tensor<fp16, [1, 256, 1]> matmul_15_cast_fp16 = matmul(transpose_x = matmul_15_transpose_x_0, transpose_y = matmul_15_transpose_y_0, x = hidden_state_33_cast_fp16, y = reshape_46_cast_fp16)[name = tensor<string, []>("matmul_15_cast_fp16")];
            tensor<int32, [2]> concat_127 = const()[name = tensor<string, []>("concat_127"), val = tensor<int32, [2]>([1, 256])];
            tensor<fp16, [1, 256]> reshape_47_cast_fp16 = reshape(shape = concat_127, x = matmul_15_cast_fp16)[name = tensor<string, []>("reshape_47_cast_fp16")];
            tensor<int32, [4]> var_385_begin_0 = const()[name = tensor<string, []>("op_385_begin_0"), val = tensor<int32, [4]>([0, 16, 0, 0])];
            tensor<int32, [4]> var_385_end_0 = const()[name = tensor<string, []>("op_385_end_0"), val = tensor<int32, [4]>([1, 17, 256, 16])];
            tensor<bool, [4]> var_385_end_mask_0 = const()[name = tensor<string, []>("op_385_end_mask_0"), val = tensor<bool, [4]>([true, false, true, true])];
            tensor<bool, [4]> var_385_squeeze_mask_0 = const()[name = tensor<string, []>("op_385_squeeze_mask_0"), val = tensor<bool, [4]>([false, true, false, false])];
            tensor<fp16, [1, 256, 16]> var_385_cast_fp16 = slice_by_index(begin = var_385_begin_0, end = var_385_end_0, end_mask = var_385_end_mask_0, squeeze_mask = var_385_squeeze_mask_0, x = clip_1_to_fp16)[name = tensor<string, []>("op_385_cast_fp16")];
            tensor<fp16, [1, 256, 16]> var_386_cast_fp16 = mul(x = var_385_cast_fp16, y = hidden_state_33_cast_fp16)[name = tensor<string, []>("op_386_cast_fp16")];
            tensor<int32, [4]> var_388_begin_0 = const()[name = tensor<string, []>("op_388_begin_0"), val = tensor<int32, [4]>([0, 16, 0, 0])];
            tensor<int32, [4]> var_388_end_0 = const()[name = tensor<string, []>("op_388_end_0"), val = tensor<int32, [4]>([1, 17, 1, 16])];
            tensor<bool, [4]> var_388_end_mask_0 = const()[name = tensor<string, []>("op_388_end_mask_0"), val = tensor<bool, [4]>([true, false, true, true])];
            tensor<bool, [4]> var_388_squeeze_mask_0 = const()[name = tensor<string, []>("op_388_squeeze_mask_0"), val = tensor<bool, [4]>([false, true, false, false])];
            tensor<fp16, [1, 1, 16]> var_388_cast_fp16 = slice_by_index(begin = var_388_begin_0, end = var_388_end_0, end_mask = var_388_end_mask_0, squeeze_mask = var_388_squeeze_mask_0, x = delta_B_u_1_cast_fp16)[name = tensor<string, []>("op_388_cast_fp16")];
            tensor<fp16, [1, 256, 16]> hidden_state_35_cast_fp16 = add(x = var_386_cast_fp16, y = var_388_cast_fp16)[name = tensor<string, []>("hidden_state_35_cast_fp16")];
            tensor<int32, [3]> var_391_begin_0 = const()[name = tensor<string, []>("op_391_begin_0"), val = tensor<int32, [3]>([0, 16, 0])];
            tensor<int32, [3]> var_391_end_0 = const()[name = tensor<string, []>("op_391_end_0"), val = tensor<int32, [3]>([1, 17, 16])];
            tensor<bool, [3]> var_391_end_mask_0 = const()[name = tensor<string, []>("op_391_end_mask_0"), val = tensor<bool, [3]>([true, false, true])];
            tensor<bool, [3]> var_391_squeeze_mask_0 = const()[name = tensor<string, []>("op_391_squeeze_mask_0"), val = tensor<bool, [3]>([false, true, false])];
            tensor<fp16, [1, 16]> var_391_cast_fp16 = slice_by_index(begin = var_391_begin_0, end = var_391_end_0, end_mask = var_391_end_mask_0, squeeze_mask = var_391_squeeze_mask_0, x = C_proj_1_cast_fp16)[name = tensor<string, []>("op_391_cast_fp16")];
            tensor<int32, [3]> concat_132 = const()[name = tensor<string, []>("concat_132"), val = tensor<int32, [3]>([1, 16, 1])];
            tensor<fp16, [1, 16, 1]> reshape_49_cast_fp16 = reshape(shape = concat_132, x = var_391_cast_fp16)[name = tensor<string, []>("reshape_49_cast_fp16")];
            tensor<bool, []> matmul_16_transpose_x_0 = const()[name = tensor<string, []>("matmul_16_transpose_x_0"), val = tensor<bool, []>(false)];
            tensor<bool, []> matmul_16_transpose_y_0 = const()[name = tensor<string, []>("matmul_16_transpose_y_0"), val = tensor<bool, []>(false)];
            tensor<fp16, [1, 256, 1]> matmul_16_cast_fp16 = matmul(transpose_x = matmul_16_transpose_x_0, transpose_y = matmul_16_transpose_y_0, x = hidden_state_35_cast_fp16, y = reshape_49_cast_fp16)[name = tensor<string, []>("matmul_16_cast_fp16")];
            tensor<int32, [2]> concat_135 = const()[name = tensor<string, []>("concat_135"), val = tensor<int32, [2]>([1, 256])];
            tensor<fp16, [1, 256]> reshape_50_cast_fp16 = reshape(shape = concat_135, x = matmul_16_cast_fp16)[name = tensor<string, []>("reshape_50_cast_fp16")];
            tensor<int32, [4]> var_396_begin_0 = const()[name = tensor<string, []>("op_396_begin_0"), val = tensor<int32, [4]>([0, 17, 0, 0])];
            tensor<int32, [4]> var_396_end_0 = const()[name = tensor<string, []>("op_396_end_0"), val = tensor<int32, [4]>([1, 18, 256, 16])];
            tensor<bool, [4]> var_396_end_mask_0 = const()[name = tensor<string, []>("op_396_end_mask_0"), val = tensor<bool, [4]>([true, false, true, true])];
            tensor<bool, [4]> var_396_squeeze_mask_0 = const()[name = tensor<string, []>("op_396_squeeze_mask_0"), val = tensor<bool, [4]>([false, true, false, false])];
            tensor<fp16, [1, 256, 16]> var_396_cast_fp16 = slice_by_index(begin = var_396_begin_0, end = var_396_end_0, end_mask = var_396_end_mask_0, squeeze_mask = var_396_squeeze_mask_0, x = clip_1_to_fp16)[name = tensor<string, []>("op_396_cast_fp16")];
            tensor<fp16, [1, 256, 16]> var_397_cast_fp16 = mul(x = var_396_cast_fp16, y = hidden_state_35_cast_fp16)[name = tensor<string, []>("op_397_cast_fp16")];
            tensor<int32, [4]> var_399_begin_0 = const()[name = tensor<string, []>("op_399_begin_0"), val = tensor<int32, [4]>([0, 17, 0, 0])];
            tensor<int32, [4]> var_399_end_0 = const()[name = tensor<string, []>("op_399_end_0"), val = tensor<int32, [4]>([1, 18, 1, 16])];
            tensor<bool, [4]> var_399_end_mask_0 = const()[name = tensor<string, []>("op_399_end_mask_0"), val = tensor<bool, [4]>([true, false, true, true])];
            tensor<bool, [4]> var_399_squeeze_mask_0 = const()[name = tensor<string, []>("op_399_squeeze_mask_0"), val = tensor<bool, [4]>([false, true, false, false])];
            tensor<fp16, [1, 1, 16]> var_399_cast_fp16 = slice_by_index(begin = var_399_begin_0, end = var_399_end_0, end_mask = var_399_end_mask_0, squeeze_mask = var_399_squeeze_mask_0, x = delta_B_u_1_cast_fp16)[name = tensor<string, []>("op_399_cast_fp16")];
            tensor<fp16, [1, 256, 16]> hidden_state_37_cast_fp16 = add(x = var_397_cast_fp16, y = var_399_cast_fp16)[name = tensor<string, []>("hidden_state_37_cast_fp16")];
            tensor<int32, [3]> var_402_begin_0 = const()[name = tensor<string, []>("op_402_begin_0"), val = tensor<int32, [3]>([0, 17, 0])];
            tensor<int32, [3]> var_402_end_0 = const()[name = tensor<string, []>("op_402_end_0"), val = tensor<int32, [3]>([1, 18, 16])];
            tensor<bool, [3]> var_402_end_mask_0 = const()[name = tensor<string, []>("op_402_end_mask_0"), val = tensor<bool, [3]>([true, false, true])];
            tensor<bool, [3]> var_402_squeeze_mask_0 = const()[name = tensor<string, []>("op_402_squeeze_mask_0"), val = tensor<bool, [3]>([false, true, false])];
            tensor<fp16, [1, 16]> var_402_cast_fp16 = slice_by_index(begin = var_402_begin_0, end = var_402_end_0, end_mask = var_402_end_mask_0, squeeze_mask = var_402_squeeze_mask_0, x = C_proj_1_cast_fp16)[name = tensor<string, []>("op_402_cast_fp16")];
            tensor<int32, [3]> concat_140 = const()[name = tensor<string, []>("concat_140"), val = tensor<int32, [3]>([1, 16, 1])];
            tensor<fp16, [1, 16, 1]> reshape_52_cast_fp16 = reshape(shape = concat_140, x = var_402_cast_fp16)[name = tensor<string, []>("reshape_52_cast_fp16")];
            tensor<bool, []> matmul_17_transpose_x_0 = const()[name = tensor<string, []>("matmul_17_transpose_x_0"), val = tensor<bool, []>(false)];
            tensor<bool, []> matmul_17_transpose_y_0 = const()[name = tensor<string, []>("matmul_17_transpose_y_0"), val = tensor<bool, []>(false)];
            tensor<fp16, [1, 256, 1]> matmul_17_cast_fp16 = matmul(transpose_x = matmul_17_transpose_x_0, transpose_y = matmul_17_transpose_y_0, x = hidden_state_37_cast_fp16, y = reshape_52_cast_fp16)[name = tensor<string, []>("matmul_17_cast_fp16")];
            tensor<int32, [2]> concat_143 = const()[name = tensor<string, []>("concat_143"), val = tensor<int32, [2]>([1, 256])];
            tensor<fp16, [1, 256]> reshape_53_cast_fp16 = reshape(shape = concat_143, x = matmul_17_cast_fp16)[name = tensor<string, []>("reshape_53_cast_fp16")];
            tensor<int32, [4]> var_407_begin_0 = const()[name = tensor<string, []>("op_407_begin_0"), val = tensor<int32, [4]>([0, 18, 0, 0])];
            tensor<int32, [4]> var_407_end_0 = const()[name = tensor<string, []>("op_407_end_0"), val = tensor<int32, [4]>([1, 19, 256, 16])];
            tensor<bool, [4]> var_407_end_mask_0 = const()[name = tensor<string, []>("op_407_end_mask_0"), val = tensor<bool, [4]>([true, false, true, true])];
            tensor<bool, [4]> var_407_squeeze_mask_0 = const()[name = tensor<string, []>("op_407_squeeze_mask_0"), val = tensor<bool, [4]>([false, true, false, false])];
            tensor<fp16, [1, 256, 16]> var_407_cast_fp16 = slice_by_index(begin = var_407_begin_0, end = var_407_end_0, end_mask = var_407_end_mask_0, squeeze_mask = var_407_squeeze_mask_0, x = clip_1_to_fp16)[name = tensor<string, []>("op_407_cast_fp16")];
            tensor<fp16, [1, 256, 16]> var_408_cast_fp16 = mul(x = var_407_cast_fp16, y = hidden_state_37_cast_fp16)[name = tensor<string, []>("op_408_cast_fp16")];
            tensor<int32, [4]> var_410_begin_0 = const()[name = tensor<string, []>("op_410_begin_0"), val = tensor<int32, [4]>([0, 18, 0, 0])];
            tensor<int32, [4]> var_410_end_0 = const()[name = tensor<string, []>("op_410_end_0"), val = tensor<int32, [4]>([1, 19, 1, 16])];
            tensor<bool, [4]> var_410_end_mask_0 = const()[name = tensor<string, []>("op_410_end_mask_0"), val = tensor<bool, [4]>([true, false, true, true])];
            tensor<bool, [4]> var_410_squeeze_mask_0 = const()[name = tensor<string, []>("op_410_squeeze_mask_0"), val = tensor<bool, [4]>([false, true, false, false])];
            tensor<fp16, [1, 1, 16]> var_410_cast_fp16 = slice_by_index(begin = var_410_begin_0, end = var_410_end_0, end_mask = var_410_end_mask_0, squeeze_mask = var_410_squeeze_mask_0, x = delta_B_u_1_cast_fp16)[name = tensor<string, []>("op_410_cast_fp16")];
            tensor<fp16, [1, 256, 16]> hidden_state_39_cast_fp16 = add(x = var_408_cast_fp16, y = var_410_cast_fp16)[name = tensor<string, []>("hidden_state_39_cast_fp16")];
            tensor<int32, [3]> var_413_begin_0 = const()[name = tensor<string, []>("op_413_begin_0"), val = tensor<int32, [3]>([0, 18, 0])];
            tensor<int32, [3]> var_413_end_0 = const()[name = tensor<string, []>("op_413_end_0"), val = tensor<int32, [3]>([1, 19, 16])];
            tensor<bool, [3]> var_413_end_mask_0 = const()[name = tensor<string, []>("op_413_end_mask_0"), val = tensor<bool, [3]>([true, false, true])];
            tensor<bool, [3]> var_413_squeeze_mask_0 = const()[name = tensor<string, []>("op_413_squeeze_mask_0"), val = tensor<bool, [3]>([false, true, false])];
            tensor<fp16, [1, 16]> var_413_cast_fp16 = slice_by_index(begin = var_413_begin_0, end = var_413_end_0, end_mask = var_413_end_mask_0, squeeze_mask = var_413_squeeze_mask_0, x = C_proj_1_cast_fp16)[name = tensor<string, []>("op_413_cast_fp16")];
            tensor<int32, [3]> concat_148 = const()[name = tensor<string, []>("concat_148"), val = tensor<int32, [3]>([1, 16, 1])];
            tensor<fp16, [1, 16, 1]> reshape_55_cast_fp16 = reshape(shape = concat_148, x = var_413_cast_fp16)[name = tensor<string, []>("reshape_55_cast_fp16")];
            tensor<bool, []> matmul_18_transpose_x_0 = const()[name = tensor<string, []>("matmul_18_transpose_x_0"), val = tensor<bool, []>(false)];
            tensor<bool, []> matmul_18_transpose_y_0 = const()[name = tensor<string, []>("matmul_18_transpose_y_0"), val = tensor<bool, []>(false)];
            tensor<fp16, [1, 256, 1]> matmul_18_cast_fp16 = matmul(transpose_x = matmul_18_transpose_x_0, transpose_y = matmul_18_transpose_y_0, x = hidden_state_39_cast_fp16, y = reshape_55_cast_fp16)[name = tensor<string, []>("matmul_18_cast_fp16")];
            tensor<int32, [2]> concat_151 = const()[name = tensor<string, []>("concat_151"), val = tensor<int32, [2]>([1, 256])];
            tensor<fp16, [1, 256]> reshape_56_cast_fp16 = reshape(shape = concat_151, x = matmul_18_cast_fp16)[name = tensor<string, []>("reshape_56_cast_fp16")];
            tensor<int32, [4]> var_418_begin_0 = const()[name = tensor<string, []>("op_418_begin_0"), val = tensor<int32, [4]>([0, 19, 0, 0])];
            tensor<int32, [4]> var_418_end_0 = const()[name = tensor<string, []>("op_418_end_0"), val = tensor<int32, [4]>([1, 20, 256, 16])];
            tensor<bool, [4]> var_418_end_mask_0 = const()[name = tensor<string, []>("op_418_end_mask_0"), val = tensor<bool, [4]>([true, false, true, true])];
            tensor<bool, [4]> var_418_squeeze_mask_0 = const()[name = tensor<string, []>("op_418_squeeze_mask_0"), val = tensor<bool, [4]>([false, true, false, false])];
            tensor<fp16, [1, 256, 16]> var_418_cast_fp16 = slice_by_index(begin = var_418_begin_0, end = var_418_end_0, end_mask = var_418_end_mask_0, squeeze_mask = var_418_squeeze_mask_0, x = clip_1_to_fp16)[name = tensor<string, []>("op_418_cast_fp16")];
            tensor<fp16, [1, 256, 16]> var_419_cast_fp16 = mul(x = var_418_cast_fp16, y = hidden_state_39_cast_fp16)[name = tensor<string, []>("op_419_cast_fp16")];
            tensor<int32, [4]> var_421_begin_0 = const()[name = tensor<string, []>("op_421_begin_0"), val = tensor<int32, [4]>([0, 19, 0, 0])];
            tensor<int32, [4]> var_421_end_0 = const()[name = tensor<string, []>("op_421_end_0"), val = tensor<int32, [4]>([1, 20, 1, 16])];
            tensor<bool, [4]> var_421_end_mask_0 = const()[name = tensor<string, []>("op_421_end_mask_0"), val = tensor<bool, [4]>([true, false, true, true])];
            tensor<bool, [4]> var_421_squeeze_mask_0 = const()[name = tensor<string, []>("op_421_squeeze_mask_0"), val = tensor<bool, [4]>([false, true, false, false])];
            tensor<fp16, [1, 1, 16]> var_421_cast_fp16 = slice_by_index(begin = var_421_begin_0, end = var_421_end_0, end_mask = var_421_end_mask_0, squeeze_mask = var_421_squeeze_mask_0, x = delta_B_u_1_cast_fp16)[name = tensor<string, []>("op_421_cast_fp16")];
            tensor<fp16, [1, 256, 16]> hidden_state_41_cast_fp16 = add(x = var_419_cast_fp16, y = var_421_cast_fp16)[name = tensor<string, []>("hidden_state_41_cast_fp16")];
            tensor<int32, [3]> var_424_begin_0 = const()[name = tensor<string, []>("op_424_begin_0"), val = tensor<int32, [3]>([0, 19, 0])];
            tensor<int32, [3]> var_424_end_0 = const()[name = tensor<string, []>("op_424_end_0"), val = tensor<int32, [3]>([1, 20, 16])];
            tensor<bool, [3]> var_424_end_mask_0 = const()[name = tensor<string, []>("op_424_end_mask_0"), val = tensor<bool, [3]>([true, false, true])];
            tensor<bool, [3]> var_424_squeeze_mask_0 = const()[name = tensor<string, []>("op_424_squeeze_mask_0"), val = tensor<bool, [3]>([false, true, false])];
            tensor<fp16, [1, 16]> var_424_cast_fp16 = slice_by_index(begin = var_424_begin_0, end = var_424_end_0, end_mask = var_424_end_mask_0, squeeze_mask = var_424_squeeze_mask_0, x = C_proj_1_cast_fp16)[name = tensor<string, []>("op_424_cast_fp16")];
            tensor<int32, [3]> concat_156 = const()[name = tensor<string, []>("concat_156"), val = tensor<int32, [3]>([1, 16, 1])];
            tensor<fp16, [1, 16, 1]> reshape_58_cast_fp16 = reshape(shape = concat_156, x = var_424_cast_fp16)[name = tensor<string, []>("reshape_58_cast_fp16")];
            tensor<bool, []> matmul_19_transpose_x_0 = const()[name = tensor<string, []>("matmul_19_transpose_x_0"), val = tensor<bool, []>(false)];
            tensor<bool, []> matmul_19_transpose_y_0 = const()[name = tensor<string, []>("matmul_19_transpose_y_0"), val = tensor<bool, []>(false)];
            tensor<fp16, [1, 256, 1]> matmul_19_cast_fp16 = matmul(transpose_x = matmul_19_transpose_x_0, transpose_y = matmul_19_transpose_y_0, x = hidden_state_41_cast_fp16, y = reshape_58_cast_fp16)[name = tensor<string, []>("matmul_19_cast_fp16")];
            tensor<int32, [2]> concat_159 = const()[name = tensor<string, []>("concat_159"), val = tensor<int32, [2]>([1, 256])];
            tensor<fp16, [1, 256]> reshape_59_cast_fp16 = reshape(shape = concat_159, x = matmul_19_cast_fp16)[name = tensor<string, []>("reshape_59_cast_fp16")];
            tensor<int32, [4]> var_429_begin_0 = const()[name = tensor<string, []>("op_429_begin_0"), val = tensor<int32, [4]>([0, 20, 0, 0])];
            tensor<int32, [4]> var_429_end_0 = const()[name = tensor<string, []>("op_429_end_0"), val = tensor<int32, [4]>([1, 21, 256, 16])];
            tensor<bool, [4]> var_429_end_mask_0 = const()[name = tensor<string, []>("op_429_end_mask_0"), val = tensor<bool, [4]>([true, false, true, true])];
            tensor<bool, [4]> var_429_squeeze_mask_0 = const()[name = tensor<string, []>("op_429_squeeze_mask_0"), val = tensor<bool, [4]>([false, true, false, false])];
            tensor<fp16, [1, 256, 16]> var_429_cast_fp16 = slice_by_index(begin = var_429_begin_0, end = var_429_end_0, end_mask = var_429_end_mask_0, squeeze_mask = var_429_squeeze_mask_0, x = clip_1_to_fp16)[name = tensor<string, []>("op_429_cast_fp16")];
            tensor<fp16, [1, 256, 16]> var_430_cast_fp16 = mul(x = var_429_cast_fp16, y = hidden_state_41_cast_fp16)[name = tensor<string, []>("op_430_cast_fp16")];
            tensor<int32, [4]> var_432_begin_0 = const()[name = tensor<string, []>("op_432_begin_0"), val = tensor<int32, [4]>([0, 20, 0, 0])];
            tensor<int32, [4]> var_432_end_0 = const()[name = tensor<string, []>("op_432_end_0"), val = tensor<int32, [4]>([1, 21, 1, 16])];
            tensor<bool, [4]> var_432_end_mask_0 = const()[name = tensor<string, []>("op_432_end_mask_0"), val = tensor<bool, [4]>([true, false, true, true])];
            tensor<bool, [4]> var_432_squeeze_mask_0 = const()[name = tensor<string, []>("op_432_squeeze_mask_0"), val = tensor<bool, [4]>([false, true, false, false])];
            tensor<fp16, [1, 1, 16]> var_432_cast_fp16 = slice_by_index(begin = var_432_begin_0, end = var_432_end_0, end_mask = var_432_end_mask_0, squeeze_mask = var_432_squeeze_mask_0, x = delta_B_u_1_cast_fp16)[name = tensor<string, []>("op_432_cast_fp16")];
            tensor<fp16, [1, 256, 16]> hidden_state_43_cast_fp16 = add(x = var_430_cast_fp16, y = var_432_cast_fp16)[name = tensor<string, []>("hidden_state_43_cast_fp16")];
            tensor<int32, [3]> var_435_begin_0 = const()[name = tensor<string, []>("op_435_begin_0"), val = tensor<int32, [3]>([0, 20, 0])];
            tensor<int32, [3]> var_435_end_0 = const()[name = tensor<string, []>("op_435_end_0"), val = tensor<int32, [3]>([1, 21, 16])];
            tensor<bool, [3]> var_435_end_mask_0 = const()[name = tensor<string, []>("op_435_end_mask_0"), val = tensor<bool, [3]>([true, false, true])];
            tensor<bool, [3]> var_435_squeeze_mask_0 = const()[name = tensor<string, []>("op_435_squeeze_mask_0"), val = tensor<bool, [3]>([false, true, false])];
            tensor<fp16, [1, 16]> var_435_cast_fp16 = slice_by_index(begin = var_435_begin_0, end = var_435_end_0, end_mask = var_435_end_mask_0, squeeze_mask = var_435_squeeze_mask_0, x = C_proj_1_cast_fp16)[name = tensor<string, []>("op_435_cast_fp16")];
            tensor<int32, [3]> concat_164 = const()[name = tensor<string, []>("concat_164"), val = tensor<int32, [3]>([1, 16, 1])];
            tensor<fp16, [1, 16, 1]> reshape_61_cast_fp16 = reshape(shape = concat_164, x = var_435_cast_fp16)[name = tensor<string, []>("reshape_61_cast_fp16")];
            tensor<bool, []> matmul_20_transpose_x_0 = const()[name = tensor<string, []>("matmul_20_transpose_x_0"), val = tensor<bool, []>(false)];
            tensor<bool, []> matmul_20_transpose_y_0 = const()[name = tensor<string, []>("matmul_20_transpose_y_0"), val = tensor<bool, []>(false)];
            tensor<fp16, [1, 256, 1]> matmul_20_cast_fp16 = matmul(transpose_x = matmul_20_transpose_x_0, transpose_y = matmul_20_transpose_y_0, x = hidden_state_43_cast_fp16, y = reshape_61_cast_fp16)[name = tensor<string, []>("matmul_20_cast_fp16")];
            tensor<int32, [2]> concat_167 = const()[name = tensor<string, []>("concat_167"), val = tensor<int32, [2]>([1, 256])];
            tensor<fp16, [1, 256]> reshape_62_cast_fp16 = reshape(shape = concat_167, x = matmul_20_cast_fp16)[name = tensor<string, []>("reshape_62_cast_fp16")];
            tensor<int32, [4]> var_440_begin_0 = const()[name = tensor<string, []>("op_440_begin_0"), val = tensor<int32, [4]>([0, 21, 0, 0])];
            tensor<int32, [4]> var_440_end_0 = const()[name = tensor<string, []>("op_440_end_0"), val = tensor<int32, [4]>([1, 22, 256, 16])];
            tensor<bool, [4]> var_440_end_mask_0 = const()[name = tensor<string, []>("op_440_end_mask_0"), val = tensor<bool, [4]>([true, false, true, true])];
            tensor<bool, [4]> var_440_squeeze_mask_0 = const()[name = tensor<string, []>("op_440_squeeze_mask_0"), val = tensor<bool, [4]>([false, true, false, false])];
            tensor<fp16, [1, 256, 16]> var_440_cast_fp16 = slice_by_index(begin = var_440_begin_0, end = var_440_end_0, end_mask = var_440_end_mask_0, squeeze_mask = var_440_squeeze_mask_0, x = clip_1_to_fp16)[name = tensor<string, []>("op_440_cast_fp16")];
            tensor<fp16, [1, 256, 16]> var_441_cast_fp16 = mul(x = var_440_cast_fp16, y = hidden_state_43_cast_fp16)[name = tensor<string, []>("op_441_cast_fp16")];
            tensor<int32, [4]> var_443_begin_0 = const()[name = tensor<string, []>("op_443_begin_0"), val = tensor<int32, [4]>([0, 21, 0, 0])];
            tensor<int32, [4]> var_443_end_0 = const()[name = tensor<string, []>("op_443_end_0"), val = tensor<int32, [4]>([1, 22, 1, 16])];
            tensor<bool, [4]> var_443_end_mask_0 = const()[name = tensor<string, []>("op_443_end_mask_0"), val = tensor<bool, [4]>([true, false, true, true])];
            tensor<bool, [4]> var_443_squeeze_mask_0 = const()[name = tensor<string, []>("op_443_squeeze_mask_0"), val = tensor<bool, [4]>([false, true, false, false])];
            tensor<fp16, [1, 1, 16]> var_443_cast_fp16 = slice_by_index(begin = var_443_begin_0, end = var_443_end_0, end_mask = var_443_end_mask_0, squeeze_mask = var_443_squeeze_mask_0, x = delta_B_u_1_cast_fp16)[name = tensor<string, []>("op_443_cast_fp16")];
            tensor<fp16, [1, 256, 16]> hidden_state_45_cast_fp16 = add(x = var_441_cast_fp16, y = var_443_cast_fp16)[name = tensor<string, []>("hidden_state_45_cast_fp16")];
            tensor<int32, [3]> var_446_begin_0 = const()[name = tensor<string, []>("op_446_begin_0"), val = tensor<int32, [3]>([0, 21, 0])];
            tensor<int32, [3]> var_446_end_0 = const()[name = tensor<string, []>("op_446_end_0"), val = tensor<int32, [3]>([1, 22, 16])];
            tensor<bool, [3]> var_446_end_mask_0 = const()[name = tensor<string, []>("op_446_end_mask_0"), val = tensor<bool, [3]>([true, false, true])];
            tensor<bool, [3]> var_446_squeeze_mask_0 = const()[name = tensor<string, []>("op_446_squeeze_mask_0"), val = tensor<bool, [3]>([false, true, false])];
            tensor<fp16, [1, 16]> var_446_cast_fp16 = slice_by_index(begin = var_446_begin_0, end = var_446_end_0, end_mask = var_446_end_mask_0, squeeze_mask = var_446_squeeze_mask_0, x = C_proj_1_cast_fp16)[name = tensor<string, []>("op_446_cast_fp16")];
            tensor<int32, [3]> concat_172 = const()[name = tensor<string, []>("concat_172"), val = tensor<int32, [3]>([1, 16, 1])];
            tensor<fp16, [1, 16, 1]> reshape_64_cast_fp16 = reshape(shape = concat_172, x = var_446_cast_fp16)[name = tensor<string, []>("reshape_64_cast_fp16")];
            tensor<bool, []> matmul_21_transpose_x_0 = const()[name = tensor<string, []>("matmul_21_transpose_x_0"), val = tensor<bool, []>(false)];
            tensor<bool, []> matmul_21_transpose_y_0 = const()[name = tensor<string, []>("matmul_21_transpose_y_0"), val = tensor<bool, []>(false)];
            tensor<fp16, [1, 256, 1]> matmul_21_cast_fp16 = matmul(transpose_x = matmul_21_transpose_x_0, transpose_y = matmul_21_transpose_y_0, x = hidden_state_45_cast_fp16, y = reshape_64_cast_fp16)[name = tensor<string, []>("matmul_21_cast_fp16")];
            tensor<int32, [2]> concat_175 = const()[name = tensor<string, []>("concat_175"), val = tensor<int32, [2]>([1, 256])];
            tensor<fp16, [1, 256]> reshape_65_cast_fp16 = reshape(shape = concat_175, x = matmul_21_cast_fp16)[name = tensor<string, []>("reshape_65_cast_fp16")];
            tensor<int32, [4]> var_451_begin_0 = const()[name = tensor<string, []>("op_451_begin_0"), val = tensor<int32, [4]>([0, 22, 0, 0])];
            tensor<int32, [4]> var_451_end_0 = const()[name = tensor<string, []>("op_451_end_0"), val = tensor<int32, [4]>([1, 23, 256, 16])];
            tensor<bool, [4]> var_451_end_mask_0 = const()[name = tensor<string, []>("op_451_end_mask_0"), val = tensor<bool, [4]>([true, false, true, true])];
            tensor<bool, [4]> var_451_squeeze_mask_0 = const()[name = tensor<string, []>("op_451_squeeze_mask_0"), val = tensor<bool, [4]>([false, true, false, false])];
            tensor<fp16, [1, 256, 16]> var_451_cast_fp16 = slice_by_index(begin = var_451_begin_0, end = var_451_end_0, end_mask = var_451_end_mask_0, squeeze_mask = var_451_squeeze_mask_0, x = clip_1_to_fp16)[name = tensor<string, []>("op_451_cast_fp16")];
            tensor<fp16, [1, 256, 16]> var_452_cast_fp16 = mul(x = var_451_cast_fp16, y = hidden_state_45_cast_fp16)[name = tensor<string, []>("op_452_cast_fp16")];
            tensor<int32, [4]> var_454_begin_0 = const()[name = tensor<string, []>("op_454_begin_0"), val = tensor<int32, [4]>([0, 22, 0, 0])];
            tensor<int32, [4]> var_454_end_0 = const()[name = tensor<string, []>("op_454_end_0"), val = tensor<int32, [4]>([1, 23, 1, 16])];
            tensor<bool, [4]> var_454_end_mask_0 = const()[name = tensor<string, []>("op_454_end_mask_0"), val = tensor<bool, [4]>([true, false, true, true])];
            tensor<bool, [4]> var_454_squeeze_mask_0 = const()[name = tensor<string, []>("op_454_squeeze_mask_0"), val = tensor<bool, [4]>([false, true, false, false])];
            tensor<fp16, [1, 1, 16]> var_454_cast_fp16 = slice_by_index(begin = var_454_begin_0, end = var_454_end_0, end_mask = var_454_end_mask_0, squeeze_mask = var_454_squeeze_mask_0, x = delta_B_u_1_cast_fp16)[name = tensor<string, []>("op_454_cast_fp16")];
            tensor<fp16, [1, 256, 16]> hidden_state_47_cast_fp16 = add(x = var_452_cast_fp16, y = var_454_cast_fp16)[name = tensor<string, []>("hidden_state_47_cast_fp16")];
            tensor<int32, [3]> var_457_begin_0 = const()[name = tensor<string, []>("op_457_begin_0"), val = tensor<int32, [3]>([0, 22, 0])];
            tensor<int32, [3]> var_457_end_0 = const()[name = tensor<string, []>("op_457_end_0"), val = tensor<int32, [3]>([1, 23, 16])];
            tensor<bool, [3]> var_457_end_mask_0 = const()[name = tensor<string, []>("op_457_end_mask_0"), val = tensor<bool, [3]>([true, false, true])];
            tensor<bool, [3]> var_457_squeeze_mask_0 = const()[name = tensor<string, []>("op_457_squeeze_mask_0"), val = tensor<bool, [3]>([false, true, false])];
            tensor<fp16, [1, 16]> var_457_cast_fp16 = slice_by_index(begin = var_457_begin_0, end = var_457_end_0, end_mask = var_457_end_mask_0, squeeze_mask = var_457_squeeze_mask_0, x = C_proj_1_cast_fp16)[name = tensor<string, []>("op_457_cast_fp16")];
            tensor<int32, [3]> concat_180 = const()[name = tensor<string, []>("concat_180"), val = tensor<int32, [3]>([1, 16, 1])];
            tensor<fp16, [1, 16, 1]> reshape_67_cast_fp16 = reshape(shape = concat_180, x = var_457_cast_fp16)[name = tensor<string, []>("reshape_67_cast_fp16")];
            tensor<bool, []> matmul_22_transpose_x_0 = const()[name = tensor<string, []>("matmul_22_transpose_x_0"), val = tensor<bool, []>(false)];
            tensor<bool, []> matmul_22_transpose_y_0 = const()[name = tensor<string, []>("matmul_22_transpose_y_0"), val = tensor<bool, []>(false)];
            tensor<fp16, [1, 256, 1]> matmul_22_cast_fp16 = matmul(transpose_x = matmul_22_transpose_x_0, transpose_y = matmul_22_transpose_y_0, x = hidden_state_47_cast_fp16, y = reshape_67_cast_fp16)[name = tensor<string, []>("matmul_22_cast_fp16")];
            tensor<int32, [2]> concat_183 = const()[name = tensor<string, []>("concat_183"), val = tensor<int32, [2]>([1, 256])];
            tensor<fp16, [1, 256]> reshape_68_cast_fp16 = reshape(shape = concat_183, x = matmul_22_cast_fp16)[name = tensor<string, []>("reshape_68_cast_fp16")];
            tensor<int32, [4]> var_462_begin_0 = const()[name = tensor<string, []>("op_462_begin_0"), val = tensor<int32, [4]>([0, 23, 0, 0])];
            tensor<int32, [4]> var_462_end_0 = const()[name = tensor<string, []>("op_462_end_0"), val = tensor<int32, [4]>([1, 24, 256, 16])];
            tensor<bool, [4]> var_462_end_mask_0 = const()[name = tensor<string, []>("op_462_end_mask_0"), val = tensor<bool, [4]>([true, false, true, true])];
            tensor<bool, [4]> var_462_squeeze_mask_0 = const()[name = tensor<string, []>("op_462_squeeze_mask_0"), val = tensor<bool, [4]>([false, true, false, false])];
            tensor<fp16, [1, 256, 16]> var_462_cast_fp16 = slice_by_index(begin = var_462_begin_0, end = var_462_end_0, end_mask = var_462_end_mask_0, squeeze_mask = var_462_squeeze_mask_0, x = clip_1_to_fp16)[name = tensor<string, []>("op_462_cast_fp16")];
            tensor<fp16, [1, 256, 16]> var_463_cast_fp16 = mul(x = var_462_cast_fp16, y = hidden_state_47_cast_fp16)[name = tensor<string, []>("op_463_cast_fp16")];
            tensor<int32, [4]> var_465_begin_0 = const()[name = tensor<string, []>("op_465_begin_0"), val = tensor<int32, [4]>([0, 23, 0, 0])];
            tensor<int32, [4]> var_465_end_0 = const()[name = tensor<string, []>("op_465_end_0"), val = tensor<int32, [4]>([1, 24, 1, 16])];
            tensor<bool, [4]> var_465_end_mask_0 = const()[name = tensor<string, []>("op_465_end_mask_0"), val = tensor<bool, [4]>([true, false, true, true])];
            tensor<bool, [4]> var_465_squeeze_mask_0 = const()[name = tensor<string, []>("op_465_squeeze_mask_0"), val = tensor<bool, [4]>([false, true, false, false])];
            tensor<fp16, [1, 1, 16]> var_465_cast_fp16 = slice_by_index(begin = var_465_begin_0, end = var_465_end_0, end_mask = var_465_end_mask_0, squeeze_mask = var_465_squeeze_mask_0, x = delta_B_u_1_cast_fp16)[name = tensor<string, []>("op_465_cast_fp16")];
            tensor<fp16, [1, 256, 16]> hidden_state_49_cast_fp16 = add(x = var_463_cast_fp16, y = var_465_cast_fp16)[name = tensor<string, []>("hidden_state_49_cast_fp16")];
            tensor<int32, [3]> var_468_begin_0 = const()[name = tensor<string, []>("op_468_begin_0"), val = tensor<int32, [3]>([0, 23, 0])];
            tensor<int32, [3]> var_468_end_0 = const()[name = tensor<string, []>("op_468_end_0"), val = tensor<int32, [3]>([1, 24, 16])];
            tensor<bool, [3]> var_468_end_mask_0 = const()[name = tensor<string, []>("op_468_end_mask_0"), val = tensor<bool, [3]>([true, false, true])];
            tensor<bool, [3]> var_468_squeeze_mask_0 = const()[name = tensor<string, []>("op_468_squeeze_mask_0"), val = tensor<bool, [3]>([false, true, false])];
            tensor<fp16, [1, 16]> var_468_cast_fp16 = slice_by_index(begin = var_468_begin_0, end = var_468_end_0, end_mask = var_468_end_mask_0, squeeze_mask = var_468_squeeze_mask_0, x = C_proj_1_cast_fp16)[name = tensor<string, []>("op_468_cast_fp16")];
            tensor<int32, [3]> concat_188 = const()[name = tensor<string, []>("concat_188"), val = tensor<int32, [3]>([1, 16, 1])];
            tensor<fp16, [1, 16, 1]> reshape_70_cast_fp16 = reshape(shape = concat_188, x = var_468_cast_fp16)[name = tensor<string, []>("reshape_70_cast_fp16")];
            tensor<bool, []> matmul_23_transpose_x_0 = const()[name = tensor<string, []>("matmul_23_transpose_x_0"), val = tensor<bool, []>(false)];
            tensor<bool, []> matmul_23_transpose_y_0 = const()[name = tensor<string, []>("matmul_23_transpose_y_0"), val = tensor<bool, []>(false)];
            tensor<fp16, [1, 256, 1]> matmul_23_cast_fp16 = matmul(transpose_x = matmul_23_transpose_x_0, transpose_y = matmul_23_transpose_y_0, x = hidden_state_49_cast_fp16, y = reshape_70_cast_fp16)[name = tensor<string, []>("matmul_23_cast_fp16")];
            tensor<int32, [2]> concat_191 = const()[name = tensor<string, []>("concat_191"), val = tensor<int32, [2]>([1, 256])];
            tensor<fp16, [1, 256]> reshape_71_cast_fp16 = reshape(shape = concat_191, x = matmul_23_cast_fp16)[name = tensor<string, []>("reshape_71_cast_fp16")];
            tensor<int32, [4]> var_473_begin_0 = const()[name = tensor<string, []>("op_473_begin_0"), val = tensor<int32, [4]>([0, 24, 0, 0])];
            tensor<int32, [4]> var_473_end_0 = const()[name = tensor<string, []>("op_473_end_0"), val = tensor<int32, [4]>([1, 25, 256, 16])];
            tensor<bool, [4]> var_473_end_mask_0 = const()[name = tensor<string, []>("op_473_end_mask_0"), val = tensor<bool, [4]>([true, false, true, true])];
            tensor<bool, [4]> var_473_squeeze_mask_0 = const()[name = tensor<string, []>("op_473_squeeze_mask_0"), val = tensor<bool, [4]>([false, true, false, false])];
            tensor<fp16, [1, 256, 16]> var_473_cast_fp16 = slice_by_index(begin = var_473_begin_0, end = var_473_end_0, end_mask = var_473_end_mask_0, squeeze_mask = var_473_squeeze_mask_0, x = clip_1_to_fp16)[name = tensor<string, []>("op_473_cast_fp16")];
            tensor<fp16, [1, 256, 16]> var_474_cast_fp16 = mul(x = var_473_cast_fp16, y = hidden_state_49_cast_fp16)[name = tensor<string, []>("op_474_cast_fp16")];
            tensor<int32, [4]> var_476_begin_0 = const()[name = tensor<string, []>("op_476_begin_0"), val = tensor<int32, [4]>([0, 24, 0, 0])];
            tensor<int32, [4]> var_476_end_0 = const()[name = tensor<string, []>("op_476_end_0"), val = tensor<int32, [4]>([1, 25, 1, 16])];
            tensor<bool, [4]> var_476_end_mask_0 = const()[name = tensor<string, []>("op_476_end_mask_0"), val = tensor<bool, [4]>([true, false, true, true])];
            tensor<bool, [4]> var_476_squeeze_mask_0 = const()[name = tensor<string, []>("op_476_squeeze_mask_0"), val = tensor<bool, [4]>([false, true, false, false])];
            tensor<fp16, [1, 1, 16]> var_476_cast_fp16 = slice_by_index(begin = var_476_begin_0, end = var_476_end_0, end_mask = var_476_end_mask_0, squeeze_mask = var_476_squeeze_mask_0, x = delta_B_u_1_cast_fp16)[name = tensor<string, []>("op_476_cast_fp16")];
            tensor<fp16, [1, 256, 16]> hidden_state_51_cast_fp16 = add(x = var_474_cast_fp16, y = var_476_cast_fp16)[name = tensor<string, []>("hidden_state_51_cast_fp16")];
            tensor<int32, [3]> var_479_begin_0 = const()[name = tensor<string, []>("op_479_begin_0"), val = tensor<int32, [3]>([0, 24, 0])];
            tensor<int32, [3]> var_479_end_0 = const()[name = tensor<string, []>("op_479_end_0"), val = tensor<int32, [3]>([1, 25, 16])];
            tensor<bool, [3]> var_479_end_mask_0 = const()[name = tensor<string, []>("op_479_end_mask_0"), val = tensor<bool, [3]>([true, false, true])];
            tensor<bool, [3]> var_479_squeeze_mask_0 = const()[name = tensor<string, []>("op_479_squeeze_mask_0"), val = tensor<bool, [3]>([false, true, false])];
            tensor<fp16, [1, 16]> var_479_cast_fp16 = slice_by_index(begin = var_479_begin_0, end = var_479_end_0, end_mask = var_479_end_mask_0, squeeze_mask = var_479_squeeze_mask_0, x = C_proj_1_cast_fp16)[name = tensor<string, []>("op_479_cast_fp16")];
            tensor<int32, [3]> concat_196 = const()[name = tensor<string, []>("concat_196"), val = tensor<int32, [3]>([1, 16, 1])];
            tensor<fp16, [1, 16, 1]> reshape_73_cast_fp16 = reshape(shape = concat_196, x = var_479_cast_fp16)[name = tensor<string, []>("reshape_73_cast_fp16")];
            tensor<bool, []> matmul_24_transpose_x_0 = const()[name = tensor<string, []>("matmul_24_transpose_x_0"), val = tensor<bool, []>(false)];
            tensor<bool, []> matmul_24_transpose_y_0 = const()[name = tensor<string, []>("matmul_24_transpose_y_0"), val = tensor<bool, []>(false)];
            tensor<fp16, [1, 256, 1]> matmul_24_cast_fp16 = matmul(transpose_x = matmul_24_transpose_x_0, transpose_y = matmul_24_transpose_y_0, x = hidden_state_51_cast_fp16, y = reshape_73_cast_fp16)[name = tensor<string, []>("matmul_24_cast_fp16")];
            tensor<int32, [2]> concat_199 = const()[name = tensor<string, []>("concat_199"), val = tensor<int32, [2]>([1, 256])];
            tensor<fp16, [1, 256]> reshape_74_cast_fp16 = reshape(shape = concat_199, x = matmul_24_cast_fp16)[name = tensor<string, []>("reshape_74_cast_fp16")];
            tensor<int32, [4]> var_484_begin_0 = const()[name = tensor<string, []>("op_484_begin_0"), val = tensor<int32, [4]>([0, 25, 0, 0])];
            tensor<int32, [4]> var_484_end_0 = const()[name = tensor<string, []>("op_484_end_0"), val = tensor<int32, [4]>([1, 26, 256, 16])];
            tensor<bool, [4]> var_484_end_mask_0 = const()[name = tensor<string, []>("op_484_end_mask_0"), val = tensor<bool, [4]>([true, false, true, true])];
            tensor<bool, [4]> var_484_squeeze_mask_0 = const()[name = tensor<string, []>("op_484_squeeze_mask_0"), val = tensor<bool, [4]>([false, true, false, false])];
            tensor<fp16, [1, 256, 16]> var_484_cast_fp16 = slice_by_index(begin = var_484_begin_0, end = var_484_end_0, end_mask = var_484_end_mask_0, squeeze_mask = var_484_squeeze_mask_0, x = clip_1_to_fp16)[name = tensor<string, []>("op_484_cast_fp16")];
            tensor<fp16, [1, 256, 16]> var_485_cast_fp16 = mul(x = var_484_cast_fp16, y = hidden_state_51_cast_fp16)[name = tensor<string, []>("op_485_cast_fp16")];
            tensor<int32, [4]> var_487_begin_0 = const()[name = tensor<string, []>("op_487_begin_0"), val = tensor<int32, [4]>([0, 25, 0, 0])];
            tensor<int32, [4]> var_487_end_0 = const()[name = tensor<string, []>("op_487_end_0"), val = tensor<int32, [4]>([1, 26, 1, 16])];
            tensor<bool, [4]> var_487_end_mask_0 = const()[name = tensor<string, []>("op_487_end_mask_0"), val = tensor<bool, [4]>([true, false, true, true])];
            tensor<bool, [4]> var_487_squeeze_mask_0 = const()[name = tensor<string, []>("op_487_squeeze_mask_0"), val = tensor<bool, [4]>([false, true, false, false])];
            tensor<fp16, [1, 1, 16]> var_487_cast_fp16 = slice_by_index(begin = var_487_begin_0, end = var_487_end_0, end_mask = var_487_end_mask_0, squeeze_mask = var_487_squeeze_mask_0, x = delta_B_u_1_cast_fp16)[name = tensor<string, []>("op_487_cast_fp16")];
            tensor<fp16, [1, 256, 16]> hidden_state_53_cast_fp16 = add(x = var_485_cast_fp16, y = var_487_cast_fp16)[name = tensor<string, []>("hidden_state_53_cast_fp16")];
            tensor<int32, [3]> var_490_begin_0 = const()[name = tensor<string, []>("op_490_begin_0"), val = tensor<int32, [3]>([0, 25, 0])];
            tensor<int32, [3]> var_490_end_0 = const()[name = tensor<string, []>("op_490_end_0"), val = tensor<int32, [3]>([1, 26, 16])];
            tensor<bool, [3]> var_490_end_mask_0 = const()[name = tensor<string, []>("op_490_end_mask_0"), val = tensor<bool, [3]>([true, false, true])];
            tensor<bool, [3]> var_490_squeeze_mask_0 = const()[name = tensor<string, []>("op_490_squeeze_mask_0"), val = tensor<bool, [3]>([false, true, false])];
            tensor<fp16, [1, 16]> var_490_cast_fp16 = slice_by_index(begin = var_490_begin_0, end = var_490_end_0, end_mask = var_490_end_mask_0, squeeze_mask = var_490_squeeze_mask_0, x = C_proj_1_cast_fp16)[name = tensor<string, []>("op_490_cast_fp16")];
            tensor<int32, [3]> concat_204 = const()[name = tensor<string, []>("concat_204"), val = tensor<int32, [3]>([1, 16, 1])];
            tensor<fp16, [1, 16, 1]> reshape_76_cast_fp16 = reshape(shape = concat_204, x = var_490_cast_fp16)[name = tensor<string, []>("reshape_76_cast_fp16")];
            tensor<bool, []> matmul_25_transpose_x_0 = const()[name = tensor<string, []>("matmul_25_transpose_x_0"), val = tensor<bool, []>(false)];
            tensor<bool, []> matmul_25_transpose_y_0 = const()[name = tensor<string, []>("matmul_25_transpose_y_0"), val = tensor<bool, []>(false)];
            tensor<fp16, [1, 256, 1]> matmul_25_cast_fp16 = matmul(transpose_x = matmul_25_transpose_x_0, transpose_y = matmul_25_transpose_y_0, x = hidden_state_53_cast_fp16, y = reshape_76_cast_fp16)[name = tensor<string, []>("matmul_25_cast_fp16")];
            tensor<int32, [2]> concat_207 = const()[name = tensor<string, []>("concat_207"), val = tensor<int32, [2]>([1, 256])];
            tensor<fp16, [1, 256]> reshape_77_cast_fp16 = reshape(shape = concat_207, x = matmul_25_cast_fp16)[name = tensor<string, []>("reshape_77_cast_fp16")];
            tensor<int32, [4]> var_495_begin_0 = const()[name = tensor<string, []>("op_495_begin_0"), val = tensor<int32, [4]>([0, 26, 0, 0])];
            tensor<int32, [4]> var_495_end_0 = const()[name = tensor<string, []>("op_495_end_0"), val = tensor<int32, [4]>([1, 27, 256, 16])];
            tensor<bool, [4]> var_495_end_mask_0 = const()[name = tensor<string, []>("op_495_end_mask_0"), val = tensor<bool, [4]>([true, false, true, true])];
            tensor<bool, [4]> var_495_squeeze_mask_0 = const()[name = tensor<string, []>("op_495_squeeze_mask_0"), val = tensor<bool, [4]>([false, true, false, false])];
            tensor<fp16, [1, 256, 16]> var_495_cast_fp16 = slice_by_index(begin = var_495_begin_0, end = var_495_end_0, end_mask = var_495_end_mask_0, squeeze_mask = var_495_squeeze_mask_0, x = clip_1_to_fp16)[name = tensor<string, []>("op_495_cast_fp16")];
            tensor<fp16, [1, 256, 16]> var_496_cast_fp16 = mul(x = var_495_cast_fp16, y = hidden_state_53_cast_fp16)[name = tensor<string, []>("op_496_cast_fp16")];
            tensor<int32, [4]> var_498_begin_0 = const()[name = tensor<string, []>("op_498_begin_0"), val = tensor<int32, [4]>([0, 26, 0, 0])];
            tensor<int32, [4]> var_498_end_0 = const()[name = tensor<string, []>("op_498_end_0"), val = tensor<int32, [4]>([1, 27, 1, 16])];
            tensor<bool, [4]> var_498_end_mask_0 = const()[name = tensor<string, []>("op_498_end_mask_0"), val = tensor<bool, [4]>([true, false, true, true])];
            tensor<bool, [4]> var_498_squeeze_mask_0 = const()[name = tensor<string, []>("op_498_squeeze_mask_0"), val = tensor<bool, [4]>([false, true, false, false])];
            tensor<fp16, [1, 1, 16]> var_498_cast_fp16 = slice_by_index(begin = var_498_begin_0, end = var_498_end_0, end_mask = var_498_end_mask_0, squeeze_mask = var_498_squeeze_mask_0, x = delta_B_u_1_cast_fp16)[name = tensor<string, []>("op_498_cast_fp16")];
            tensor<fp16, [1, 256, 16]> hidden_state_55_cast_fp16 = add(x = var_496_cast_fp16, y = var_498_cast_fp16)[name = tensor<string, []>("hidden_state_55_cast_fp16")];
            tensor<int32, [3]> var_501_begin_0 = const()[name = tensor<string, []>("op_501_begin_0"), val = tensor<int32, [3]>([0, 26, 0])];
            tensor<int32, [3]> var_501_end_0 = const()[name = tensor<string, []>("op_501_end_0"), val = tensor<int32, [3]>([1, 27, 16])];
            tensor<bool, [3]> var_501_end_mask_0 = const()[name = tensor<string, []>("op_501_end_mask_0"), val = tensor<bool, [3]>([true, false, true])];
            tensor<bool, [3]> var_501_squeeze_mask_0 = const()[name = tensor<string, []>("op_501_squeeze_mask_0"), val = tensor<bool, [3]>([false, true, false])];
            tensor<fp16, [1, 16]> var_501_cast_fp16 = slice_by_index(begin = var_501_begin_0, end = var_501_end_0, end_mask = var_501_end_mask_0, squeeze_mask = var_501_squeeze_mask_0, x = C_proj_1_cast_fp16)[name = tensor<string, []>("op_501_cast_fp16")];
            tensor<int32, [3]> concat_212 = const()[name = tensor<string, []>("concat_212"), val = tensor<int32, [3]>([1, 16, 1])];
            tensor<fp16, [1, 16, 1]> reshape_79_cast_fp16 = reshape(shape = concat_212, x = var_501_cast_fp16)[name = tensor<string, []>("reshape_79_cast_fp16")];
            tensor<bool, []> matmul_26_transpose_x_0 = const()[name = tensor<string, []>("matmul_26_transpose_x_0"), val = tensor<bool, []>(false)];
            tensor<bool, []> matmul_26_transpose_y_0 = const()[name = tensor<string, []>("matmul_26_transpose_y_0"), val = tensor<bool, []>(false)];
            tensor<fp16, [1, 256, 1]> matmul_26_cast_fp16 = matmul(transpose_x = matmul_26_transpose_x_0, transpose_y = matmul_26_transpose_y_0, x = hidden_state_55_cast_fp16, y = reshape_79_cast_fp16)[name = tensor<string, []>("matmul_26_cast_fp16")];
            tensor<int32, [2]> concat_215 = const()[name = tensor<string, []>("concat_215"), val = tensor<int32, [2]>([1, 256])];
            tensor<fp16, [1, 256]> reshape_80_cast_fp16 = reshape(shape = concat_215, x = matmul_26_cast_fp16)[name = tensor<string, []>("reshape_80_cast_fp16")];
            tensor<int32, [4]> var_506_begin_0 = const()[name = tensor<string, []>("op_506_begin_0"), val = tensor<int32, [4]>([0, 27, 0, 0])];
            tensor<int32, [4]> var_506_end_0 = const()[name = tensor<string, []>("op_506_end_0"), val = tensor<int32, [4]>([1, 28, 256, 16])];
            tensor<bool, [4]> var_506_end_mask_0 = const()[name = tensor<string, []>("op_506_end_mask_0"), val = tensor<bool, [4]>([true, false, true, true])];
            tensor<bool, [4]> var_506_squeeze_mask_0 = const()[name = tensor<string, []>("op_506_squeeze_mask_0"), val = tensor<bool, [4]>([false, true, false, false])];
            tensor<fp16, [1, 256, 16]> var_506_cast_fp16 = slice_by_index(begin = var_506_begin_0, end = var_506_end_0, end_mask = var_506_end_mask_0, squeeze_mask = var_506_squeeze_mask_0, x = clip_1_to_fp16)[name = tensor<string, []>("op_506_cast_fp16")];
            tensor<fp16, [1, 256, 16]> var_507_cast_fp16 = mul(x = var_506_cast_fp16, y = hidden_state_55_cast_fp16)[name = tensor<string, []>("op_507_cast_fp16")];
            tensor<int32, [4]> var_509_begin_0 = const()[name = tensor<string, []>("op_509_begin_0"), val = tensor<int32, [4]>([0, 27, 0, 0])];
            tensor<int32, [4]> var_509_end_0 = const()[name = tensor<string, []>("op_509_end_0"), val = tensor<int32, [4]>([1, 28, 1, 16])];
            tensor<bool, [4]> var_509_end_mask_0 = const()[name = tensor<string, []>("op_509_end_mask_0"), val = tensor<bool, [4]>([true, false, true, true])];
            tensor<bool, [4]> var_509_squeeze_mask_0 = const()[name = tensor<string, []>("op_509_squeeze_mask_0"), val = tensor<bool, [4]>([false, true, false, false])];
            tensor<fp16, [1, 1, 16]> var_509_cast_fp16 = slice_by_index(begin = var_509_begin_0, end = var_509_end_0, end_mask = var_509_end_mask_0, squeeze_mask = var_509_squeeze_mask_0, x = delta_B_u_1_cast_fp16)[name = tensor<string, []>("op_509_cast_fp16")];
            tensor<fp16, [1, 256, 16]> hidden_state_57_cast_fp16 = add(x = var_507_cast_fp16, y = var_509_cast_fp16)[name = tensor<string, []>("hidden_state_57_cast_fp16")];
            tensor<int32, [3]> var_512_begin_0 = const()[name = tensor<string, []>("op_512_begin_0"), val = tensor<int32, [3]>([0, 27, 0])];
            tensor<int32, [3]> var_512_end_0 = const()[name = tensor<string, []>("op_512_end_0"), val = tensor<int32, [3]>([1, 28, 16])];
            tensor<bool, [3]> var_512_end_mask_0 = const()[name = tensor<string, []>("op_512_end_mask_0"), val = tensor<bool, [3]>([true, false, true])];
            tensor<bool, [3]> var_512_squeeze_mask_0 = const()[name = tensor<string, []>("op_512_squeeze_mask_0"), val = tensor<bool, [3]>([false, true, false])];
            tensor<fp16, [1, 16]> var_512_cast_fp16 = slice_by_index(begin = var_512_begin_0, end = var_512_end_0, end_mask = var_512_end_mask_0, squeeze_mask = var_512_squeeze_mask_0, x = C_proj_1_cast_fp16)[name = tensor<string, []>("op_512_cast_fp16")];
            tensor<int32, [3]> concat_220 = const()[name = tensor<string, []>("concat_220"), val = tensor<int32, [3]>([1, 16, 1])];
            tensor<fp16, [1, 16, 1]> reshape_82_cast_fp16 = reshape(shape = concat_220, x = var_512_cast_fp16)[name = tensor<string, []>("reshape_82_cast_fp16")];
            tensor<bool, []> matmul_27_transpose_x_0 = const()[name = tensor<string, []>("matmul_27_transpose_x_0"), val = tensor<bool, []>(false)];
            tensor<bool, []> matmul_27_transpose_y_0 = const()[name = tensor<string, []>("matmul_27_transpose_y_0"), val = tensor<bool, []>(false)];
            tensor<fp16, [1, 256, 1]> matmul_27_cast_fp16 = matmul(transpose_x = matmul_27_transpose_x_0, transpose_y = matmul_27_transpose_y_0, x = hidden_state_57_cast_fp16, y = reshape_82_cast_fp16)[name = tensor<string, []>("matmul_27_cast_fp16")];
            tensor<int32, [2]> concat_223 = const()[name = tensor<string, []>("concat_223"), val = tensor<int32, [2]>([1, 256])];
            tensor<fp16, [1, 256]> reshape_83_cast_fp16 = reshape(shape = concat_223, x = matmul_27_cast_fp16)[name = tensor<string, []>("reshape_83_cast_fp16")];
            tensor<int32, [4]> var_517_begin_0 = const()[name = tensor<string, []>("op_517_begin_0"), val = tensor<int32, [4]>([0, 28, 0, 0])];
            tensor<int32, [4]> var_517_end_0 = const()[name = tensor<string, []>("op_517_end_0"), val = tensor<int32, [4]>([1, 29, 256, 16])];
            tensor<bool, [4]> var_517_end_mask_0 = const()[name = tensor<string, []>("op_517_end_mask_0"), val = tensor<bool, [4]>([true, false, true, true])];
            tensor<bool, [4]> var_517_squeeze_mask_0 = const()[name = tensor<string, []>("op_517_squeeze_mask_0"), val = tensor<bool, [4]>([false, true, false, false])];
            tensor<fp16, [1, 256, 16]> var_517_cast_fp16 = slice_by_index(begin = var_517_begin_0, end = var_517_end_0, end_mask = var_517_end_mask_0, squeeze_mask = var_517_squeeze_mask_0, x = clip_1_to_fp16)[name = tensor<string, []>("op_517_cast_fp16")];
            tensor<fp16, [1, 256, 16]> var_518_cast_fp16 = mul(x = var_517_cast_fp16, y = hidden_state_57_cast_fp16)[name = tensor<string, []>("op_518_cast_fp16")];
            tensor<int32, [4]> var_520_begin_0 = const()[name = tensor<string, []>("op_520_begin_0"), val = tensor<int32, [4]>([0, 28, 0, 0])];
            tensor<int32, [4]> var_520_end_0 = const()[name = tensor<string, []>("op_520_end_0"), val = tensor<int32, [4]>([1, 29, 1, 16])];
            tensor<bool, [4]> var_520_end_mask_0 = const()[name = tensor<string, []>("op_520_end_mask_0"), val = tensor<bool, [4]>([true, false, true, true])];
            tensor<bool, [4]> var_520_squeeze_mask_0 = const()[name = tensor<string, []>("op_520_squeeze_mask_0"), val = tensor<bool, [4]>([false, true, false, false])];
            tensor<fp16, [1, 1, 16]> var_520_cast_fp16 = slice_by_index(begin = var_520_begin_0, end = var_520_end_0, end_mask = var_520_end_mask_0, squeeze_mask = var_520_squeeze_mask_0, x = delta_B_u_1_cast_fp16)[name = tensor<string, []>("op_520_cast_fp16")];
            tensor<fp16, [1, 256, 16]> hidden_state_59_cast_fp16 = add(x = var_518_cast_fp16, y = var_520_cast_fp16)[name = tensor<string, []>("hidden_state_59_cast_fp16")];
            tensor<int32, [3]> var_523_begin_0 = const()[name = tensor<string, []>("op_523_begin_0"), val = tensor<int32, [3]>([0, 28, 0])];
            tensor<int32, [3]> var_523_end_0 = const()[name = tensor<string, []>("op_523_end_0"), val = tensor<int32, [3]>([1, 29, 16])];
            tensor<bool, [3]> var_523_end_mask_0 = const()[name = tensor<string, []>("op_523_end_mask_0"), val = tensor<bool, [3]>([true, false, true])];
            tensor<bool, [3]> var_523_squeeze_mask_0 = const()[name = tensor<string, []>("op_523_squeeze_mask_0"), val = tensor<bool, [3]>([false, true, false])];
            tensor<fp16, [1, 16]> var_523_cast_fp16 = slice_by_index(begin = var_523_begin_0, end = var_523_end_0, end_mask = var_523_end_mask_0, squeeze_mask = var_523_squeeze_mask_0, x = C_proj_1_cast_fp16)[name = tensor<string, []>("op_523_cast_fp16")];
            tensor<int32, [3]> concat_228 = const()[name = tensor<string, []>("concat_228"), val = tensor<int32, [3]>([1, 16, 1])];
            tensor<fp16, [1, 16, 1]> reshape_85_cast_fp16 = reshape(shape = concat_228, x = var_523_cast_fp16)[name = tensor<string, []>("reshape_85_cast_fp16")];
            tensor<bool, []> matmul_28_transpose_x_0 = const()[name = tensor<string, []>("matmul_28_transpose_x_0"), val = tensor<bool, []>(false)];
            tensor<bool, []> matmul_28_transpose_y_0 = const()[name = tensor<string, []>("matmul_28_transpose_y_0"), val = tensor<bool, []>(false)];
            tensor<fp16, [1, 256, 1]> matmul_28_cast_fp16 = matmul(transpose_x = matmul_28_transpose_x_0, transpose_y = matmul_28_transpose_y_0, x = hidden_state_59_cast_fp16, y = reshape_85_cast_fp16)[name = tensor<string, []>("matmul_28_cast_fp16")];
            tensor<int32, [2]> concat_231 = const()[name = tensor<string, []>("concat_231"), val = tensor<int32, [2]>([1, 256])];
            tensor<fp16, [1, 256]> reshape_86_cast_fp16 = reshape(shape = concat_231, x = matmul_28_cast_fp16)[name = tensor<string, []>("reshape_86_cast_fp16")];
            tensor<int32, [4]> var_528_begin_0 = const()[name = tensor<string, []>("op_528_begin_0"), val = tensor<int32, [4]>([0, 29, 0, 0])];
            tensor<int32, [4]> var_528_end_0 = const()[name = tensor<string, []>("op_528_end_0"), val = tensor<int32, [4]>([1, 30, 256, 16])];
            tensor<bool, [4]> var_528_end_mask_0 = const()[name = tensor<string, []>("op_528_end_mask_0"), val = tensor<bool, [4]>([true, false, true, true])];
            tensor<bool, [4]> var_528_squeeze_mask_0 = const()[name = tensor<string, []>("op_528_squeeze_mask_0"), val = tensor<bool, [4]>([false, true, false, false])];
            tensor<fp16, [1, 256, 16]> var_528_cast_fp16 = slice_by_index(begin = var_528_begin_0, end = var_528_end_0, end_mask = var_528_end_mask_0, squeeze_mask = var_528_squeeze_mask_0, x = clip_1_to_fp16)[name = tensor<string, []>("op_528_cast_fp16")];
            tensor<fp16, [1, 256, 16]> var_529_cast_fp16 = mul(x = var_528_cast_fp16, y = hidden_state_59_cast_fp16)[name = tensor<string, []>("op_529_cast_fp16")];
            tensor<int32, [4]> var_531_begin_0 = const()[name = tensor<string, []>("op_531_begin_0"), val = tensor<int32, [4]>([0, 29, 0, 0])];
            tensor<int32, [4]> var_531_end_0 = const()[name = tensor<string, []>("op_531_end_0"), val = tensor<int32, [4]>([1, 30, 1, 16])];
            tensor<bool, [4]> var_531_end_mask_0 = const()[name = tensor<string, []>("op_531_end_mask_0"), val = tensor<bool, [4]>([true, false, true, true])];
            tensor<bool, [4]> var_531_squeeze_mask_0 = const()[name = tensor<string, []>("op_531_squeeze_mask_0"), val = tensor<bool, [4]>([false, true, false, false])];
            tensor<fp16, [1, 1, 16]> var_531_cast_fp16 = slice_by_index(begin = var_531_begin_0, end = var_531_end_0, end_mask = var_531_end_mask_0, squeeze_mask = var_531_squeeze_mask_0, x = delta_B_u_1_cast_fp16)[name = tensor<string, []>("op_531_cast_fp16")];
            tensor<fp16, [1, 256, 16]> hidden_state_61_cast_fp16 = add(x = var_529_cast_fp16, y = var_531_cast_fp16)[name = tensor<string, []>("hidden_state_61_cast_fp16")];
            tensor<int32, [3]> var_534_begin_0 = const()[name = tensor<string, []>("op_534_begin_0"), val = tensor<int32, [3]>([0, 29, 0])];
            tensor<int32, [3]> var_534_end_0 = const()[name = tensor<string, []>("op_534_end_0"), val = tensor<int32, [3]>([1, 30, 16])];
            tensor<bool, [3]> var_534_end_mask_0 = const()[name = tensor<string, []>("op_534_end_mask_0"), val = tensor<bool, [3]>([true, false, true])];
            tensor<bool, [3]> var_534_squeeze_mask_0 = const()[name = tensor<string, []>("op_534_squeeze_mask_0"), val = tensor<bool, [3]>([false, true, false])];
            tensor<fp16, [1, 16]> var_534_cast_fp16 = slice_by_index(begin = var_534_begin_0, end = var_534_end_0, end_mask = var_534_end_mask_0, squeeze_mask = var_534_squeeze_mask_0, x = C_proj_1_cast_fp16)[name = tensor<string, []>("op_534_cast_fp16")];
            tensor<int32, [3]> concat_236 = const()[name = tensor<string, []>("concat_236"), val = tensor<int32, [3]>([1, 16, 1])];
            tensor<fp16, [1, 16, 1]> reshape_88_cast_fp16 = reshape(shape = concat_236, x = var_534_cast_fp16)[name = tensor<string, []>("reshape_88_cast_fp16")];
            tensor<bool, []> matmul_29_transpose_x_0 = const()[name = tensor<string, []>("matmul_29_transpose_x_0"), val = tensor<bool, []>(false)];
            tensor<bool, []> matmul_29_transpose_y_0 = const()[name = tensor<string, []>("matmul_29_transpose_y_0"), val = tensor<bool, []>(false)];
            tensor<fp16, [1, 256, 1]> matmul_29_cast_fp16 = matmul(transpose_x = matmul_29_transpose_x_0, transpose_y = matmul_29_transpose_y_0, x = hidden_state_61_cast_fp16, y = reshape_88_cast_fp16)[name = tensor<string, []>("matmul_29_cast_fp16")];
            tensor<int32, [2]> concat_239 = const()[name = tensor<string, []>("concat_239"), val = tensor<int32, [2]>([1, 256])];
            tensor<fp16, [1, 256]> reshape_89_cast_fp16 = reshape(shape = concat_239, x = matmul_29_cast_fp16)[name = tensor<string, []>("reshape_89_cast_fp16")];
            tensor<int32, [4]> var_539_begin_0 = const()[name = tensor<string, []>("op_539_begin_0"), val = tensor<int32, [4]>([0, 30, 0, 0])];
            tensor<int32, [4]> var_539_end_0 = const()[name = tensor<string, []>("op_539_end_0"), val = tensor<int32, [4]>([1, 31, 256, 16])];
            tensor<bool, [4]> var_539_end_mask_0 = const()[name = tensor<string, []>("op_539_end_mask_0"), val = tensor<bool, [4]>([true, false, true, true])];
            tensor<bool, [4]> var_539_squeeze_mask_0 = const()[name = tensor<string, []>("op_539_squeeze_mask_0"), val = tensor<bool, [4]>([false, true, false, false])];
            tensor<fp16, [1, 256, 16]> var_539_cast_fp16 = slice_by_index(begin = var_539_begin_0, end = var_539_end_0, end_mask = var_539_end_mask_0, squeeze_mask = var_539_squeeze_mask_0, x = clip_1_to_fp16)[name = tensor<string, []>("op_539_cast_fp16")];
            tensor<fp16, [1, 256, 16]> var_540_cast_fp16 = mul(x = var_539_cast_fp16, y = hidden_state_61_cast_fp16)[name = tensor<string, []>("op_540_cast_fp16")];
            tensor<int32, [4]> var_542_begin_0 = const()[name = tensor<string, []>("op_542_begin_0"), val = tensor<int32, [4]>([0, 30, 0, 0])];
            tensor<int32, [4]> var_542_end_0 = const()[name = tensor<string, []>("op_542_end_0"), val = tensor<int32, [4]>([1, 31, 1, 16])];
            tensor<bool, [4]> var_542_end_mask_0 = const()[name = tensor<string, []>("op_542_end_mask_0"), val = tensor<bool, [4]>([true, false, true, true])];
            tensor<bool, [4]> var_542_squeeze_mask_0 = const()[name = tensor<string, []>("op_542_squeeze_mask_0"), val = tensor<bool, [4]>([false, true, false, false])];
            tensor<fp16, [1, 1, 16]> var_542_cast_fp16 = slice_by_index(begin = var_542_begin_0, end = var_542_end_0, end_mask = var_542_end_mask_0, squeeze_mask = var_542_squeeze_mask_0, x = delta_B_u_1_cast_fp16)[name = tensor<string, []>("op_542_cast_fp16")];
            tensor<fp16, [1, 256, 16]> hidden_state_63_cast_fp16 = add(x = var_540_cast_fp16, y = var_542_cast_fp16)[name = tensor<string, []>("hidden_state_63_cast_fp16")];
            tensor<int32, [3]> var_545_begin_0 = const()[name = tensor<string, []>("op_545_begin_0"), val = tensor<int32, [3]>([0, 30, 0])];
            tensor<int32, [3]> var_545_end_0 = const()[name = tensor<string, []>("op_545_end_0"), val = tensor<int32, [3]>([1, 31, 16])];
            tensor<bool, [3]> var_545_end_mask_0 = const()[name = tensor<string, []>("op_545_end_mask_0"), val = tensor<bool, [3]>([true, false, true])];
            tensor<bool, [3]> var_545_squeeze_mask_0 = const()[name = tensor<string, []>("op_545_squeeze_mask_0"), val = tensor<bool, [3]>([false, true, false])];
            tensor<fp16, [1, 16]> var_545_cast_fp16 = slice_by_index(begin = var_545_begin_0, end = var_545_end_0, end_mask = var_545_end_mask_0, squeeze_mask = var_545_squeeze_mask_0, x = C_proj_1_cast_fp16)[name = tensor<string, []>("op_545_cast_fp16")];
            tensor<int32, [3]> concat_244 = const()[name = tensor<string, []>("concat_244"), val = tensor<int32, [3]>([1, 16, 1])];
            tensor<fp16, [1, 16, 1]> reshape_91_cast_fp16 = reshape(shape = concat_244, x = var_545_cast_fp16)[name = tensor<string, []>("reshape_91_cast_fp16")];
            tensor<bool, []> matmul_30_transpose_x_0 = const()[name = tensor<string, []>("matmul_30_transpose_x_0"), val = tensor<bool, []>(false)];
            tensor<bool, []> matmul_30_transpose_y_0 = const()[name = tensor<string, []>("matmul_30_transpose_y_0"), val = tensor<bool, []>(false)];
            tensor<fp16, [1, 256, 1]> matmul_30_cast_fp16 = matmul(transpose_x = matmul_30_transpose_x_0, transpose_y = matmul_30_transpose_y_0, x = hidden_state_63_cast_fp16, y = reshape_91_cast_fp16)[name = tensor<string, []>("matmul_30_cast_fp16")];
            tensor<int32, [2]> concat_247 = const()[name = tensor<string, []>("concat_247"), val = tensor<int32, [2]>([1, 256])];
            tensor<fp16, [1, 256]> reshape_92_cast_fp16 = reshape(shape = concat_247, x = matmul_30_cast_fp16)[name = tensor<string, []>("reshape_92_cast_fp16")];
            tensor<int32, [4]> var_550_begin_0 = const()[name = tensor<string, []>("op_550_begin_0"), val = tensor<int32, [4]>([0, 31, 0, 0])];
            tensor<int32, [4]> var_550_end_0 = const()[name = tensor<string, []>("op_550_end_0"), val = tensor<int32, [4]>([1, 32, 256, 16])];
            tensor<bool, [4]> var_550_end_mask_0 = const()[name = tensor<string, []>("op_550_end_mask_0"), val = tensor<bool, [4]>([true, false, true, true])];
            tensor<bool, [4]> var_550_squeeze_mask_0 = const()[name = tensor<string, []>("op_550_squeeze_mask_0"), val = tensor<bool, [4]>([false, true, false, false])];
            tensor<fp16, [1, 256, 16]> var_550_cast_fp16 = slice_by_index(begin = var_550_begin_0, end = var_550_end_0, end_mask = var_550_end_mask_0, squeeze_mask = var_550_squeeze_mask_0, x = clip_1_to_fp16)[name = tensor<string, []>("op_550_cast_fp16")];
            tensor<fp16, [1, 256, 16]> var_551_cast_fp16 = mul(x = var_550_cast_fp16, y = hidden_state_63_cast_fp16)[name = tensor<string, []>("op_551_cast_fp16")];
            tensor<int32, [4]> var_553_begin_0 = const()[name = tensor<string, []>("op_553_begin_0"), val = tensor<int32, [4]>([0, 31, 0, 0])];
            tensor<int32, [4]> var_553_end_0 = const()[name = tensor<string, []>("op_553_end_0"), val = tensor<int32, [4]>([1, 32, 1, 16])];
            tensor<bool, [4]> var_553_end_mask_0 = const()[name = tensor<string, []>("op_553_end_mask_0"), val = tensor<bool, [4]>([true, false, true, true])];
            tensor<bool, [4]> var_553_squeeze_mask_0 = const()[name = tensor<string, []>("op_553_squeeze_mask_0"), val = tensor<bool, [4]>([false, true, false, false])];
            tensor<fp16, [1, 1, 16]> var_553_cast_fp16 = slice_by_index(begin = var_553_begin_0, end = var_553_end_0, end_mask = var_553_end_mask_0, squeeze_mask = var_553_squeeze_mask_0, x = delta_B_u_1_cast_fp16)[name = tensor<string, []>("op_553_cast_fp16")];
            tensor<fp16, [1, 256, 16]> hidden_state_65_cast_fp16 = add(x = var_551_cast_fp16, y = var_553_cast_fp16)[name = tensor<string, []>("hidden_state_65_cast_fp16")];
            tensor<int32, [3]> var_556_begin_0 = const()[name = tensor<string, []>("op_556_begin_0"), val = tensor<int32, [3]>([0, 31, 0])];
            tensor<int32, [3]> var_556_end_0 = const()[name = tensor<string, []>("op_556_end_0"), val = tensor<int32, [3]>([1, 32, 16])];
            tensor<bool, [3]> var_556_end_mask_0 = const()[name = tensor<string, []>("op_556_end_mask_0"), val = tensor<bool, [3]>([true, false, true])];
            tensor<bool, [3]> var_556_squeeze_mask_0 = const()[name = tensor<string, []>("op_556_squeeze_mask_0"), val = tensor<bool, [3]>([false, true, false])];
            tensor<fp16, [1, 16]> var_556_cast_fp16 = slice_by_index(begin = var_556_begin_0, end = var_556_end_0, end_mask = var_556_end_mask_0, squeeze_mask = var_556_squeeze_mask_0, x = C_proj_1_cast_fp16)[name = tensor<string, []>("op_556_cast_fp16")];
            tensor<int32, [3]> concat_252 = const()[name = tensor<string, []>("concat_252"), val = tensor<int32, [3]>([1, 16, 1])];
            tensor<fp16, [1, 16, 1]> reshape_94_cast_fp16 = reshape(shape = concat_252, x = var_556_cast_fp16)[name = tensor<string, []>("reshape_94_cast_fp16")];
            tensor<bool, []> matmul_31_transpose_x_0 = const()[name = tensor<string, []>("matmul_31_transpose_x_0"), val = tensor<bool, []>(false)];
            tensor<bool, []> matmul_31_transpose_y_0 = const()[name = tensor<string, []>("matmul_31_transpose_y_0"), val = tensor<bool, []>(false)];
            tensor<fp16, [1, 256, 1]> matmul_31_cast_fp16 = matmul(transpose_x = matmul_31_transpose_x_0, transpose_y = matmul_31_transpose_y_0, x = hidden_state_65_cast_fp16, y = reshape_94_cast_fp16)[name = tensor<string, []>("matmul_31_cast_fp16")];
            tensor<int32, [2]> concat_255 = const()[name = tensor<string, []>("concat_255"), val = tensor<int32, [2]>([1, 256])];
            tensor<fp16, [1, 256]> reshape_95_cast_fp16 = reshape(shape = concat_255, x = matmul_31_cast_fp16)[name = tensor<string, []>("reshape_95_cast_fp16")];
            tensor<int32, [4]> var_561_begin_0 = const()[name = tensor<string, []>("op_561_begin_0"), val = tensor<int32, [4]>([0, 32, 0, 0])];
            tensor<int32, [4]> var_561_end_0 = const()[name = tensor<string, []>("op_561_end_0"), val = tensor<int32, [4]>([1, 33, 256, 16])];
            tensor<bool, [4]> var_561_end_mask_0 = const()[name = tensor<string, []>("op_561_end_mask_0"), val = tensor<bool, [4]>([true, false, true, true])];
            tensor<bool, [4]> var_561_squeeze_mask_0 = const()[name = tensor<string, []>("op_561_squeeze_mask_0"), val = tensor<bool, [4]>([false, true, false, false])];
            tensor<fp16, [1, 256, 16]> var_561_cast_fp16 = slice_by_index(begin = var_561_begin_0, end = var_561_end_0, end_mask = var_561_end_mask_0, squeeze_mask = var_561_squeeze_mask_0, x = clip_1_to_fp16)[name = tensor<string, []>("op_561_cast_fp16")];
            tensor<fp16, [1, 256, 16]> var_562_cast_fp16 = mul(x = var_561_cast_fp16, y = hidden_state_65_cast_fp16)[name = tensor<string, []>("op_562_cast_fp16")];
            tensor<int32, [4]> var_564_begin_0 = const()[name = tensor<string, []>("op_564_begin_0"), val = tensor<int32, [4]>([0, 32, 0, 0])];
…
            tensor<fp16, [1, 1, 1, 320]> input_213_cast_fp16 = tanh(x = input_211_cast_fp16)[name = tensor<string, []>("input_213_cast_fp16")];
            tensor<fp16, [1, 1, 1, 1024]> linear_136_cast_fp16 = linear(bias = model_joiner_vocabulary_projection_bias_to_fp16, weight = model_joiner_vocabulary_projection_weight_to_fp16, x = input_213_cast_fp16)[name = tensor<string, []>("linear_136_cast_fp16")];
            tensor<int32, [3]> var_6134_begin_0 = const()[name = tensor<string, []>("op_6134_begin_0"), val = tensor<int32, [3]>([0, 39, 0])];
            tensor<int32, [3]> var_6134_end_0 = const()[name = tensor<string, []>("op_6134_end_0"), val = tensor<int32, [3]>([1, 40, 256])];
            tensor<bool, [3]> var_6134_end_mask_0 = const()[name = tensor<string, []>("op_6134_end_mask_0"), val = tensor<bool, [3]>([true, false, true])];
            tensor<fp16, [1, 1, 256]> var_6134_cast_fp16 = slice_by_index(begin = var_6134_begin_0, end = var_6134_end_0, end_mask = var_6134_end_mask_0, x = acoustic_encoded_cast_fp16)[name = tensor<string, []>("op_6134_cast_fp16")];
            tensor<fp16, [1, 1, 320]> linear_137_cast_fp16 = linear(bias = model_joiner_acoustic_projection_bias_to_fp16, weight = model_joiner_acoustic_projection_weight_to_fp16, x = var_6134_cast_fp16)[name = tensor<string, []>("linear_137_cast_fp16")];
            tensor<int32, [1]> acoustic_broadcast_79_axes_0 = const()[name = tensor<string, []>("acoustic_broadcast_79_axes_0"), val = tensor<int32, [1]>([2])];
            tensor<fp16, [1, 1, 1, 320]> acoustic_broadcast_79_cast_fp16 = expand_dims(axes = acoustic_broadcast_79_axes_0, x = linear_137_cast_fp16)[name = tensor<string, []>("acoustic_broadcast_79_cast_fp16")];
            tensor<fp16, [1, 1, 1, 320]> input_215_cast_fp16 = add(x = acoustic_broadcast_79_cast_fp16, y = linguistic_broadcast_1_cast_fp16)[name = tensor<string, []>("input_215_cast_fp16")];
            tensor<fp16, [1, 1, 1, 320]> input_217_cast_fp16 = tanh(x = input_215_cast_fp16)[name = tensor<string, []>("input_217_cast_fp16")];
            tensor<fp16, [1, 1, 1, 1024]> linear_139_cast_fp16 = linear(bias = model_joiner_vocabulary_projection_bias_to_fp16, weight = model_joiner_vocabulary_projection_weight_to_fp16, x = input_217_cast_fp16)[name = tensor<string, []>("linear_139_cast_fp16")];
            tensor<int32, [3]> var_6167_begin_0 = const()[name = tensor<string, []>("op_6167_begin_0"), val = tensor<int32, [3]>([0, 40, 0])];
            tensor<int32, [3]> var_6167_end_0 = const()[name = tensor<string, []>("op_6167_end_0"), val = tensor<int32, [3]>([1, 41, 256])];
            tensor<bool, [3]> var_6167_end_mask_0 = const()[name = tensor<string, []>("op_6167_end_mask_0"), val = tensor<bool, [3]>([true, false, true])];
            tensor<fp16, [1, 1, 256]> var_6167_cast_fp16 = slice_by_index(begin = var_6167_begin_0, end = var_6167_end_0, end_mask = var_6167_end_mask_0, x = acoustic_encoded_cast_fp16)[name = tensor<string, []>("op_6167_cast_fp16")];
            tensor<fp16, [1, 1, 320]> linear_140_cast_fp16 = linear(bias = model_joiner_acoustic_projection_bias_to_fp16, weight = model_joiner_acoustic_projection_weight_to_fp16, x = var_6167_cast_fp16)[name = tensor<string, []>("linear_140_cast_fp16")];
            tensor<int32, [1]> acoustic_broadcast_81_axes_0 = const()[name = tensor<string, []>("acoustic_broadcast_81_axes_0"), val = tensor<int32, [1]>([2])];
            tensor<fp16, [1, 1, 1, 320]> acoustic_broadcast_81_cast_fp16 = expand_dims(axes = acoustic_broadcast_81_axes_0, x = linear_140_cast_fp16)[name = tensor<string, []>("acoustic_broadcast_81_cast_fp16")];
            tensor<fp16, [1, 1, 1, 320]> input_219_cast_fp16 = add(x = acoustic_broadcast_81_cast_fp16, y = linguistic_broadcast_1_cast_fp16)[name = tensor<string, []>("input_219_cast_fp16")];
            tensor<fp16, [1, 1, 1, 320]> input_221_cast_fp16 = tanh(x = input_219_cast_fp16)[name = tensor<string, []>("input_221_cast_fp16")];
            tensor<fp16, [1, 1, 1, 1024]> linear_142_cast_fp16 = linear(bias = model_joiner_vocabulary_projection_bias_to_fp16, weight = model_joiner_vocabulary_projection_weight_to_fp16, x = input_221_cast_fp16)[name = tensor<string, []>("linear_142_cast_fp16")];
            tensor<int32, [3]> var_6200_begin_0 = const()[name = tensor<string, []>("op_6200_begin_0"), val = tensor<int32, [3]>([0, 41, 0])];
            tensor<int32, [3]> var_6200_end_0 = const()[name = tensor<string, []>("op_6200_end_0"), val = tensor<int32, [3]>([1, 42, 256])];
            tensor<bool, [3]> var_6200_end_mask_0 = const()[name = tensor<string, []>("op_6200_end_mask_0"), val = tensor<bool, [3]>([true, false, true])];
            tensor<fp16, [1, 1, 256]> var_6200_cast_fp16 = slice_by_index(begin = var_6200_begin_0, end = var_6200_end_0, end_mask = var_6200_end_mask_0, x = acoustic_encoded_cast_fp16)[name = tensor<string, []>("op_6200_cast_fp16")];
            tensor<fp16, [1, 1, 320]> linear_143_cast_fp16 = linear(bias = model_joiner_acoustic_projection_bias_to_fp16, weight = model_joiner_acoustic_projection_weight_to_fp16, x = var_6200_cast_fp16)[name = tensor<string, []>("linear_143_cast_fp16")];
            tensor<int32, [1]> acoustic_broadcast_83_axes_0 = const()[name = tensor<string, []>("acoustic_broadcast_83_axes_0"), val = tensor<int32, [1]>([2])];
            tensor<fp16, [1, 1, 1, 320]> acoustic_broadcast_83_cast_fp16 = expand_dims(axes = acoustic_broadcast_83_axes_0, x = linear_143_cast_fp16)[name = tensor<string, []>("acoustic_broadcast_83_cast_fp16")];
            tensor<fp16, [1, 1, 1, 320]> input_223_cast_fp16 = add(x = acoustic_broadcast_83_cast_fp16, y = linguistic_broadcast_1_cast_fp16)[name = tensor<string, []>("input_223_cast_fp16")];
            tensor<fp16, [1, 1, 1, 320]> input_225_cast_fp16 = tanh(x = input_223_cast_fp16)[name = tensor<string, []>("input_225_cast_fp16")];
            tensor<fp16, [1, 1, 1, 1024]> linear_145_cast_fp16 = linear(bias = model_joiner_vocabulary_projection_bias_to_fp16, weight = model_joiner_vocabulary_projection_weight_to_fp16, x = input_225_cast_fp16)[name = tensor<string, []>("linear_145_cast_fp16")];
            tensor<int32, [3]> var_6233_begin_0 = const()[name = tensor<string, []>("op_6233_begin_0"), val = tensor<int32, [3]>([0, 42, 0])];
            tensor<int32, [3]> var_6233_end_0 = const()[name = tensor<string, []>("op_6233_end_0"), val = tensor<int32, [3]>([1, 43, 256])];
            tensor<bool, [3]> var_6233_end_mask_0 = const()[name = tensor<string, []>("op_6233_end_mask_0"), val = tensor<bool, [3]>([true, false, true])];
            tensor<fp16, [1, 1, 256]> var_6233_cast_fp16 = slice_by_index(begin = var_6233_begin_0, end = var_6233_end_0, end_mask = var_6233_end_mask_0, x = acoustic_encoded_cast_fp16)[name = tensor<string, []>("op_6233_cast_fp16")];
            tensor<fp16, [1, 1, 320]> linear_146_cast_fp16 = linear(bias = model_joiner_acoustic_projection_bias_to_fp16, weight = model_joiner_acoustic_projection_weight_to_fp16, x = var_6233_cast_fp16)[name = tensor<string, []>("linear_146_cast_fp16")];
            tensor<int32, [1]> acoustic_broadcast_85_axes_0 = const()[name = tensor<string, []>("acoustic_broadcast_85_axes_0"), val = tensor<int32, [1]>([2])];
            tensor<fp16, [1, 1, 1, 320]> acoustic_broadcast_85_cast_fp16 = expand_dims(axes = acoustic_broadcast_85_axes_0, x = linear_146_cast_fp16)[name = tensor<string, []>("acoustic_broadcast_85_cast_fp16")];
            tensor<fp16, [1, 1, 1, 320]> input_227_cast_fp16 = add(x = acoustic_broadcast_85_cast_fp16, y = linguistic_broadcast_1_cast_fp16)[name = tensor<string, []>("input_227_cast_fp16")];
            tensor<fp16, [1, 1, 1, 320]> input_229_cast_fp16 = tanh(x = input_227_cast_fp16)[name = tensor<string, []>("input_229_cast_fp16")];
            tensor<fp16, [1, 1, 1, 1024]> linear_148_cast_fp16 = linear(bias = model_joiner_vocabulary_projection_bias_to_fp16, weight = model_joiner_vocabulary_projection_weight_to_fp16, x = input_229_cast_fp16)[name = tensor<string, []>("linear_148_cast_fp16")];
            tensor<int32, [3]> var_6266_begin_0 = const()[name = tensor<string, []>("op_6266_begin_0"), val = tensor<int32, [3]>([0, 43, 0])];
            tensor<int32, [3]> var_6266_end_0 = const()[name = tensor<string, []>("op_6266_end_0"), val = tensor<int32, [3]>([1, 44, 256])];
            tensor<bool, [3]> var_6266_end_mask_0 = const()[name = tensor<string, []>("op_6266_end_mask_0"), val = tensor<bool, [3]>([true, false, true])];
            tensor<fp16, [1, 1, 256]> var_6266_cast_fp16 = slice_by_index(begin = var_6266_begin_0, end = var_6266_end_0, end_mask = var_6266_end_mask_0, x = acoustic_encoded_cast_fp16)[name = tensor<string, []>("op_6266_cast_fp16")];
            tensor<fp16, [1, 1, 320]> linear_149_cast_fp16 = linear(bias = model_joiner_acoustic_projection_bias_to_fp16, weight = model_joiner_acoustic_projection_weight_to_fp16, x = var_6266_cast_fp16)[name = tensor<string, []>("linear_149_cast_fp16")];
            tensor<int32, [1]> acoustic_broadcast_87_axes_0 = const()[name = tensor<string, []>("acoustic_broadcast_87_axes_0"), val = tensor<int32, [1]>([2])];
            tensor<fp16, [1, 1, 1, 320]> acoustic_broadcast_87_cast_fp16 = expand_dims(axes = acoustic_broadcast_87_axes_0, x = linear_149_cast_fp16)[name = tensor<string, []>("acoustic_broadcast_87_cast_fp16")];
            tensor<fp16, [1, 1, 1, 320]> input_231_cast_fp16 = add(x = acoustic_broadcast_87_cast_fp16, y = linguistic_broadcast_1_cast_fp16)[name = tensor<string, []>("input_231_cast_fp16")];
            tensor<fp16, [1, 1, 1, 320]> input_233_cast_fp16 = tanh(x = input_231_cast_fp16)[name = tensor<string, []>("input_233_cast_fp16")];
            tensor<fp16, [1, 1, 1, 1024]> linear_151_cast_fp16 = linear(bias = model_joiner_vocabulary_projection_bias_to_fp16, weight = model_joiner_vocabulary_projection_weight_to_fp16, x = input_233_cast_fp16)[name = tensor<string, []>("linear_151_cast_fp16")];
            tensor<int32, [3]> var_6299_begin_0 = const()[name = tensor<string, []>("op_6299_begin_0"), val = tensor<int32, [3]>([0, 44, 0])];
            tensor<int32, [3]> var_6299_end_0 = const()[name = tensor<string, []>("op_6299_end_0"), val = tensor<int32, [3]>([1, 45, 256])];
            tensor<bool, [3]> var_6299_end_mask_0 = const()[name = tensor<string, []>("op_6299_end_mask_0"), val = tensor<bool, [3]>([true, false, true])];
            tensor<fp16, [1, 1, 256]> var_6299_cast_fp16 = slice_by_index(begin = var_6299_begin_0, end = var_6299_end_0, end_mask = var_6299_end_mask_0, x = acoustic_encoded_cast_fp16)[name = tensor<string, []>("op_6299_cast_fp16")];
            tensor<fp16, [1, 1, 320]> linear_152_cast_fp16 = linear(bias = model_joiner_acoustic_projection_bias_to_fp16, weight = model_joiner_acoustic_projection_weight_to_fp16, x = var_6299_cast_fp16)[name = tensor<string, []>("linear_152_cast_fp16")];
            tensor<int32, [1]> acoustic_broadcast_89_axes_0 = const()[name = tensor<string, []>("acoustic_broadcast_89_axes_0"), val = tensor<int32, [1]>([2])];
            tensor<fp16, [1, 1, 1, 320]> acoustic_broadcast_89_cast_fp16 = expand_dims(axes = acoustic_broadcast_89_axes_0, x = linear_152_cast_fp16)[name = tensor<string, []>("acoustic_broadcast_89_cast_fp16")];
            tensor<fp16, [1, 1, 1, 320]> input_235_cast_fp16 = add(x = acoustic_broadcast_89_cast_fp16, y = linguistic_broadcast_1_cast_fp16)[name = tensor<string, []>("input_235_cast_fp16")];
            tensor<fp16, [1, 1, 1, 320]> input_237_cast_fp16 = tanh(x = input_235_cast_fp16)[name = tensor<string, []>("input_237_cast_fp16")];
            tensor<fp16, [1, 1, 1, 1024]> linear_154_cast_fp16 = linear(bias = model_joiner_vocabulary_projection_bias_to_fp16, weight = model_joiner_vocabulary_projection_weight_to_fp16, x = input_237_cast_fp16)[name = tensor<string, []>("linear_154_cast_fp16")];
            tensor<int32, [3]> var_6332_begin_0 = const()[name = tensor<string, []>("op_6332_begin_0"), val = tensor<int32, [3]>([0, 45, 0])];
            tensor<int32, [3]> var_6332_end_0 = const()[name = tensor<string, []>("op_6332_end_0"), val = tensor<int32, [3]>([1, 46, 256])];
            tensor<bool, [3]> var_6332_end_mask_0 = const()[name = tensor<string, []>("op_6332_end_mask_0"), val = tensor<bool, [3]>([true, false, true])];
            tensor<fp16, [1, 1, 256]> var_6332_cast_fp16 = slice_by_index(begin = var_6332_begin_0, end = var_6332_end_0, end_mask = var_6332_end_mask_0, x = acoustic_encoded_cast_fp16)[name = tensor<string, []>("op_6332_cast_fp16")];
            tensor<fp16, [1, 1, 320]> linear_155_cast_fp16 = linear(bias = model_joiner_acoustic_projection_bias_to_fp16, weight = model_joiner_acoustic_projection_weight_to_fp16, x = var_6332_cast_fp16)[name = tensor<string, []>("linear_155_cast_fp16")];
            tensor<int32, [1]> acoustic_broadcast_91_axes_0 = const()[name = tensor<string, []>("acoustic_broadcast_91_axes_0"), val = tensor<int32, [1]>([2])];
            tensor<fp16, [1, 1, 1, 320]> acoustic_broadcast_91_cast_fp16 = expand_dims(axes = acoustic_broadcast_91_axes_0, x = linear_155_cast_fp16)[name = tensor<string, []>("acoustic_broadcast_91_cast_fp16")];
            tensor<fp16, [1, 1, 1, 320]> input_239_cast_fp16 = add(x = acoustic_broadcast_91_cast_fp16, y = linguistic_broadcast_1_cast_fp16)[name = tensor<string, []>("input_239_cast_fp16")];
            tensor<fp16, [1, 1, 1, 320]> input_241_cast_fp16 = tanh(x = input_239_cast_fp16)[name = tensor<string, []>("input_241_cast_fp16")];
            tensor<fp16, [1, 1, 1, 1024]> linear_157_cast_fp16 = linear(bias = model_joiner_vocabulary_projection_bias_to_fp16, weight = model_joiner_vocabulary_projection_weight_to_fp16, x = input_241_cast_fp16)[name = tensor<string, []>("linear_157_cast_fp16")];
            tensor<int32, [3]> var_6365_begin_0 = const()[name = tensor<string, []>("op_6365_begin_0"), val = tensor<int32, [3]>([0, 46, 0])];
            tensor<int32, [3]> var_6365_end_0 = const()[name = tensor<string, []>("op_6365_end_0"), val = tensor<int32, [3]>([1, 47, 256])];
            tensor<bool, [3]> var_6365_end_mask_0 = const()[name = tensor<string, []>("op_6365_end_mask_0"), val = tensor<bool, [3]>([true, false, true])];
            tensor<fp16, [1, 1, 256]> var_6365_cast_fp16 = slice_by_index(begin = var_6365_begin_0, end = var_6365_end_0, end_mask = var_6365_end_mask_0, x = acoustic_encoded_cast_fp16)[name = tensor<string, []>("op_6365_cast_fp16")];
            tensor<fp16, [1, 1, 320]> linear_158_cast_fp16 = linear(bias = model_joiner_acoustic_projection_bias_to_fp16, weight = model_joiner_acoustic_projection_weight_to_fp16, x = var_6365_cast_fp16)[name = tensor<string, []>("linear_158_cast_fp16")];
            tensor<int32, [1]> acoustic_broadcast_93_axes_0 = const()[name = tensor<string, []>("acoustic_broadcast_93_axes_0"), val = tensor<int32, [1]>([2])];
            tensor<fp16, [1, 1, 1, 320]> acoustic_broadcast_93_cast_fp16 = expand_dims(axes = acoustic_broadcast_93_axes_0, x = linear_158_cast_fp16)[name = tensor<string, []>("acoustic_broadcast_93_cast_fp16")];
            tensor<fp16, [1, 1, 1, 320]> input_243_cast_fp16 = add(x = acoustic_broadcast_93_cast_fp16, y = linguistic_broadcast_1_cast_fp16)[name = tensor<string, []>("input_243_cast_fp16")];
            tensor<fp16, [1, 1, 1, 320]> input_245_cast_fp16 = tanh(x = input_243_cast_fp16)[name = tensor<string, []>("input_245_cast_fp16")];
            tensor<fp16, [1, 1, 1, 1024]> linear_160_cast_fp16 = linear(bias = model_joiner_vocabulary_projection_bias_to_fp16, weight = model_joiner_vocabulary_projection_weight_to_fp16, x = input_245_cast_fp16)[name = tensor<string, []>("linear_160_cast_fp16")];
            tensor<int32, [3]> var_6398_begin_0 = const()[name = tensor<string, []>("op_6398_begin_0"), val = tensor<int32, [3]>([0, 47, 0])];
            tensor<int32, [3]> var_6398_end_0 = const()[name = tensor<string, []>("op_6398_end_0"), val = tensor<int32, [3]>([1, 48, 256])];
            tensor<bool, [3]> var_6398_end_mask_0 = const()[name = tensor<string, []>("op_6398_end_mask_0"), val = tensor<bool, [3]>([true, false, true])];
            tensor<fp16, [1, 1, 256]> var_6398_cast_fp16 = slice_by_index(begin = var_6398_begin_0, end = var_6398_end_0, end_mask = var_6398_end_mask_0, x = acoustic_encoded_cast_fp16)[name = tensor<string, []>("op_6398_cast_fp16")];
            tensor<fp16, [1, 1, 320]> linear_161_cast_fp16 = linear(bias = model_joiner_acoustic_projection_bias_to_fp16, weight = model_joiner_acoustic_projection_weight_to_fp16, x = var_6398_cast_fp16)[name = tensor<string, []>("linear_161_cast_fp16")];
            tensor<int32, [1]> acoustic_broadcast_95_axes_0 = const()[name = tensor<string, []>("acoustic_broadcast_95_axes_0"), val = tensor<int32, [1]>([2])];
            tensor<fp16, [1, 1, 1, 320]> acoustic_broadcast_95_cast_fp16 = expand_dims(axes = acoustic_broadcast_95_axes_0, x = linear_161_cast_fp16)[name = tensor<string, []>("acoustic_broadcast_95_cast_fp16")];
            tensor<fp16, [1, 1, 1, 320]> input_247_cast_fp16 = add(x = acoustic_broadcast_95_cast_fp16, y = linguistic_broadcast_1_cast_fp16)[name = tensor<string, []>("input_247_cast_fp16")];
            tensor<fp16, [1, 1, 1, 320]> input_249_cast_fp16 = tanh(x = input_247_cast_fp16)[name = tensor<string, []>("input_249_cast_fp16")];
            tensor<fp16, [1, 1, 1, 1024]> linear_163_cast_fp16 = linear(bias = model_joiner_vocabulary_projection_bias_to_fp16, weight = model_joiner_vocabulary_projection_weight_to_fp16, x = input_249_cast_fp16)[name = tensor<string, []>("linear_163_cast_fp16")];
            tensor<int32, [3]> var_6431_begin_0 = const()[name = tensor<string, []>("op_6431_begin_0"), val = tensor<int32, [3]>([0, 48, 0])];
            tensor<int32, [3]> var_6431_end_0 = const()[name = tensor<string, []>("op_6431_end_0"), val = tensor<int32, [3]>([1, 49, 256])];
            tensor<bool, [3]> var_6431_end_mask_0 = const()[name = tensor<string, []>("op_6431_end_mask_0"), val = tensor<bool, [3]>([true, false, true])];
            tensor<fp16, [1, 1, 256]> var_6431_cast_fp16 = slice_by_index(begin = var_6431_begin_0, end = var_6431_end_0, end_mask = var_6431_end_mask_0, x = acoustic_encoded_cast_fp16)[name = tensor<string, []>("op_6431_cast_fp16")];
            tensor<fp16, [1, 1, 320]> linear_164_cast_fp16 = linear(bias = model_joiner_acoustic_projection_bias_to_fp16, weight = model_joiner_acoustic_projection_weight_to_fp16, x = var_6431_cast_fp16)[name = tensor<string, []>("linear_164_cast_fp16")];
            tensor<int32, [1]> acoustic_broadcast_97_axes_0 = const()[name = tensor<string, []>("acoustic_broadcast_97_axes_0"), val = tensor<int32, [1]>([2])];
            tensor<fp16, [1, 1, 1, 320]> acoustic_broadcast_97_cast_fp16 = expand_dims(axes = acoustic_broadcast_97_axes_0, x = linear_164_cast_fp16)[name = tensor<string, []>("acoustic_broadcast_97_cast_fp16")];
            tensor<fp16, [1, 1, 1, 320]> input_251_cast_fp16 = add(x = acoustic_broadcast_97_cast_fp16, y = linguistic_broadcast_1_cast_fp16)[name = tensor<string, []>("input_251_cast_fp16")];
            tensor<fp16, [1, 1, 1, 320]> input_253_cast_fp16 = tanh(x = input_251_cast_fp16)[name = tensor<string, []>("input_253_cast_fp16")];
            tensor<fp16, [1, 1, 1, 1024]> linear_166_cast_fp16 = linear(bias = model_joiner_vocabulary_projection_bias_to_fp16, weight = model_joiner_vocabulary_projection_weight_to_fp16, x = input_253_cast_fp16)[name = tensor<string, []>("linear_166_cast_fp16")];
            tensor<int32, [3]> var_6464_begin_0 = const()[name = tensor<string, []>("op_6464_begin_0"), val = tensor<int32, [3]>([0, 49, 0])];
            tensor<int32, [3]> var_6464_end_0 = const()[name = tensor<string, []>("op_6464_end_0"), val = tensor<int32, [3]>([1, 50, 256])];
            tensor<bool, [3]> var_6464_end_mask_0 = const()[name = tensor<string, []>("op_6464_end_mask_0"), val = tensor<bool, [3]>([true, false, true])];
            tensor<fp16, [1, 1, 256]> var_6464_cast_fp16 = slice_by_index(begin = var_6464_begin_0, end = var_6464_end_0, end_mask = var_6464_end_mask_0, x = acoustic_encoded_cast_fp16)[name = tensor<string, []>("op_6464_cast_fp16")];
            tensor<fp16, [1, 1, 320]> linear_167_cast_fp16 = linear(bias = model_joiner_acoustic_projection_bias_to_fp16, weight = model_joiner_acoustic_projection_weight_to_fp16, x = var_6464_cast_fp16)[name = tensor<string, []>("linear_167_cast_fp16")];
            tensor<int32, [1]> acoustic_broadcast_99_axes_0 = const()[name = tensor<string, []>("acoustic_broadcast_99_axes_0"), val = tensor<int32, [1]>([2])];
            tensor<fp16, [1, 1, 1, 320]> acoustic_broadcast_99_cast_fp16 = expand_dims(axes = acoustic_broadcast_99_axes_0, x = linear_167_cast_fp16)[name = tensor<string, []>("acoustic_broadcast_99_cast_fp16")];
            tensor<fp16, [1, 1, 1, 320]> input_255_cast_fp16 = add(x = acoustic_broadcast_99_cast_fp16, y = linguistic_broadcast_1_cast_fp16)[name = tensor<string, []>("input_255_cast_fp16")];
            tensor<fp16, [1, 1, 1, 320]> input_257_cast_fp16 = tanh(x = input_255_cast_fp16)[name = tensor<string, []>("input_257_cast_fp16")];
            tensor<fp16, [1, 1, 1, 1024]> linear_169_cast_fp16 = linear(bias = model_joiner_vocabulary_projection_bias_to_fp16, weight = model_joiner_vocabulary_projection_weight_to_fp16, x = input_257_cast_fp16)[name = tensor<string, []>("linear_169_cast_fp16")];
            tensor<int32, [3]> var_6497_begin_0 = const()[name = tensor<string, []>("op_6497_begin_0"), val = tensor<int32, [3]>([0, 50, 0])];
            tensor<int32, [3]> var_6497_end_0 = const()[name = tensor<string, []>("op_6497_end_0"), val = tensor<int32, [3]>([1, 51, 256])];
            tensor<bool, [3]> var_6497_end_mask_0 = const()[name = tensor<string, []>("op_6497_end_mask_0"), val = tensor<bool, [3]>([true, false, true])];
            tensor<fp16, [1, 1, 256]> var_6497_cast_fp16 = slice_by_index(begin = var_6497_begin_0, end = var_6497_end_0, end_mask = var_6497_end_mask_0, x = acoustic_encoded_cast_fp16)[name = tensor<string, []>("op_6497_cast_fp16")];
            tensor<fp16, [1, 1, 320]> linear_170_cast_fp16 = linear(bias = model_joiner_acoustic_projection_bias_to_fp16, weight = model_joiner_acoustic_projection_weight_to_fp16, x = var_6497_cast_fp16)[name = tensor<string, []>("linear_170_cast_fp16")];
            tensor<int32, [1]> acoustic_broadcast_101_axes_0 = const()[name = tensor<string, []>("acoustic_broadcast_101_axes_0"), val = tensor<int32, [1]>([2])];
            tensor<fp16, [1, 1, 1, 320]> acoustic_broadcast_101_cast_fp16 = expand_dims(axes = acoustic_broadcast_101_axes_0, x = linear_170_cast_fp16)[name = tensor<string, []>("acoustic_broadcast_101_cast_fp16")];
            tensor<fp16, [1, 1, 1, 320]> input_259_cast_fp16 = add(x = acoustic_broadcast_101_cast_fp16, y = linguistic_broadcast_1_cast_fp16)[name = tensor<string, []>("input_259_cast_fp16")];
            tensor<fp16, [1, 1, 1, 320]> input_261_cast_fp16 = tanh(x = input_259_cast_fp16)[name = tensor<string, []>("input_261_cast_fp16")];
            tensor<fp16, [1, 1, 1, 1024]> linear_172_cast_fp16 = linear(bias = model_joiner_vocabulary_projection_bias_to_fp16, weight = model_joiner_vocabulary_projection_weight_to_fp16, x = input_261_cast_fp16)[name = tensor<string, []>("linear_172_cast_fp16")];
            tensor<int32, [3]> var_6530_begin_0 = const()[name = tensor<string, []>("op_6530_begin_0"), val = tensor<int32, [3]>([0, 51, 0])];
            tensor<int32, [3]> var_6530_end_0 = const()[name = tensor<string, []>("op_6530_end_0"), val = tensor<int32, [3]>([1, 52, 256])];
            tensor<bool, [3]> var_6530_end_mask_0 = const()[name = tensor<string, []>("op_6530_end_mask_0"), val = tensor<bool, [3]>([true, false, true])];
            tensor<fp16, [1, 1, 256]> var_6530_cast_fp16 = slice_by_index(begin = var_6530_begin_0, end = var_6530_end_0, end_mask = var_6530_end_mask_0, x = acoustic_encoded_cast_fp16)[name = tensor<string, []>("op_6530_cast_fp16")];
            tensor<fp16, [1, 1, 320]> linear_173_cast_fp16 = linear(bias = model_joiner_acoustic_projection_bias_to_fp16, weight = model_joiner_acoustic_projection_weight_to_fp16, x = var_6530_cast_fp16)[name = tensor<string, []>("linear_173_cast_fp16")];
            tensor<int32, [1]> acoustic_broadcast_103_axes_0 = const()[name = tensor<string, []>("acoustic_broadcast_103_axes_0"), val = tensor<int32, [1]>([2])];
            tensor<fp16, [1, 1, 1, 320]> acoustic_broadcast_103_cast_fp16 = expand_dims(axes = acoustic_broadcast_103_axes_0, x = linear_173_cast_fp16)[name = tensor<string, []>("acoustic_broadcast_103_cast_fp16")];
            tensor<fp16, [1, 1, 1, 320]> input_263_cast_fp16 = add(x = acoustic_broadcast_103_cast_fp16, y = linguistic_broadcast_1_cast_fp16)[name = tensor<string, []>("input_263_cast_fp16")];
            tensor<fp16, [1, 1, 1, 320]> input_265_cast_fp16 = tanh(x = input_263_cast_fp16)[name = tensor<string, []>("input_265_cast_fp16")];
            tensor<fp16, [1, 1, 1, 1024]> linear_175_cast_fp16 = linear(bias = model_joiner_vocabulary_projection_bias_to_fp16, weight = model_joiner_vocabulary_projection_weight_to_fp16, x = input_265_cast_fp16)[name = tensor<string, []>("linear_175_cast_fp16")];
            tensor<int32, [3]> var_6563_begin_0 = const()[name = tensor<string, []>("op_6563_begin_0"), val = tensor<int32, [3]>([0, 52, 0])];
            tensor<int32, [3]> var_6563_end_0 = const()[name = tensor<string, []>("op_6563_end_0"), val = tensor<int32, [3]>([1, 53, 256])];
            tensor<bool, [3]> var_6563_end_mask_0 = const()[name = tensor<string, []>("op_6563_end_mask_0"), val = tensor<bool, [3]>([true, false, true])];
            tensor<fp16, [1, 1, 256]> var_6563_cast_fp16 = slice_by_index(begin = var_6563_begin_0, end = var_6563_end_0, end_mask = var_6563_end_mask_0, x = acoustic_encoded_cast_fp16)[name = tensor<string, []>("op_6563_cast_fp16")];
            tensor<fp16, [1, 1, 320]> linear_176_cast_fp16 = linear(bias = model_joiner_acoustic_projection_bias_to_fp16, weight = model_joiner_acoustic_projection_weight_to_fp16, x = var_6563_cast_fp16)[name = tensor<string, []>("linear_176_cast_fp16")];
            tensor<int32, [1]> acoustic_broadcast_105_axes_0 = const()[name = tensor<string, []>("acoustic_broadcast_105_axes_0"), val = tensor<int32, [1]>([2])];
            tensor<fp16, [1, 1, 1, 320]> acoustic_broadcast_105_cast_fp16 = expand_dims(axes = acoustic_broadcast_105_axes_0, x = linear_176_cast_fp16)[name = tensor<string, []>("acoustic_broadcast_105_cast_fp16")];
            tensor<fp16, [1, 1, 1, 320]> input_267_cast_fp16 = add(x = acoustic_broadcast_105_cast_fp16, y = linguistic_broadcast_1_cast_fp16)[name = tensor<string, []>("input_267_cast_fp16")];
            tensor<fp16, [1, 1, 1, 320]> input_269_cast_fp16 = tanh(x = input_267_cast_fp16)[name = tensor<string, []>("input_269_cast_fp16")];
            tensor<fp16, [1, 1, 1, 1024]> linear_178_cast_fp16 = linear(bias = model_joiner_vocabulary_projection_bias_to_fp16, weight = model_joiner_vocabulary_projection_weight_to_fp16, x = input_269_cast_fp16)[name = tensor<string, []>("linear_178_cast_fp16")];
            tensor<int32, [3]> var_6596_begin_0 = const()[name = tensor<string, []>("op_6596_begin_0"), val = tensor<int32, [3]>([0, 53, 0])];
            tensor<int32, [3]> var_6596_end_0 = const()[name = tensor<string, []>("op_6596_end_0"), val = tensor<int32, [3]>([1, 54, 256])];
            tensor<bool, [3]> var_6596_end_mask_0 = const()[name = tensor<string, []>("op_6596_end_mask_0"), val = tensor<bool, [3]>([true, false, true])];
            tensor<fp16, [1, 1, 256]> var_6596_cast_fp16 = slice_by_index(begin = var_6596_begin_0, end = var_6596_end_0, end_mask = var_6596_end_mask_0, x = acoustic_encoded_cast_fp16)[name = tensor<string, []>("op_6596_cast_fp16")];
            tensor<fp16, [1, 1, 320]> linear_179_cast_fp16 = linear(bias = model_joiner_acoustic_projection_bias_to_fp16, weight = model_joiner_acoustic_projection_weight_to_fp16, x = var_6596_cast_fp16)[name = tensor<string, []>("linear_179_cast_fp16")];
            tensor<int32, [1]> acoustic_broadcast_107_axes_0 = const()[name = tensor<string, []>("acoustic_broadcast_107_axes_0"), val = tensor<int32, [1]>([2])];
            tensor<fp16, [1, 1, 1, 320]> acoustic_broadcast_107_cast_fp16 = expand_dims(axes = acoustic_broadcast_107_axes_0, x = linear_179_cast_fp16)[name = tensor<string, []>("acoustic_broadcast_107_cast_fp16")];
            tensor<fp16, [1, 1, 1, 320]> input_271_cast_fp16 = add(x = acoustic_broadcast_107_cast_fp16, y = linguistic_broadcast_1_cast_fp16)[name = tensor<string, []>("input_271_cast_fp16")];
            tensor<fp16, [1, 1, 1, 320]> input_273_cast_fp16 = tanh(x = input_271_cast_fp16)[name = tensor<string, []>("input_273_cast_fp16")];
            tensor<fp16, [1, 1, 1, 1024]> linear_181_cast_fp16 = linear(bias = model_joiner_vocabulary_projection_bias_to_fp16, weight = model_joiner_vocabulary_projection_weight_to_fp16, x = input_273_cast_fp16)[name = tensor<string, []>("linear_181_cast_fp16")];
            tensor<int32, [3]> var_6629_begin_0 = const()[name = tensor<string, []>("op_6629_begin_0"), val = tensor<int32, [3]>([0, 54, 0])];
            tensor<int32, [3]> var_6629_end_0 = const()[name = tensor<string, []>("op_6629_end_0"), val = tensor<int32, [3]>([1, 55, 256])];
            tensor<bool, [3]> var_6629_end_mask_0 = const()[name = tensor<string, []>("op_6629_end_mask_0"), val = tensor<bool, [3]>([true, false, true])];
            tensor<fp16, [1, 1, 256]> var_6629_cast_fp16 = slice_by_index(begin = var_6629_begin_0, end = var_6629_end_0, end_mask = var_6629_end_mask_0, x = acoustic_encoded_cast_fp16)[name = tensor<string, []>("op_6629_cast_fp16")];
            tensor<fp16, [1, 1, 320]> linear_182_cast_fp16 = linear(bias = model_joiner_acoustic_projection_bias_to_fp16, weight = model_joiner_acoustic_projection_weight_to_fp16, x = var_6629_cast_fp16)[name = tensor<string, []>("linear_182_cast_fp16")];
            tensor<int32, [1]> acoustic_broadcast_109_axes_0 = const()[name = tensor<string, []>("acoustic_broadcast_109_axes_0"), val = tensor<int32, [1]>([2])];
            tensor<fp16, [1, 1, 1, 320]> acoustic_broadcast_109_cast_fp16 = expand_dims(axes = acoustic_broadcast_109_axes_0, x = linear_182_cast_fp16)[name = tensor<string, []>("acoustic_broadcast_109_cast_fp16")];
            tensor<fp16, [1, 1, 1, 320]> input_275_cast_fp16 = add(x = acoustic_broadcast_109_cast_fp16, y = linguistic_broadcast_1_cast_fp16)[name = tensor<string, []>("input_275_cast_fp16")];
            tensor<fp16, [1, 1, 1, 320]> input_277_cast_fp16 = tanh(x = input_275_cast_fp16)[name = tensor<string, []>("input_277_cast_fp16")];
            tensor<fp16, [1, 1, 1, 1024]> linear_184_cast_fp16 = linear(bias = model_joiner_vocabulary_projection_bias_to_fp16, weight = model_joiner_vocabulary_projection_weight_to_fp16, x = input_277_cast_fp16)[name = tensor<string, []>("linear_184_cast_fp16")];
            tensor<int32, [3]> var_6662_begin_0 = const()[name = tensor<string, []>("op_6662_begin_0"), val = tensor<int32, [3]>([0, 55, 0])];
            tensor<int32, [3]> var_6662_end_0 = const()[name = tensor<string, []>("op_6662_end_0"), val = tensor<int32, [3]>([1, 56, 256])];
            tensor<bool, [3]> var_6662_end_mask_0 = const()[name = tensor<string, []>("op_6662_end_mask_0"), val = tensor<bool, [3]>([true, false, true])];
            tensor<fp16, [1, 1, 256]> var_6662_cast_fp16 = slice_by_index(begin = var_6662_begin_0, end = var_6662_end_0, end_mask = var_6662_end_mask_0, x = acoustic_encoded_cast_fp16)[name = tensor<string, []>("op_6662_cast_fp16")];
            tensor<fp16, [1, 1, 320]> linear_185_cast_fp16 = linear(bias = model_joiner_acoustic_projection_bias_to_fp16, weight = model_joiner_acoustic_projection_weight_to_fp16, x = var_6662_cast_fp16)[name = tensor<string, []>("linear_185_cast_fp16")];
            tensor<int32, [1]> acoustic_broadcast_111_axes_0 = const()[name = tensor<string, []>("acoustic_broadcast_111_axes_0"), val = tensor<int32, [1]>([2])];
            tensor<fp16, [1, 1, 1, 320]> acoustic_broadcast_111_cast_fp16 = expand_dims(axes = acoustic_broadcast_111_axes_0, x = linear_185_cast_fp16)[name = tensor<string, []>("acoustic_broadcast_111_cast_fp16")];
            tensor<fp16, [1, 1, 1, 320]> input_279_cast_fp16 = add(x = acoustic_broadcast_111_cast_fp16, y = linguistic_broadcast_1_cast_fp16)[name = tensor<string, []>("input_279_cast_fp16")];
            tensor<fp16, [1, 1, 1, 320]> input_281_cast_fp16 = tanh(x = input_279_cast_fp16)[name = tensor<string, []>("input_281_cast_fp16")];
            tensor<fp16, [1, 1, 1, 1024]> linear_187_cast_fp16 = linear(bias = model_joiner_vocabulary_projection_bias_to_fp16, weight = model_joiner_vocabulary_projection_weight_to_fp16, x = input_281_cast_fp16)[name = tensor<string, []>("linear_187_cast_fp16")];
            tensor<int32, [3]> var_6695_begin_0 = const()[name = tensor<string, []>("op_6695_begin_0"), val = tensor<int32, [3]>([0, 56, 0])];
            tensor<int32, [3]> var_6695_end_0 = const()[name = tensor<string, []>("op_6695_end_0"), val = tensor<int32, [3]>([1, 57, 256])];
            tensor<bool, [3]> var_6695_end_mask_0 = const()[name = tensor<string, []>("op_6695_end_mask_0"), val = tensor<bool, [3]>([true, false, true])];
            tensor<fp16, [1, 1, 256]> var_6695_cast_fp16 = slice_by_index(begin = var_6695_begin_0, end = var_6695_end_0, end_mask = var_6695_end_mask_0, x = acoustic_encoded_cast_fp16)[name = tensor<string, []>("op_6695_cast_fp16")];
            tensor<fp16, [1, 1, 320]> linear_188_cast_fp16 = linear(bias = model_joiner_acoustic_projection_bias_to_fp16, weight = model_joiner_acoustic_projection_weight_to_fp16, x = var_6695_cast_fp16)[name = tensor<string, []>("linear_188_cast_fp16")];
            tensor<int32, [1]> acoustic_broadcast_113_axes_0 = const()[name = tensor<string, []>("acoustic_broadcast_113_axes_0"), val = tensor<int32, [1]>([2])];
            tensor<fp16, [1, 1, 1, 320]> acoustic_broadcast_113_cast_fp16 = expand_dims(axes = acoustic_broadcast_113_axes_0, x = linear_188_cast_fp16)[name = tensor<string, []>("acoustic_broadcast_113_cast_fp16")];
            tensor<fp16, [1, 1, 1, 320]> input_283_cast_fp16 = add(x = acoustic_broadcast_113_cast_fp16, y = linguistic_broadcast_1_cast_fp16)[name = tensor<string, []>("input_283_cast_fp16")];
            tensor<fp16, [1, 1, 1, 320]> input_285_cast_fp16 = tanh(x = input_283_cast_fp16)[name = tensor<string, []>("input_285_cast_fp16")];
            tensor<fp16, [1, 1, 1, 1024]> linear_190_cast_fp16 = linear(bias = model_joiner_vocabulary_projection_bias_to_fp16, weight = model_joiner_vocabulary_projection_weight_to_fp16, x = input_285_cast_fp16)[name = tensor<string, []>("linear_190_cast_fp16")];
            tensor<int32, [3]> var_6728_begin_0 = const()[name = tensor<string, []>("op_6728_begin_0"), val = tensor<int32, [3]>([0, 57, 0])];
            tensor<int32, [3]> var_6728_end_0 = const()[name = tensor<string, []>("op_6728_end_0"), val = tensor<int32, [3]>([1, 58, 256])];
            tensor<bool, [3]> var_6728_end_mask_0 = const()[name = tensor<string, []>("op_6728_end_mask_0"), val = tensor<bool, [3]>([true, false, true])];
            tensor<fp16, [1, 1, 256]> var_6728_cast_fp16 = slice_by_index(begin = var_6728_begin_0, end = var_6728_end_0, end_mask = var_6728_end_mask_0, x = acoustic_encoded_cast_fp16)[name = tensor<string, []>("op_6728_cast_fp16")];
            tensor<fp16, [1, 1, 320]> linear_191_cast_fp16 = linear(bias = model_joiner_acoustic_projection_bias_to_fp16, weight = model_joiner_acoustic_projection_weight_to_fp16, x = var_6728_cast_fp16)[name = tensor<string, []>("linear_191_cast_fp16")];
            tensor<int32, [1]> acoustic_broadcast_115_axes_0 = const()[name = tensor<string, []>("acoustic_broadcast_115_axes_0"), val = tensor<int32, [1]>([2])];
            tensor<fp16, [1, 1, 1, 320]> acoustic_broadcast_115_cast_fp16 = expand_dims(axes = acoustic_broadcast_115_axes_0, x = linear_191_cast_fp16)[name = tensor<string, []>("acoustic_broadcast_115_cast_fp16")];
            tensor<fp16, [1, 1, 1, 320]> input_287_cast_fp16 = add(x = acoustic_broadcast_115_cast_fp16, y = linguistic_broadcast_1_cast_fp16)[name = tensor<string, []>("input_287_cast_fp16")];
            tensor<fp16, [1, 1, 1, 320]> input_289_cast_fp16 = tanh(x = input_287_cast_fp16)[name = tensor<string, []>("input_289_cast_fp16")];
            tensor<fp16, [1, 1, 1, 1024]> linear_193_cast_fp16 = linear(bias = model_joiner_vocabulary_projection_bias_to_fp16, weight = model_joiner_vocabulary_projection_weight_to_fp16, x = input_289_cast_fp16)[name = tensor<string, []>("linear_193_cast_fp16")];
            tensor<int32, [3]> var_6761_begin_0 = const()[name = tensor<string, []>("op_6761_begin_0"), val = tensor<int32, [3]>([0, 58, 0])];
            tensor<int32, [3]> var_6761_end_0 = const()[name = tensor<string, []>("op_6761_end_0"), val = tensor<int32, [3]>([1, 59, 256])];
            tensor<bool, [3]> var_6761_end_mask_0 = const()[name = tensor<string, []>("op_6761_end_mask_0"), val = tensor<bool, [3]>([true, false, true])];
            tensor<fp16, [1, 1, 256]> var_6761_cast_fp16 = slice_by_index(begin = var_6761_begin_0, end = var_6761_end_0, end_mask = var_6761_end_mask_0, x = acoustic_encoded_cast_fp16)[name = tensor<string, []>("op_6761_cast_fp16")];
            tensor<fp16, [1, 1, 320]> linear_194_cast_fp16 = linear(bias = model_joiner_acoustic_projection_bias_to_fp16, weight = model_joiner_acoustic_projection_weight_to_fp16, x = var_6761_cast_fp16)[name = tensor<string, []>("linear_194_cast_fp16")];
            tensor<int32, [1]> acoustic_broadcast_117_axes_0 = const()[name = tensor<string, []>("acoustic_broadcast_117_axes_0"), val = tensor<int32, [1]>([2])];
            tensor<fp16, [1, 1, 1, 320]> acoustic_broadcast_117_cast_fp16 = expand_dims(axes = acoustic_broadcast_117_axes_0, x = linear_194_cast_fp16)[name = tensor<string, []>("acoustic_broadcast_117_cast_fp16")];
            tensor<fp16, [1, 1, 1, 320]> input_291_cast_fp16 = add(x = acoustic_broadcast_117_cast_fp16, y = linguistic_broadcast_1_cast_fp16)[name = tensor<string, []>("input_291_cast_fp16")];
            tensor<fp16, [1, 1, 1, 320]> input_293_cast_fp16 = tanh(x = input_291_cast_fp16)[name = tensor<string, []>("input_293_cast_fp16")];
            tensor<fp16, [1, 1, 1, 1024]> linear_196_cast_fp16 = linear(bias = model_joiner_vocabulary_projection_bias_to_fp16, weight = model_joiner_vocabulary_projection_weight_to_fp16, x = input_293_cast_fp16)[name = tensor<string, []>("linear_196_cast_fp16")];
            tensor<int32, [3]> var_6794_begin_0 = const()[name = tensor<string, []>("op_6794_begin_0"), val = tensor<int32, [3]>([0, 59, 0])];
            tensor<int32, [3]> var_6794_end_0 = const()[name = tensor<string, []>("op_6794_end_0"), val = tensor<int32, [3]>([1, 60, 256])];
            tensor<bool, [3]> var_6794_end_mask_0 = const()[name = tensor<string, []>("op_6794_end_mask_0"), val = tensor<bool, [3]>([true, false, true])];
            tensor<fp16, [1, 1, 256]> var_6794_cast_fp16 = slice_by_index(begin = var_6794_begin_0, end = var_6794_end_0, end_mask = var_6794_end_mask_0, x = acoustic_encoded_cast_fp16)[name = tensor<string, []>("op_6794_cast_fp16")];
            tensor<fp16, [1, 1, 320]> linear_197_cast_fp16 = linear(bias = model_joiner_acoustic_projection_bias_to_fp16, weight = model_joiner_acoustic_projection_weight_to_fp16, x = var_6794_cast_fp16)[name = tensor<string, []>("linear_197_cast_fp16")];
            tensor<int32, [1]> acoustic_broadcast_119_axes_0 = const()[name = tensor<string, []>("acoustic_broadcast_119_axes_0"), val = tensor<int32, [1]>([2])];
            tensor<fp16, [1, 1, 1, 320]> acoustic_broadcast_119_cast_fp16 = expand_dims(axes = acoustic_broadcast_119_axes_0, x = linear_197_cast_fp16)[name = tensor<string, []>("acoustic_broadcast_119_cast_fp16")];
            tensor<fp16, [1, 1, 1, 320]> input_295_cast_fp16 = add(x = acoustic_broadcast_119_cast_fp16, y = linguistic_broadcast_1_cast_fp16)[name = tensor<string, []>("input_295_cast_fp16")];
            tensor<fp16, [1, 1, 1, 320]> input_297_cast_fp16 = tanh(x = input_295_cast_fp16)[name = tensor<string, []>("input_297_cast_fp16")];
            tensor<fp16, [1, 1, 1, 1024]> linear_199_cast_fp16 = linear(bias = model_joiner_vocabulary_projection_bias_to_fp16, weight = model_joiner_vocabulary_projection_weight_to_fp16, x = input_297_cast_fp16)[name = tensor<string, []>("linear_199_cast_fp16")];
            tensor<int32, [3]> var_6827_begin_0 = const()[name = tensor<string, []>("op_6827_begin_0"), val = tensor<int32, [3]>([0, 60, 0])];
            tensor<int32, [3]> var_6827_end_0 = const()[name = tensor<string, []>("op_6827_end_0"), val = tensor<int32, [3]>([1, 61, 256])];
            tensor<bool, [3]> var_6827_end_mask_0 = const()[name = tensor<string, []>("op_6827_end_mask_0"), val = tensor<bool, [3]>([true, false, true])];
            tensor<fp16, [1, 1, 256]> var_6827_cast_fp16 = slice_by_index(begin = var_6827_begin_0, end = var_6827_end_0, end_mask = var_6827_end_mask_0, x = acoustic_encoded_cast_fp16)[name = tensor<string, []>("op_6827_cast_fp16")];
            tensor<fp16, [1, 1, 320]> linear_200_cast_fp16 = linear(bias = model_joiner_acoustic_projection_bias_to_fp16, weight = model_joiner_acoustic_projection_weight_to_fp16, x = var_6827_cast_fp16)[name = tensor<string, []>("linear_200_cast_fp16")];
            tensor<int32, [1]> acoustic_broadcast_121_axes_0 = const()[name = tensor<string, []>("acoustic_broadcast_121_axes_0"), val = tensor<int32, [1]>([2])];
            tensor<fp16, [1, 1, 1, 320]> acoustic_broadcast_121_cast_fp16 = expand_dims(axes = acoustic_broadcast_121_axes_0, x = linear_200_cast_fp16)[name = tensor<string, []>("acoustic_broadcast_121_cast_fp16")];
            tensor<fp16, [1, 1, 1, 320]> input_299_cast_fp16 = add(x = acoustic_broadcast_121_cast_fp16, y = linguistic_broadcast_1_cast_fp16)[name = tensor<string, []>("input_299_cast_fp16")];
            tensor<fp16, [1, 1, 1, 320]> input_301_cast_fp16 = tanh(x = input_299_cast_fp16)[name = tensor<string, []>("input_301_cast_fp16")];
            tensor<fp16, [1, 1, 1, 1024]> linear_202_cast_fp16 = linear(bias = model_joiner_vocabulary_projection_bias_to_fp16, weight = model_joiner_vocabulary_projection_weight_to_fp16, x = input_301_cast_fp16)[name = tensor<string, []>("linear_202_cast_fp16")];
            tensor<int32, [3]> var_6860_begin_0 = const()[name = tensor<string, []>("op_6860_begin_0"), val = tensor<int32, [3]>([0, 61, 0])];
            tensor<int32, [3]> var_6860_end_0 = const()[name = tensor<string, []>("op_6860_end_0"), val = tensor<int32, [3]>([1, 62, 256])];
            tensor<bool, [3]> var_6860_end_mask_0 = const()[name = tensor<string, []>("op_6860_end_mask_0"), val = tensor<bool, [3]>([true, false, true])];
            tensor<fp16, [1, 1, 256]> var_6860_cast_fp16 = slice_by_index(begin = var_6860_begin_0, end = var_6860_end_0, end_mask = var_6860_end_mask_0, x = acoustic_encoded_cast_fp16)[name = tensor<string, []>("op_6860_cast_fp16")];
            tensor<fp16, [1, 1, 320]> linear_203_cast_fp16 = linear(bias = model_joiner_acoustic_projection_bias_to_fp16, weight = model_joiner_acoustic_projection_weight_to_fp16, x = var_6860_cast_fp16)[name = tensor<string, []>("linear_203_cast_fp16")];
            tensor<int32, [1]> acoustic_broadcast_123_axes_0 = const()[name = tensor<string, []>("acoustic_broadcast_123_axes_0"), val = tensor<int32, [1]>([2])];
            tensor<fp16, [1, 1, 1, 320]> acoustic_broadcast_123_cast_fp16 = expand_dims(axes = acoustic_broadcast_123_axes_0, x = linear_203_cast_fp16)[name = tensor<string, []>("acoustic_broadcast_123_cast_fp16")];
            tensor<fp16, [1, 1, 1, 320]> input_303_cast_fp16 = add(x = acoustic_broadcast_123_cast_fp16, y = linguistic_broadcast_1_cast_fp16)[name = tensor<string, []>("input_303_cast_fp16")];
            tensor<fp16, [1, 1, 1, 320]> input_305_cast_fp16 = tanh(x = input_303_cast_fp16)[name = tensor<string, []>("input_305_cast_fp16")];
            tensor<fp16, [1, 1, 1, 1024]> linear_205_cast_fp16 = linear(bias = model_joiner_vocabulary_projection_bias_to_fp16, weight = model_joiner_vocabulary_projection_weight_to_fp16, x = input_305_cast_fp16)[name = tensor<string, []>("linear_205_cast_fp16")];
            tensor<int32, [3]> var_6893_begin_0 = const()[name = tensor<string, []>("op_6893_begin_0"), val = tensor<int32, [3]>([0, 62, 0])];
            tensor<int32, [3]> var_6893_end_0 = const()[name = tensor<string, []>("op_6893_end_0"), val = tensor<int32, [3]>([1, 63, 256])];
            tensor<bool, [3]> var_6893_end_mask_0 = const()[name = tensor<string, []>("op_6893_end_mask_0"), val = tensor<bool, [3]>([true, false, true])];
            tensor<fp16, [1, 1, 256]> var_6893_cast_fp16 = slice_by_index(begin = var_6893_begin_0, end = var_6893_end_0, end_mask = var_6893_end_mask_0, x = acoustic_encoded_cast_fp16)[name = tensor<string, []>("op_6893_cast_fp16")];
            tensor<fp16, [1, 1, 320]> linear_206_cast_fp16 = linear(bias = model_joiner_acoustic_projection_bias_to_fp16, weight = model_joiner_acoustic_projection_weight_to_fp16, x = var_6893_cast_fp16)[name = tensor<string, []>("linear_206_cast_fp16")];
            tensor<int32, [1]> acoustic_broadcast_125_axes_0 = const()[name = tensor<string, []>("acoustic_broadcast_125_axes_0"), val = tensor<int32, [1]>([2])];
            tensor<fp16, [1, 1, 1, 320]> acoustic_broadcast_125_cast_fp16 = expand_dims(axes = acoustic_broadcast_125_axes_0, x = linear_206_cast_fp16)[name = tensor<string, []>("acoustic_broadcast_125_cast_fp16")];
            tensor<fp16, [1, 1, 1, 320]> input_307_cast_fp16 = add(x = acoustic_broadcast_125_cast_fp16, y = linguistic_broadcast_1_cast_fp16)[name = tensor<string, []>("input_307_cast_fp16")];
            tensor<fp16, [1, 1, 1, 320]> input_309_cast_fp16 = tanh(x = input_307_cast_fp16)[name = tensor<string, []>("input_309_cast_fp16")];
            tensor<fp16, [1, 1, 1, 1024]> linear_208_cast_fp16 = linear(bias = model_joiner_vocabulary_projection_bias_to_fp16, weight = model_joiner_vocabulary_projection_weight_to_fp16, x = input_309_cast_fp16)[name = tensor<string, []>("linear_208_cast_fp16")];
            tensor<int32, [3]> var_6926_begin_0 = const()[name = tensor<string, []>("op_6926_begin_0"), val = tensor<int32, [3]>([0, 63, 0])];
            tensor<int32, [3]> var_6926_end_0 = const()[name = tensor<string, []>("op_6926_end_0"), val = tensor<int32, [3]>([1, 1, 256])];
            tensor<bool, [3]> var_6926_end_mask_0 = const()[name = tensor<string, []>("op_6926_end_mask_0"), val = tensor<bool, [3]>([true, true, true])];
            tensor<fp16, [1, 1, 256]> var_6926_cast_fp16 = slice_by_index(begin = var_6926_begin_0, end = var_6926_end_0, end_mask = var_6926_end_mask_0, x = acoustic_encoded_cast_fp16)[name = tensor<string, []>("op_6926_cast_fp16")];
            tensor<fp16, [1, 1, 320]> linear_209_cast_fp16 = linear(bias = model_joiner_acoustic_projection_bias_to_fp16, weight = model_joiner_acoustic_projection_weight_to_fp16, x = var_6926_cast_fp16)[name = tensor<string, []>("linear_209_cast_fp16")];
            tensor<int32, [1]> acoustic_broadcast_axes_0 = const()[name = tensor<string, []>("acoustic_broadcast_axes_0"), val = tensor<int32, [1]>([2])];
            tensor<fp16, [1, 1, 1, 320]> acoustic_broadcast_cast_fp16 = expand_dims(axes = acoustic_broadcast_axes_0, x = linear_209_cast_fp16)[name = tensor<string, []>("acoustic_broadcast_cast_fp16")];
            tensor<fp16, [1, 1, 1, 320]> input_311_cast_fp16 = add(x = acoustic_broadcast_cast_fp16, y = linguistic_broadcast_1_cast_fp16)[name = tensor<string, []>("input_311_cast_fp16")];
            tensor<fp16, [1, 1, 1, 320]> input_cast_fp16 = tanh(x = input_311_cast_fp16)[name = tensor<string, []>("input_cast_fp16")];
            tensor<fp16, [1, 1, 1, 1024]> linear_211_cast_fp16 = linear(bias = model_joiner_vocabulary_projection_bias_to_fp16, weight = model_joiner_vocabulary_projection_weight_to_fp16, x = input_cast_fp16)[name = tensor<string, []>("linear_211_cast_fp16")];
            tensor<int32, []> var_6951 = const()[name = tensor<string, []>("op_6951"), val = tensor<int32, []>(1)];
            tensor<bool, []> var_6952_interleave_0 = const()[name = tensor<string, []>("op_6952_interleave_0"), val = tensor<bool, []>(false)];
            tensor<fp16, [1, 64, 1, 1024]> logits_time = concat(axis = var_6951, interleave = var_6952_interleave_0, values = (linear_22_cast_fp16, linear_25_cast_fp16, linear_28_cast_fp16, linear_31_cast_fp16, linear_34_cast_fp16, linear_37_cast_fp16, linear_40_cast_fp16, linear_43_cast_fp16, linear_46_cast_fp16, linear_49_cast_fp16, linear_52_cast_fp16, linear_55_cast_fp16, linear_58_cast_fp16, linear_61_cast_fp16, linear_64_cast_fp16, linear_67_cast_fp16, linear_70_cast_fp16, linear_73_cast_fp16, linear_76_cast_fp16, linear_79_cast_fp16, linear_82_cast_fp16, linear_85_cast_fp16, linear_88_cast_fp16, linear_91_cast_fp16, linear_94_cast_fp16, linear_97_cast_fp16, linear_100_cast_fp16, linear_103_cast_fp16, linear_106_cast_fp16, linear_109_cast_fp16, linear_112_cast_fp16, linear_115_cast_fp16, linear_118_cast_fp16, linear_121_cast_fp16, linear_124_cast_fp16, linear_127_cast_fp16, linear_130_cast_fp16, linear_133_cast_fp16, linear_136_cast_fp16, linear_139_cast_fp16, linear_142_cast_fp16, linear_145_cast_fp16, linear_148_cast_fp16, linear_151_cast_fp16, linear_154_cast_fp16, linear_157_cast_fp16, linear_160_cast_fp16, linear_163_cast_fp16, linear_166_cast_fp16, linear_169_cast_fp16, linear_172_cast_fp16, linear_175_cast_fp16, linear_178_cast_fp16, linear_181_cast_fp16, linear_184_cast_fp16, linear_187_cast_fp16, linear_190_cast_fp16, linear_193_cast_fp16, linear_196_cast_fp16, linear_199_cast_fp16, linear_202_cast_fp16, linear_205_cast_fp16, linear_208_cast_fp16, linear_211_cast_fp16))[name = tensor<string, []>("op_6952_cast_fp16")];
        } -> (logits_time, predictor_hidden_out);
}