program(1.0)
[buildInfo = dict<tensor<string, []>, tensor<string, []>>({{"coremlc-component-MIL", "3405.2.1"}, {"coremlc-version", "3404.23.1"}, {"coremltools-component-torch", "2.8.0"}, {"coremltools-source-dialect", "TorchScript"}, {"coremltools-version", "8.3.0"}})]
{
    func main<ios16>(tensor<fp16, [1, 256, 80]> audio_chunk, tensor<fp16, [1, 1, 256]> predictor_hidden_in, tensor<fp16, [1, 1]> token_in) {
            tensor<int32, [3]> input_1_perm_0 = const()[name = tensor<string, []>("input_1_perm_0"), val = tensor<int32, [3]>([0, 2, 1])];
            tensor<string, []> input_3_pad_type_0 = const()[name = tensor<string, []>("input_3_pad_type_0"), val = tensor<string, []>("custom")];
            tensor<int32, [2]> input_3_pad_0 = const()[name = tensor<string, []>("input_3_pad_0"), val = tensor<int32, [2]>([2, 2])];
            tensor<int32, [1]> input_3_strides_0 = const()[name = tensor<string, []>("input_3_strides_0"), val = tensor<int32, [1]>([2])];
            tensor<int32, [1]> input_3_dilations_0 = const()[name = tensor<string, []>("input_3_dilations_0"), val = tensor<int32, [1]>([1])];
            tensor<int32, []> input_3_groups_0 = const()[name = tensor<string, []>("input_3_groups_0"), val = tensor<int32, []>(1)];
            tensor<fp16, [256, 80, 5]> model_frontend_conv_network_0_weight_to_fp16 = const()[name = tensor<string, []>("model_frontend_conv_network_0_weight_to_fp16"), val = tensor<fp16, [256, 80, 5]>(BLOBFILE(path = tensor<string, []>("@model_path/weights/weight.bin"), offset = tensor<uint64, []>(64)))];
            tensor<fp16, [256]> model_frontend_conv_network_0_bias_to_fp16 = const()[name = tensor<string, []>("model_frontend_conv_network_0_bias_to_fp16"), val = tensor<fp16, [256]>(BLOBFILE(path = tensor<string, []>("@model_path/weights/weight.bin"), offset = tensor<uint64, []>(204928)))];
            tensor<fp16, [1, 80, 256]> input_1_cast_fp16 = transpose(perm = input_1_perm_0, x = audio_chunk)[name = tensor<string, []>("transpose_528")];
            tensor<fp16, [1, 256, 128]> input_3_cast_fp16 = conv(bias = model_frontend_conv_network_0_bias_to_fp16, dilations = input_3_dilations_0, groups = input_3_groups_0, pad = input_3_pad_0, pad_type = input_3_pad_type_0, strides = input_3_strides_0, weight = model_frontend_conv_network_0_weight_to_fp16, x = input_1_cast_fp16)[name = tensor<string, []>("input_3_cast_fp16")];
            tensor<string, []> input_5_mode_0 = const()[name = tensor<string, []>("input_5_mode_0"), val = tensor<string, []>("EXACT")];
            tensor<fp16, [1, 256, 128]> input_5_cast_fp16 = gelu(mode = input_5_mode_0, x = input_3_cast_fp16)[name = tensor<string, []>("input_5_cast_fp16")];
            tensor<string, []> input_7_pad_type_0 = const()[name = tensor<string, []>("input_7_pad_type_0"), val = tensor<string, []>("custom")];
            tensor<int32, [2]> input_7_pad_0 = const()[name = tensor<string, []>("input_7_pad_0"), val = tensor<int32, [2]>([2, 2])];
            tensor<int32, [1]> input_7_strides_0 = const()[name = tensor<string, []>("input_7_strides_0"), val = tensor<int32, [1]>([2])];
            tensor<int32, [1]> input_7_dilations_0 = const()[name = tensor<string, []>("input_7_dilations_0"), val = tensor<int32, [1]>([1])];
            tensor<int32, []> input_7_groups_0 = const()[name = tensor<string, []>("input_7_groups_0"), val = tensor<int32, []>(1)];
            tensor<fp16, [256, 256, 5]> model_frontend_conv_network_2_weight_to_fp16 = const()[name = tensor<string, []>("model_frontend_conv_network_2_weight_to_fp16"), val = tensor<fp16, [256, 256, 5]>(BLOBFILE(path = tensor<string, []>("@model_path/weights/weight.bin"), offset = tensor<uint64, []>(205504)))];
            tensor<fp16, [256]> model_frontend_conv_network_2_bias_to_fp16 = const()[name = tensor<string, []>("model_frontend_conv_network_2_bias_to_fp16"), val = tensor<fp16, [256]>(BLOBFILE(path = tensor<string, []>("@model_path/weights/weight.bin"), offset = tensor<uint64, []>(860928)))];
            tensor<fp16, [1, 256, 64]> input_7_cast_fp16 = conv(bias = model_frontend_conv_network_2_bias_to_fp16, dilations = input_7_dilations_0, groups = input_7_groups_0, pad = input_7_pad_0, pad_type = input_7_pad_type_0, strides = input_7_strides_0, weight = model_frontend_conv_network_2_weight_to_fp16, x = input_5_cast_fp16)[name = tensor<string, []>("input_7_cast_fp16")];
            tensor<string, []> input_9_mode_0 = const()[name = tensor<string, []>("input_9_mode_0"), val = tensor<string, []>("EXACT")];
            tensor<fp16, [1, 256, 64]> input_9_cast_fp16 = gelu(mode = input_9_mode_0, x = input_7_cast_fp16)[name = tensor<string, []>("input_9_cast_fp16")];
            tensor<string, []> input_11_pad_type_0 = const()[name = tensor<string, []>("input_11_pad_type_0"), val = tensor<string, []>("custom")];
            tensor<int32, [2]> input_11_pad_0 = const()[name = tensor<string, []>("input_11_pad_0"), val = tensor<int32, [2]>([1, 1])];
            tensor<int32, [1]> input_11_strides_0 = const()[name = tensor<string, []>("input_11_strides_0"), val = tensor<int32, [1]>([1])];
            tensor<int32, [1]> input_11_dilations_0 = const()[name = tensor<string, []>("input_11_dilations_0"), val = tensor<int32, [1]>([1])];
            tensor<int32, []> input_11_groups_0 = const()[name = tensor<string, []>("input_11_groups_0"), val = tensor<int32, []>(1)];
            tensor<fp16, [256, 256, 3]> model_frontend_conv_network_4_weight_to_fp16 = const()[name = tensor<string, []>("model_frontend_conv_network_4_weight_to_fp16"), val = tensor<fp16, [256, 256, 3]>(BLOBFILE(path = tensor<string, []>("@model_path/weights/weight.bin"), offset = tensor<uint64, []>(861504)))];
            tensor<fp16, [256]> model_frontend_conv_network_4_bias_to_fp16 = const()[name = tensor<string, []>("model_frontend_conv_network_4_bias_to_fp16"), val = tensor<fp16, [256]>(BLOBFILE(path = tensor<string, []>("@model_path/weights/weight.bin"), offset = tensor<uint64, []>(1254784)))];
            tensor<fp16, [1, 256, 64]> input_11_cast_fp16 = conv(bias = model_frontend_conv_network_4_bias_to_fp16, dilations = input_11_dilations_0, groups = input_11_groups_0, pad = input_11_pad_0, pad_type = input_11_pad_type_0, strides = input_11_strides_0, weight = model_frontend_conv_network_4_weight_to_fp16, x = input_9_cast_fp16)[name = tensor<string, []>("input_11_cast_fp16")];
            tensor<string, []> conv_output_mode_0 = const()[name = tensor<string, []>("conv_output_mode_0"), val = tensor<string, []>("EXACT")];
            tensor<fp16, [1, 256, 64]> conv_output_cast_fp16 = gelu(mode = conv_output_mode_0, x = input_11_cast_fp16)[name = tensor<string, []>("conv_output_cast_fp16")];
            tensor<int32, [3]> input_13_perm_0 = const()[name = tensor<string, []>("input_13_perm_0"), val = tensor<int32, [3]>([0, 2, 1])];
            tensor<int32, [1]> x_1_axes_0 = const()[name = tensor<string, []>("x_1_axes_0"), val = tensor<int32, [1]>([-1])];
            tensor<fp16, [256]> model_frontend_output_norm_weight_to_fp16 = const()[name = tensor<string, []>("model_frontend_output_norm_weight_to_fp16"), val = tensor<fp16, [256]>(BLOBFILE(path = tensor<string, []>("@model_path/weights/weight.bin"), offset = tensor<uint64, []>(1255360)))];
            tensor<fp16, [256]> model_frontend_output_norm_bias_to_fp16 = const()[name = tensor<string, []>("model_frontend_output_norm_bias_to_fp16"), val = tensor<fp16, [256]>(BLOBFILE(path = tensor<string, []>("@model_path/weights/weight.bin"), offset = tensor<uint64, []>(1255936)))];
            tensor<fp16, []> var_23_to_fp16 = const()[name = tensor<string, []>("op_23_to_fp16"), val = tensor<fp16, []>(0x1.5p-17)];
            tensor<fp16, [1, 64, 256]> input_13_cast_fp16 = transpose(perm = input_13_perm_0, x = conv_output_cast_fp16)[name = tensor<string, []>("transpose_527")];
            tensor<fp16, [1, 64, 256]> x_1_cast_fp16 = layer_norm(axes = x_1_axes_0, beta = model_frontend_output_norm_bias_to_fp16, epsilon = var_23_to_fp16, gamma = model_frontend_output_norm_weight_to_fp16, x = input_13_cast_fp16)[name = tensor<string, []>("x_1_cast_fp16")];
            tensor<fp32, []> var_77 = const()[name = tensor<string, []>("op_77"), val = tensor<fp32, []>(0x1.2a05f2p+33)];
            tensor<fp16, [256, 256]> model_encoder_blocks_0_in_proj_weight_to_fp16 = const()[name = tensor<string, []>("model_encoder_blocks_0_in_proj_weight_to_fp16"), val = tensor<fp16, [256, 256]>(BLOBFILE(path = tensor<string, []>("@model_path/weights/weight.bin"), offset = tensor<uint64, []>(1256512)))];
            tensor<fp16, [256]> model_encoder_blocks_0_in_proj_bias_to_fp16 = const()[name = tensor<string, []>("model_encoder_blocks_0_in_proj_bias_to_fp16"), val = tensor<fp16, [256]>(BLOBFILE(path = tensor<string, []>("@model_path/weights/weight.bin"), offset = tensor<uint64, []>(1387648)))];
            tensor<fp16, [1, 64, 256]> linear_0_cast_fp16 = linear(bias = model_encoder_blocks_0_in_proj_bias_to_fp16, weight = model_encoder_blocks_0_in_proj_weight_to_fp16, x = x_1_cast_fp16)[name = tensor<string, []>("linear_0_cast_fp16")];
            tensor<fp16, [256, 256]> model_encoder_blocks_0_z_proj_weight_to_fp16 = const()[name = tensor<string, []>("model_encoder_blocks_0_z_proj_weight_to_fp16"), val = tensor<fp16, [256, 256]>(BLOBFILE(path = tensor<string, []>("@model_path/weights/weight.bin"), offset = tensor<uint64, []>(1388224)))];
            tensor<fp16, [256]> model_encoder_blocks_0_z_proj_bias_to_fp16 = const()[name = tensor<string, []>("model_encoder_blocks_0_z_proj_bias_to_fp16"), val = tensor<fp16, [256]>(BLOBFILE(path = tensor<string, []>("@model_path/weights/weight.bin"), offset = tensor<uint64, []>(1519360)))];
            tensor<fp16, [1, 64, 256]> linear_1_cast_fp16 = linear(bias = model_encoder_blocks_0_z_proj_bias_to_fp16, weight = model_encoder_blocks_0_z_proj_weight_to_fp16, x = x_1_cast_fp16)[name = tensor<string, []>("linear_1_cast_fp16")];
            tensor<int32, [3]> input_15_perm_0 = const()[name = tensor<string, []>("input_15_perm_0"), val = tensor<int32, [3]>([0, 2, 1])];
            tensor<string, []> var_174_pad_type_0 = const()[name = tensor<string, []>("op_174_pad_type_0"), val = tensor<string, []>("valid")];
            tensor<int32, [1]> var_174_strides_0 = const()[name = tensor<string, []>("op_174_strides_0"), val = tensor<int32, [1]>([1])];
            tensor<int32, [2]> var_174_pad_0 = const()[name = tensor<string, []>("op_174_pad_0"), val = tensor<int32, [2]>([0, 0])];
            tensor<int32, [1]> var_174_dilations_0 = const()[name = tensor<string, []>("op_174_dilations_0"), val = tensor<int32, [1]>([1])];
            tensor<int32, []> var_174_groups_0 = const()[name = tensor<string, []>("op_174_groups_0"), val = tensor<int32, []>(1)];
            tensor<fp16, [16, 256, 1]> model_encoder_blocks_0_B_conv_weight_to_fp16 = const()[name = tensor<string, []>("model_encoder_blocks_0_B_conv_weight_to_fp16"), val = tensor<fp16, [16, 256, 1]>(BLOBFILE(path = tensor<string, []>("@model_path/weights/weight.bin"), offset = tensor<uint64, []>(1519936)))];
            tensor<fp16, [16]> model_encoder_blocks_0_B_conv_bias_to_fp16 = const()[name = tensor<string, []>("model_encoder_blocks_0_B_conv_bias_to_fp16"), val = tensor<fp16, [16]>(BLOBFILE(path = tensor<string, []>("@model_path/weights/weight.bin"), offset = tensor<uint64, []>(1528192)))];
            tensor<fp16, [1, 256, 64]> input_15_cast_fp16 = transpose(perm = input_15_perm_0, x = linear_0_cast_fp16)[name = tensor<string, []>("transpose_526")];
            tensor<fp16, [1, 16, 64]> var_174_cast_fp16 = conv(bias = model_encoder_blocks_0_B_conv_bias_to_fp16, dilations = var_174_dilations_0, groups = var_174_groups_0, pad = var_174_pad_0, pad_type = var_174_pad_type_0, strides = var_174_strides_0, weight = model_encoder_blocks_0_B_conv_weight_to_fp16, x = input_15_cast_fp16)[name = tensor<string, []>("op_174_cast_fp16")];
            tensor<int32, [3]> B_proj_1_perm_0 = const()[name = tensor<string, []>("B_proj_1_perm_0"), val = tensor<int32, [3]>([0, 2, 1])];
            tensor<string, []> var_182_pad_type_0 = const()[name = tensor<string, []>("op_182_pad_type_0"), val = tensor<string, []>("valid")];
            tensor<int32, [1]> var_182_strides_0 = const()[name = tensor<string, []>("op_182_strides_0"), val = tensor<int32, [1]>([1])];
            tensor<int32, [2]> var_182_pad_0 = const()[name = tensor<string, []>("op_182_pad_0"), val = tensor<int32, [2]>([0, 0])];
            tensor<int32, [1]> var_182_dilations_0 = const()[name = tensor<string, []>("op_182_dilations_0"), val = tensor<int32, [1]>([1])];
            tensor<int32, []> var_182_groups_0 = const()[name = tensor<string, []>("op_182_groups_0"), val = tensor<int32, []>(1)];
            tensor<fp16, [16, 256, 1]> model_encoder_blocks_0_C_conv_weight_to_fp16 = const()[name = tensor<string, []>("model_encoder_blocks_0_C_conv_weight_to_fp16"), val = tensor<fp16, [16, 256, 1]>(BLOBFILE(path = tensor<string, []>("@model_path/weights/weight.bin"), offset = tensor<uint64, []>(1528320)))];
            tensor<fp16, [16]> model_encoder_blocks_0_C_conv_bias_to_fp16 = const()[name = tensor<string, []>("model_encoder_blocks_0_C_conv_bias_to_fp16"), val = tensor<fp16, [16]>(BLOBFILE(path = tensor<string, []>("@model_path/weights/weight.bin"), offset = tensor<uint64, []>(1536576)))];
            tensor<fp16, [1, 16, 64]> var_182_cast_fp16 = conv(bias = model_encoder_blocks_0_C_conv_bias_to_fp16, dilations = var_182_dilations_0, groups = var_182_groups_0, pad = var_182_pad_0, pad_type = var_182_pad_type_0, strides = var_182_strides_0, weight = model_encoder_blocks_0_C_conv_weight_to_fp16, x = input_15_cast_fp16)[name = tensor<string, []>("op_182_cast_fp16")];
            tensor<int32, [3]> C_proj_1_perm_0 = const()[name = tensor<string, []>("C_proj_1_perm_0"), val = tensor<int32, [3]>([0, 2, 1])];
            tensor<fp16, [1, 64, 256]> delta_positive_1_cast_fp16 = softplus(x = linear_0_cast_fp16)[name = tensor<string, []>("delta_positive_1_cast_fp16")];
            tensor<fp16, []> var_76_to_fp16 = const()[name = tensor<string, []>("op_76_to_fp16"), val = tensor<fp16, []>(0x1p-24)];
            tensor<fp16, []> const_2_to_fp16 = const()[name = tensor<string, []>("const_2_to_fp16"), val = tensor<fp16, []>(inf)];
            tensor<fp16, [1, 64, 256]> clip_0_cast_fp16 = clip(alpha = var_76_to_fp16, beta = const_2_to_fp16, x = delta_positive_1_cast_fp16)[name = tensor<string, []>("clip_0_cast_fp16")];
            tensor<int32, [1]> var_189_axes_0 = const()[name = tensor<string, []>("op_189_axes_0"), val = tensor<int32, [1]>([-1])];
            tensor<fp16, [1, 64, 256, 1]> var_189_cast_fp16 = expand_dims(axes = var_189_axes_0, x = clip_0_cast_fp16)[name = tensor<string, []>("op_189_cast_fp16")];
            tensor<fp16, [1, 1, 256, 16]> var_193_to_fp16 = const()[name = tensor<string, []>("op_193_to_fp16"), val = tensor<fp16, [1, 1, 256, 16]>(BLOBFILE(path = tensor<string, []>("@model_path/weights/weight.bin"), offset = tensor<uint64, []>(1536704)))];
            tensor<fp16, [1, 64, 256, 16]> var_194_cast_fp16 = mul(x = var_189_cast_fp16, y = var_193_to_fp16)[name = tensor<string, []>("op_194_cast_fp16")];
            tensor<fp16, [1, 64, 256, 16]> delta_A_1_cast_fp16 = exp(x = var_194_cast_fp16)[name = tensor<string, []>("delta_A_1_cast_fp16")];
            tensor<string, []> delta_A_1_cast_fp16_to_fp32_dtype_0 = const()[name = tensor<string, []>("delta_A_1_cast_fp16_to_fp32_dtype_0"), val = tensor<string, []>("fp32")];
            tensor<fp32, []> const_5 = const()[name = tensor<string, []>("const_5"), val = tensor<fp32, []>(-0x1.fffffep+127)];
            tensor<fp32, [1, 64, 256, 16]> delta_A_1_cast_fp16_to_fp32 = cast(dtype = delta_A_1_cast_fp16_to_fp32_dtype_0, x = delta_A_1_cast_fp16)[name = tensor<string, []>("cast_30")];
            tensor<fp32, [1, 64, 256, 16]> clip_1 = clip(alpha = const_5, beta = var_77, x = delta_A_1_cast_fp16_to_fp32)[name = tensor<string, []>("clip_1")];
            tensor<fp16, [1, 64, 256]> delta_u_1_cast_fp16 = mul(x = clip_0_cast_fp16, y = linear_0_cast_fp16)[name = tensor<string, []>("delta_u_1_cast_fp16")];
            tensor<int32, [1]> delta_u_scalar_1_axes_0 = const()[name = tensor<string, []>("delta_u_scalar_1_axes_0"), val = tensor<int32, [1]>([2])];
            tensor<bool, []> delta_u_scalar_1_keep_dims_0 = const()[name = tensor<string, []>("delta_u_scalar_1_keep_dims_0"), val = tensor<bool, []>(true)];
            tensor<fp16, [1, 64, 1]> delta_u_scalar_1_cast_fp16 = reduce_mean(axes = delta_u_scalar_1_axes_0, keep_dims = delta_u_scalar_1_keep_dims_0, x = delta_u_1_cast_fp16)[name = tensor<string, []>("delta_u_scalar_1_cast_fp16")];
            tensor<int32, [1]> var_200_axes_0 = const()[name = tensor<string, []>("op_200_axes_0"), val = tensor<int32, [1]>([-1])];
            tensor<fp16, [1, 64, 1, 1]> var_200_cast_fp16 = expand_dims(axes = var_200_axes_0, x = delta_u_scalar_1_cast_fp16)[name = tensor<string, []>("op_200_cast_fp16")];
            tensor<int32, [1]> var_201_axes_0 = const()[name = tensor<string, []>("op_201_axes_0"), val = tensor<int32, [1]>([2])];
            tensor<fp16, [1, 64, 16]> B_proj_1_cast_fp16 = transpose(perm = B_proj_1_perm_0, x = var_174_cast_fp16)[name = tensor<string, []>("transpose_525")];
            tensor<fp16, [1, 64, 1, 16]> var_201_cast_fp16 = expand_dims(axes = var_201_axes_0, x = B_proj_1_cast_fp16)[name = tensor<string, []>("op_201_cast_fp16")];
            tensor<fp16, [1, 64, 1, 16]> delta_B_u_1_cast_fp16 = mul(x = var_200_cast_fp16, y = var_201_cast_fp16)[name = tensor<string, []>("delta_B_u_1_cast_fp16")];
            tensor<int32, [4]> var_205_begin_0 = const()[name = tensor<string, []>("op_205_begin_0"), val = tensor<int32, [4]>([0, 0, 0, 0])];
            tensor<int32, [4]> var_205_end_0 = const()[name = tensor<string, []>("op_205_end_0"), val = tensor<int32, [4]>([1, 1, 256, 16])];
            tensor<bool, [4]> var_205_end_mask_0 = const()[name = tensor<string, []>("op_205_end_mask_0"), val = tensor<bool, [4]>([true, false, true, true])];
            tensor<bool, [4]> var_205_squeeze_mask_0 = const()[name = tensor<string, []>("op_205_squeeze_mask_0"), val = tensor<bool, [4]>([false, true, false, false])];
            tensor<string, []> clip_1_to_fp16_dtype_0 = const()[name = tensor<string, []>("clip_1_to_fp16_dtype_0"), val = tensor<string, []>("fp16")];
            tensor<fp16, [1, 64, 256, 16]> clip_1_to_fp16 = cast(dtype = clip_1_to_fp16_dtype_0, x = clip_1)[name = tensor<string, []>("cast_29")];
            tensor<fp16, [1, 256, 16]> var_205_cast_fp16 = slice_by_index(begin = var_205_begin_0, end = var_205_end_0, end_mask = var_205_end_mask_0, squeeze_mask = var_205_squeeze_mask_0, x = clip_1_to_fp16)[name = tensor<string, []>("op_205_cast_fp16")];
            tensor<fp16, [1, 256, 16]> h0_1_to_fp16 = const()[name = tensor<string, []>("h0_1_to_fp16"), val = tensor<fp16, [1, 256, 16]>(BLOBFILE(path = tensor<string, []>("@model_path/weights/weight.bin"), offset = tensor<uint64, []>(1544960)))];
            tensor<fp16, [1, 256, 16]> var_206_cast_fp16 = mul(x = var_205_cast_fp16, y = h0_1_to_fp16)[name = tensor<string, []>("op_206_cast_fp16")];
            tensor<int32, [4]> var_208_begin_0 = const()[name = tensor<string, []>("op_208_begin_0"), val = tensor<int32, [4]>([0, 0, 0, 0])];
            tensor<int32, [4]> var_208_end_0 = const()[name = tensor<string, []>("op_208_end_0"), val = tensor<int32, [4]>([1, 1, 1, 16])];
            tensor<bool, [4]> var_208_end_mask_0 = const()[name = tensor<string, []>("op_208_end_mask_0"), val = tensor<bool, [4]>([true, false, true, true])];
            tensor<bool, [4]> var_208_squeeze_mask_0 = const()[name = tensor<string, []>("op_208_squeeze_mask_0"), val = tensor<bool, [4]>([false, true, false, false])];
            tensor<fp16, [1, 1, 16]> var_208_cast_fp16 = slice_by_index(begin = var_208_begin_0, end = var_208_end_0, end_mask = var_208_end_mask_0, squeeze_mask = var_208_squeeze_mask_0, x = delta_B_u_1_cast_fp16)[name = tensor<string, []>("op_208_cast_fp16")];
            tensor<fp16, [1, 256, 16]> hidden_state_3_cast_fp16 = add(x = var_206_cast_fp16, y = var_208_cast_fp16)[name = tensor<string, []>("hidden_state_3_cast_fp16")];
            tensor<int32, [3]> var_211_begin_0 = const()[name = tensor<string, []>("op_211_begin_0"), val = tensor<int32, [3]>([0, 0, 0])];
            tensor<int32, [3]> var_211_end_0 = const()[name = tensor<string, []>("op_211_end_0"), val = tensor<int32, [3]>([1, 1, 16])];
            tensor<bool, [3]> var_211_end_mask_0 = const()[name = tensor<string, []>("op_211_end_mask_0"), val = tensor<bool, [3]>([true, false, true])];
            tensor<bool, [3]> var_211_squeeze_mask_0 = const()[name = tensor<string, []>("op_211_squeeze_mask_0"), val = tensor<bool, [3]>([false, true, false])];
            tensor<fp16, [1, 64, 16]> C_proj_1_cast_fp16 = transpose(perm = C_proj_1_perm_0, x = var_182_cast_fp16)[name = tensor<string, []>("transpose_524")];
            tensor<fp16, [1, 16]> var_211_cast_fp16 = slice_by_index(begin = var_211_begin_0, end = var_211_end_0, end_mask = var_211_end_mask_0, squeeze_mask = var_211_squeeze_mask_0, x = C_proj_1_cast_fp16)[name = tensor<string, []>("op_211_cast_fp16")];
            tensor<int32, [3]> concat_4 = const()[name = tensor<string, []>("concat_4"), val = tensor<int32, [3]>([1, 16, 1])];
            tensor<fp16, [1, 16, 1]> reshape_1_cast_fp16 = reshape(shape = concat_4, x = var_211_cast_fp16)[name = tensor<string, []>("reshape_1_cast_fp16")];
            tensor<bool, []> matmul_0_transpose_x_0 = const()[name = tensor<string, []>("matmul_0_transpose_x_0"), val = tensor<bool, []>(false)];
            tensor<bool, []> matmul_0_transpose_y_0 = const()[name = tensor<string, []>("matmul_0_transpose_y_0"), val = tensor<bool, []>(false)];
            tensor<fp16, [1, 256, 1]> matmul_0_cast_fp16 = matmul(transpose_x = matmul_0_transpose_x_0, transpose_y = matmul_0_transpose_y_0, x = hidden_state_3_cast_fp16, y = reshape_1_cast_fp16)[name = tensor<string, []>("matmul_0_cast_fp16")];
            tensor<int32, [2]> concat_7 = const()[name = tensor<string, []>("concat_7"), val = tensor<int32, [2]>([1, 256])];
            tensor<fp16, [1, 256]> reshape_2_cast_fp16 = reshape(shape = concat_7, x = matmul_0_cast_fp16)[name = tensor<string, []>("reshape_2_cast_fp16")];
            tensor<int32, [4]> var_216_begin_0 = const()[name = tensor<string, []>("op_216_begin_0"), val = tensor<int32, [4]>([0, 1, 0, 0])];
            tensor<int32, [4]> var_216_end_0 = const()[name = tensor<string, []>("op_216_end_0"), val = tensor<int32, [4]>([1, 2, 256, 16])];
            tensor<bool, [4]> var_216_end_mask_0 = const()[name = tensor<string, []>("op_216_end_mask_0"), val = tensor<bool, [4]>([true, false, true, true])];
            tensor<bool, [4]> var_216_squeeze_mask_0 = const()[name = tensor<string, []>("op_216_squeeze_mask_0"), val = tensor<bool, [4]>([false, true, false, false])];
            tensor<fp16, [1, 256, 16]> var_216_cast_fp16 = slice_by_index(begin = var_216_begin_0, end = var_216_end_0, end_mask = var_216_end_mask_0, squeeze_mask = var_216_squeeze_mask_0, x = clip_1_to_fp16)[name = tensor<string, []>("op_216_cast_fp16")];
            tensor<fp16, [1, 256, 16]> var_217_cast_fp16 = mul(x = var_216_cast_fp16, y = hidden_state_3_cast_fp16)[name = tensor<string, []>("op_217_cast_fp16")];
            tensor<int32, [4]> var_219_begin_0 = const()[name = tensor<string, []>("op_219_begin_0"), val = tensor<int32, [4]>([0, 1, 0, 0])];
            tensor<int32, [4]> var_219_end_0 = const()[name = tensor<string, []>("op_219_end_0"), val = tensor<int32, [4]>([1, 2, 1, 16])];
            tensor<bool, [4]> var_219_end_mask_0 = const()[name = tensor<string, []>("op_219_end_mask_0"), val = tensor<bool, [4]>([true, false, true, true])];
            tensor<bool, [4]> var_219_squeeze_mask_0 = const()[name = tensor<string, []>("op_219_squeeze_mask_0"), val = tensor<bool, [4]>([false, true, false, false])];
            tensor<fp16, [1, 1, 16]> var_219_cast_fp16 = slice_by_index(begin = var_219_begin_0, end = var_219_end_0, end_mask = var_219_end_mask_0, squeeze_mask = var_219_squeeze_mask_0, x = delta_B_u_1_cast_fp16)[name = tensor<string, []>("op_219_cast_fp16")];
            tensor<fp16, [1, 256, 16]> hidden_state_5_cast_fp16 = add(x = var_217_cast_fp16, y = var_219_cast_fp16)[name = tensor<string, []>("hidden_state_5_cast_fp16")];
            tensor<int32, [3]> var_222_begin_0 = const()[name = tensor<string, []>("op_222_begin_0"), val = tensor<int32, [3]>([0, 1, 0])];
            tensor<int32, [3]> var_222_end_0 = const()[name = tensor<string, []>("op_222_end_0"), val = tensor<int32, [3]>([1, 2, 16])];
            tensor<bool, [3]> var_222_end_mask_0 = const()[name = tensor<string, []>("op_222_end_mask_0"), val = tensor<bool, [3]>([true, false, true])];
            tensor<bool, [3]> var_222_squeeze_mask_0 = const()[name = tensor<string, []>("op_222_squeeze_mask_0"), val = tensor<bool, [3]>([false, true, false])];
            tensor<fp16, [1, 16]> var_222_cast_fp16 = slice_by_index(begin = var_222_begin_0, end = var_222_end_0, end_mask = var_222_end_mask_0, squeeze_mask = var_222_squeeze_mask_0, x = C_proj_1_cast_fp16)[name = tensor<string, []>("op_222_cast_fp16")];
            tensor<int32, [3]> concat_12 = const()[name = tensor<string, []>("concat_12"), val = tensor<int32, [3]>([1, 16, 1])];
            tensor<fp16, [1, 16, 1]> reshape_4_cast_fp16 = reshape(shape = concat_12, x = var_222_cast_fp16)[name = tensor<string, []>("reshape_4_cast_fp16")];
            tensor<bool, []> matmul_1_transpose_x_0 = const()[name = tensor<string, []>("matmul_1_transpose_x_0"), val = tensor<bool, []>(false)];
            tensor<bool, []> matmul_1_transpose_y_0 = const()[name = tensor<string, []>("matmul_1_transpose_y_0"), val = tensor<bool, []>(false)];
            tensor<fp16, [1, 256, 1]> matmul_1_cast_fp16 = matmul(transpose_x = matmul_1_transpose_x_0, transpose_y = matmul_1_transpose_y_0, x = hidden_state_5_cast_fp16, y = reshape_4_cast_fp16)[name = tensor<string, []>("matmul_1_cast_fp16")];
            tensor<int32, [2]> concat_15 = const()[name = tensor<string, []>("concat_15"), val = tensor<int32, [2]>([1, 256])];
            tensor<fp16, [1, 256]> reshape_5_cast_fp16 = reshape(shape = concat_15, x = matmul_1_cast_fp16)[name = tensor<string, []>("reshape_5_cast_fp16")];
            tensor<int32, [4]> var_227_begin_0 = const()[name = tensor<string, []>("op_227_begin_0"), val = tensor<int32, [4]>([0, 2, 0, 0])];
            tensor<int32, [4]> var_227_end_0 = const()[name = tensor<string, []>("op_227_end_0"), val = tensor<int32, [4]>([1, 3, 256, 16])];
            tensor<bool, [4]> var_227_end_mask_0 = const()[name = tensor<string, []>("op_227_end_mask_0"), val = tensor<bool, [4]>([true, false, true, true])];
            tensor<bool, [4]> var_227_squeeze_mask_0 = const()[name = tensor<string, []>("op_227_squeeze_mask_0"), val = tensor<bool, [4]>([false, true, false, false])];
            tensor<fp16, [1, 256, 16]> var_227_cast_fp16 = slice_by_index(begin = var_227_begin_0, end = var_227_end_0, end_mask = var_227_end_mask_0, squeeze_mask = var_227_squeeze_mask_0, x = clip_1_to_fp16)[name = tensor<string, []>("op_227_cast_fp16")];
            tensor<fp16, [1, 256, 16]> var_228_cast_fp16 = mul(x = var_227_cast_fp16, y = hidden_state_5_cast_fp16)[name = tensor<string, []>("op_228_cast_fp16")];
            tensor<int32, [4]> var_230_begin_0 = const()[name = tensor<string, []>("op_230_begin_0"), val = tensor<int32, [4]>([0, 2, 0, 0])];
            tensor<int32, [4]> var_230_end_0 = const()[name = tensor<string, []>("op_230_end_0"), val = tensor<int32, [4]>([1, 3, 1, 16])];
            tensor<bool, [4]> var_230_end_mask_0 = const()[name = tensor<string, []>("op_230_end_mask_0"), val = tensor<bool, [4]>([true, false, true, true])];
            tensor<bool, [4]> var_230_squeeze_mask_0 = const()[name = tensor<string, []>("op_230_squeeze_mask_0"), val = tensor<bool, [4]>([false, true, false, false])];
            tensor<fp16, [1, 1, 16]> var_230_cast_fp16 = slice_by_index(begin = var_230_begin_0, end = var_230_end_0, end_mask = var_230_end_mask_0, squeeze_mask = var_230_squeeze_mask_0, x = delta_B_u_1_cast_fp16)[name = tensor<string, []>("op_230_cast_fp16")];
            tensor<fp16, [1, 256, 16]> hidden_state_7_cast_fp16 = add(x = var_228_cast_fp16, y = var_230_cast_fp16)[name = tensor<string, []>("hidden_state_7_cast_fp16")];
            tensor<int32, [3]> var_233_begin_0 = const()[name = tensor<string, []>("op_233_begin_0"), val = tensor<int32, [3]>([0, 2, 0])];
            tensor<int32, [3]> var_233_end_0 = const()[name = tensor<string, []>("op_233_end_0"), val = tensor<int32, [3]>([1, 3, 16])];
            tensor<bool, [3]> var_233_end_mask_0 = const()[name = tensor<string, []>("op_233_end_mask_0"), val = tensor<bool, [3]>([true, false, true])];
            tensor<bool, [3]> var_233_squeeze_mask_0 = const()[name = tensor<string, []>("op_233_squeeze_mask_0"), val = tensor<bool, [3]>([false, true, false])];
            tensor<fp16, [1, 16]> var_233_cast_fp16 = slice_by_index(begin = var_233_begin_0, end = var_233_end_0, end_mask = var_233_end_mask_0, squeeze_mask = var_233_squeeze_mask_0, x = C_proj_1_cast_fp16)[name = tensor<string, []>("op_233_cast_fp16")];
            tensor<int32, [3]> concat_20 = const()[name = tensor<string, []>("concat_20"), val = tensor<int32, [3]>([1, 16, 1])];
            tensor<fp16, [1, 16, 1]> reshape_7_cast_fp16 = reshape(shape = concat_20, x = var_233_cast_fp16)[name = tensor<string, []>("reshape_7_cast_fp16")];
            tensor<bool, []> matmul_2_transpose_x_0 = const()[name = tensor<string, []>("matmul_2_transpose_x_0"), val = tensor<bool, []>(false)];
            tensor<bool, []> matmul_2_transpose_y_0 = const()[name = tensor<string, []>("matmul_2_transpose_y_0"), val = tensor<bool, []>(false)];
            tensor<fp16, [1, 256, 1]> matmul_2_cast_fp16 = matmul(transpose_x = matmul_2_transpose_x_0, transpose_y = matmul_2_transpose_y_0, x = hidden_state_7_cast_fp16, y = reshape_7_cast_fp16)[name = tensor<string, []>("matmul_2_cast_fp16")];
            tensor<int32, [2]> concat_23 = const()[name = tensor<string, []>("concat_23"), val = tensor<int32, [2]>([1, 256])];
            tensor<fp16, [1, 256]> reshape_8_cast_fp16 = reshape(shape = concat_23, x = matmul_2_cast_fp16)[name = tensor<string, []>("reshape_8_cast_fp16")];
            tensor<int32, [4]> var_238_begin_0 = const()[name = tensor<string, []>("op_238_begin_0"), val = tensor<int32, [4]>([0, 3, 0, 0])];
            tensor<int32, [4]> var_238_end_0 = const()[name = tensor<string, []>("op_238_end_0"), val = tensor<int32, [4]>([1, 4, 256, 16])];
            tensor<bool, [4]> var_238_end_mask_0 = const()[name = tensor<string, []>("op_238_end_mask_0"), val = tensor<bool, [4]>([true, false, true, true])];
            tensor<bool, [4]> var_238_squeeze_mask_0 = const()[name = tensor<string, []>("op_238_squeeze_mask_0"), val = tensor<bool, [4]>([false, true, false, false])];
            tensor<fp16, [1, 256, 16]> var_238_cast_fp16 = slice_by_index(begin = var_238_begin_0, end = var_238_end_0, end_mask = var_238_end_mask_0, squeeze_mask = var_238_squeeze_mask_0, x = clip_1_to_fp16)[name = tensor<string, []>("op_238_cast_fp16")];
            tensor<fp16, [1, 256, 16]> var_239_cast_fp16 = mul(x = var_238_cast_fp16, y = hidden_state_7_cast_fp16)[name = tensor<string, []>("op_239_cast_fp16")];
            tensor<int32, [4]> var_241_begin_0 = const()[name = tensor<string, []>("op_241_begin_0"), val = tensor<int32, [4]>([0, 3, 0, 0])];
            tensor<int32, [4]> var_241_end_0 = const()[name = tensor<string, []>("op_241_end_0"), val = tensor<int32, [4]>([1, 4, 1, 16])];
            tensor<bool, [4]> var_241_end_mask_0 = const()[name = tensor<string, []>("op_241_end_mask_0"), val = tensor<bool, [4]>([true, false, true, true])];
            tensor<bool, [4]> var_241_squeeze_mask_0 = const()[name = tensor<string, []>("op_241_squeeze_mask_0"), val = tensor<bool, [4]>([false, true, false, false])];
            tensor<fp16, [1, 1, 16]> var_241_cast_fp16 = slice_by_index(begin = var_241_begin_0, end = var_241_end_0, end_mask = var_241_end_mask_0, squeeze_mask = var_241_squeeze_mask_0, x = delta_B_u_1_cast_fp16)[name = tensor<string, []>("op_241_cast_fp16")];
            tensor<fp16, [1, 256, 16]> hidden_state_9_cast_fp16 = add(x = var_239_cast_fp16, y = var_241_cast_fp16)[name = tensor<string, []>("hidden_state_9_cast_fp16")];
            tensor<int32, [3]> var_244_begin_0 = const()[name = tensor<string, []>("op_244_begin_0"), val = tensor<int32, [3]>([0, 3, 0])];
            tensor<int32, [3]> var_244_end_0 = const()[name = tensor<string, []>("op_244_end_0"), val = tensor<int32, [3]>([1, 4, 16])];
            tensor<bool, [3]> var_244_end_mask_0 = const()[name = tensor<string, []>("op_244_end_mask_0"), val = tensor<bool, [3]>([true, false, true])];
            tensor<bool, [3]> var_244_squeeze_mask_0 = const()[name = tensor<string, []>("op_244_squeeze_mask_0"), val = tensor<bool, [3]>([false, true, false])];
            tensor<fp16, [1, 16]> var_244_cast_fp16 = slice_by_index(begin = var_244_begin_0, end = var_244_end_0, end_mask = var_244_end_mask_0, squeeze_mask = var_244_squeeze_mask_0, x = C_proj_1_cast_fp16)[name = tensor<string, []>("op_244_cast_fp16")];
            tensor<int32, [3]> concat_28 = const()[name = tensor<string, []>("concat_28"), val = tensor<int32, [3]>([1, 16, 1])];
            tensor<fp16, [1, 16, 1]> reshape_10_cast_fp16 = reshape(shape = concat_28, x = var_244_cast_fp16)[name = tensor<string, []>("reshape_10_cast_fp16")];
            tensor<bool, []> matmul_3_transpose_x_0 = const()[name = tensor<string, []>("matmul_3_transpose_x_0"), val = tensor<bool, []>(false)];
            tensor<bool, []> matmul_3_transpose_y_0 = const()[name = tensor<string, []>("matmul_3_transpose_y_0"), val = tensor<bool, []>(false)];
            tensor<fp16, [1, 256, 1]> matmul_3_cast_fp16 = matmul(transpose_x = matmul_3_transpose_x_0, transpose_y = matmul_3_transpose_y_0, x = hidden_state_9_cast_fp16, y = reshape_10_cast_fp16)[name = tensor<string, []>("matmul_3_cast_fp16")];
            tensor<int32, [2]> concat_31 = const()[name = tensor<string, []>("concat_31"), val = tensor<int32, [2]>([1, 256])];
            tensor<fp16, [1, 256]> reshape_11_cast_fp16 = reshape(shape = concat_31, x = matmul_3_cast_fp16)[name = tensor<string, []>("reshape_11_cast_fp16")];
            tensor<int32, [4]> var_249_begin_0 = const()[name = tensor<string, []>("op_249_begin_0"), val = tensor<int32, [4]>([0, 4, 0, 0])];
            tensor<int32, [4]> var_249_end_0 = const()[name = tensor<string, []>("op_249_end_0"), val = tensor<int32, [4]>([1, 5, 256, 16])];
            tensor<bool, [4]> var_249_end_mask_0 = const()[name = tensor<string, []>("op_249_end_mask_0"), val = tensor<bool, [4]>([true, false, true, true])];
            tensor<bool, [4]> var_249_squeeze_mask_0 = const()[name = tensor<string, []>("op_249_squeeze_mask_0"), val = tensor<bool, [4]>([false, true, false, false])];
            tensor<fp16, [1, 256, 16]> var_249_cast_fp16 = slice_by_index(begin = var_249_begin_0, end = var_249_end_0, end_mask = var_249_end_mask_0, squeeze_mask = var_249_squeeze_mask_0, x = clip_1_to_fp16)[name = tensor<string, []>("op_249_cast_fp16")];
            tensor<fp16, [1, 256, 16]> var_250_cast_fp16 = mul(x = var_249_cast_fp16, y = hidden_state_9_cast_fp16)[name = tensor<string, []>("op_250_cast_fp16")];
            tensor<int32, [4]> var_252_begin_0 = const()[name = tensor<string, []>("op_252_begin_0"), val = tensor<int32, [4]>([0, 4, 0, 0])];
            tensor<int32, [4]> var_252_end_0 = const()[name = tensor<string, []>("op_252_end_0"), val = tensor<int32, [4]>([1, 5, 1, 16])];
            tensor<bool, [4]> var_252_end_mask_0 = const()[name = tensor<string, []>("op_252_end_mask_0"), val = tensor<bool, [4]>([true, false, true, true])];
            tensor<bool, [4]> var_252_squeeze_mask_0 = const()[name = tensor<string, []>("op_252_squeeze_mask_0"), val = tensor<bool, [4]>([false, true, false, false])];
            tensor<fp16, [1, 1, 16]> var_252_cast_fp16 = slice_by_index(begin = var_252_begin_0, end = var_252_end_0, end_mask = var_252_end_mask_0, squeeze_mask = var_252_squeeze_mask_0, x = delta_B_u_1_cast_fp16)[name = tensor<string, []>("op_252_cast_fp16")];
            tensor<fp16, [1, 256, 16]> hidden_state_11_cast_fp16 = add(x = var_250_cast_fp16, y = var_252_cast_fp16)[name = tensor<string, []>("hidden_state_11_cast_fp16")];
            tensor<int32, [3]> var_255_begin_0 = const()[name = tensor<string, []>("op_255_begin_0"), val = tensor<int32, [3]>([0, 4, 0])];
            tensor<int32, [3]> var_255_end_0 = const()[name = tensor<string, []>("op_255_end_0"), val = tensor<int32, [3]>([1, 5, 16])];
            tensor<bool, [3]> var_255_end_mask_0 = const()[name = tensor<string, []>("op_255_end_mask_0"), val = tensor<bool, [3]>([true, false, true])];
            tensor<bool, [3]> var_255_squeeze_mask_0 = const()[name = tensor<string, []>("op_255_squeeze_mask_0"), val = tensor<bool, [3]>([false, true, false])];
            tensor<fp16, [1, 16]> var_255_cast_fp16 = slice_by_index(begin = var_255_begin_0, end = var_255_end_0, end_mask = var_255_end_mask_0, squeeze_mask = var_255_squeeze_mask_0, x = C_proj_1_cast_fp16)[name = tensor<string, []>("op_255_cast_fp16")];
            tensor<int32, [3]> concat_36 = const()[name = tensor<string, []>("concat_36"), val = tensor<int32, [3]>([1, 16, 1])];
            tensor<fp16, [1, 16, 1]> reshape_13_cast_fp16 = reshape(shape = concat_36, x = var_255_cast_fp16)[name = tensor<string, []>("reshape_13_cast_fp16")];
            tensor<bool, []> matmul_4_transpose_x_0 = const()[name = tensor<string, []>("matmul_4_transpose_x_0"), val = tensor<bool, []>(false)];
            tensor<bool, []> matmul_4_transpose_y_0 = const()[name = tensor<string, []>("matmul_4_transpose_y_0"), val = tensor<bool, []>(false)];
            tensor<fp16, [1, 256, 1]> matmul_4_cast_fp16 = matmul(transpose_x = matmul_4_transpose_x_0, transpose_y = matmul_4_transpose_y_0, x = hidden_state_11_cast_fp16, y = reshape_13_cast_fp16)[name = tensor<string, []>("matmul_4_cast_fp16")];
            tensor<int32, [2]> concat_39 = const()[name = tensor<string, []>("concat_39"), val = tensor<int32, [2]>([1, 256])];
            tensor<fp16, [1, 256]> reshape_14_cast_fp16 = reshape(shape = concat_39, x = matmul_4_cast_fp16)[name = tensor<string, []>("reshape_14_cast_fp16")];
            tensor<int32, [4]> var_260_begin_0 = const()[name = tensor<string, []>("op_260_begin_0"), val = tensor<int32, [4]>([0, 5, 0, 0])];
            tensor<int32, [4]> var_260_end_0 = const()[name = tensor<string, []>("op_260_end_0"), val = tensor<int32, [4]>([1, 6, 256, 16])];
            tensor<bool, [4]> var_260_end_mask_0 = const()[name = tensor<string, []>("op_260_end_mask_0"), val = tensor<bool, [4]>([true, false, true, true])];
            tensor<bool, [4]> var_260_squeeze_mask_0 = const()[name = tensor<string, []>("op_260_squeeze_mask_0"), val = tensor<bool, [4]>([false, true, false, false])];
            tensor<fp16, [1, 256, 16]> var_260_cast_fp16 = slice_by_index(begin = var_260_begin_0, end = var_260_end_0, end_mask = var_260_end_mask_0, squeeze_mask = var_260_squeeze_mask_0, x = clip_1_to_fp16)[name = tensor<string, []>("op_260_cast_fp16")];
            tensor<fp16, [1, 256, 16]> var_261_cast_fp16 = mul(x = var_260_cast_fp16, y = hidden_state_11_cast_fp16)[name = tensor<string, []>("op_261_cast_fp16")];
            tensor<int32, [4]> var_263_begin_0 = const()[name = tensor<string, []>("op_263_begin_0"), val = tensor<int32, [4]>([0, 5, 0, 0])];
            tensor<int32, [4]> var_263_end_0 = const()[name = tensor<string, []>("op_263_end_0"), val = tensor<int32, [4]>([1, 6, 1, 16])];
            tensor<bool, [4]> var_263_end_mask_0 = const()[name = tensor<string, []>("op_263_end_mask_0"), val = tensor<bool, [4]>([true, false, true, true])];
            tensor<bool, [4]> var_263_squeeze_mask_0 = const()[name = tensor<string, []>("op_263_squeeze_mask_0"), val = tensor<bool, [4]>([false, true, false, false])];
            tensor<fp16, [1, 1, 16]> var_263_cast_fp16 = slice_by_index(begin = var_263_begin_0, end = var_263_end_0, end_mask = var_263_end_mask_0, squeeze_mask = var_263_squeeze_mask_0, x = delta_B_u_1_cast_fp16)[name = tensor<string, []>("op_263_cast_fp16")];
            tensor<fp16, [1, 256, 16]> hidden_state_13_cast_fp16 = add(x = var_261_cast_fp16, y = var_263_cast_fp16)[name = tensor<string, []>("hidden_state_13_cast_fp16")];
            tensor<int32, [3]> var_266_begin_0 = const()[name = tensor<string, []>("op_266_begin_0"), val = tensor<int32, [3]>([0, 5, 0])];
            tensor<int32, [3]> var_266_end_0 = const()[name = tensor<string, []>("op_266_end_0"), val = tensor<int32, [3]>([1, 6, 16])];
            tensor<bool, [3]> var_266_end_mask_0 = const()[name = tensor<string, []>("op_266_end_mask_0"), val = tensor<bool, [3]>([true, false, true])];
            tensor<bool, [3]> var_266_squeeze_mask_0 = const()[name = tensor<string, []>("op_266_squeeze_mask_0"), val = tensor<bool, [3]>([false, true, false])];
            tensor<fp16, [1, 16]> var_266_cast_fp16 = slice_by_index(begin = var_266_begin_0, end = var_266_end_0, end_mask = var_266_end_mask_0, squeeze_mask = var_266_squeeze_mask_0, x = C_proj_1_cast_fp16)[name = tensor<string, []>("op_266_cast_fp16")];
            tensor<int32, [3]> concat_44 = const()[name = tensor<string, []>("concat_44"), val = tensor<int32, [3]>([1, 16, 1])];
            tensor<fp16, [1, 16, 1]> reshape_16_cast_fp16 = reshape(shape = concat_44, x = var_266_cast_fp16)[name = tensor<string, []>("reshape_16_cast_fp16")];
            tensor<bool, []> matmul_5_transpose_x_0 = const()[name = tensor<string, []>("matmul_5_transpose_x_0"), val = tensor<bool, []>(false)];
            tensor<bool, []> matmul_5_transpose_y_0 = const()[name = tensor<string, []>("matmul_5_transpose_y_0"), val = tensor<bool, []>(false)];
            tensor<fp16, [1, 256, 1]> matmul_5_cast_fp16 = matmul(transpose_x = matmul_5_transpose_x_0, transpose_y = matmul_5_transpose_y_0, x = hidden_state_13_cast_fp16, y = reshape_16_cast_fp16)[name = tensor<string, []>("matmul_5_cast_fp16")];
            tensor<int32, [2]> concat_47 = const()[name = tensor<string, []>("concat_47"), val = tensor<int32, [2]>([1, 256])];
            tensor<fp16, [1, 256]> reshape_17_cast_fp16 = reshape(shape = concat_47, x = matmul_5_cast_fp16)[name = tensor<string, []>("reshape_17_cast_fp16")];
            tensor<int32, [4]> var_271_begin_0 = const()[name = tensor<string, []>("op_271_begin_0"), val = tensor<int32, [4]>([0, 6, 0, 0])];
            tensor<int32, [4]> var_271_end_0 = const()[name = tensor<string, []>("op_271_end_0"), val = tensor<int32, [4]>([1, 7, 256, 16])];
            tensor<bool, [4]> var_271_end_mask_0 = const()[name = tensor<string, []>("op_271_end_mask_0"), val = tensor<bool, [4]>([true, false, true, true])];
            tensor<bool, [4]> var_271_squeeze_mask_0 = const()[name = tensor<string, []>("op_271_squeeze_mask_0"), val = tensor<bool, [4]>([false, true, false, false])];
            tensor<fp16, [1, 256, 16]> var_271_cast_fp16 = slice_by_index(begin = var_271_begin_0, end = var_271_end_0, end_mask = var_271_end_mask_0, squeeze_mask = var_271_squeeze_mask_0, x = clip_1_to_fp16)[name = tensor<string, []>("op_271_cast_fp16")];
            tensor<fp16, [1, 256, 16]> var_272_cast_fp16 = mul(x = var_271_cast_fp16, y = hidden_state_13_cast_fp16)[name = tensor<string, []>("op_272_cast_fp16")];
            tensor<int32, [4]> var_274_begin_0 = const()[name = tensor<string, []>("op_274_begin_0"), val = tensor<int32, [4]>([0, 6, 0, 0])];
            tensor<int32, [4]> var_274_end_0 = const()[name = tensor<string, []>("op_274_end_0"), val = tensor<int32, [4]>([1, 7, 1, 16])];
            tensor<bool, [4]> var_274_end_mask_0 = const()[name = tensor<string, []>("op_274_end_mask_0"), val = tensor<bool, [4]>([true, false, true, true])];
            tensor<bool, [4]> var_274_squeeze_mask_0 = const()[name = tensor<string, []>("op_274_squeeze_mask_0"), val = tensor<bool, [4]>([false, true, false, false])];
            tensor<fp16, [1, 1, 16]> var_274_cast_fp16 = slice_by_index(begin = var_274_begin_0, end = var_274_end_0, end_mask = var_274_end_mask_0, squeeze_mask = var_274_squeeze_mask_0, x = delta_B_u_1_cast_fp16)[name = tensor<string, []>("op_274_cast_fp16")];
            tensor<fp16, [1, 256, 16]> hidden_state_15_cast_fp16 = add(x = var_272_cast_fp16, y = var_274_cast_fp16)[name = tensor<string, []>("hidden_state_15_cast_fp16")];
            tensor<int32, [3]> var_277_begin_0 = const()[name = tensor<string, []>("op_277_begin_0"), val = tensor<int32, [3]>([0, 6, 0])];
            tensor<int32, [3]> var_277_end_0 = const()[name = tensor<string, []>("op_277_end_0"), val = tensor<int32, [3]>([1, 7, 16])];
            tensor<bool, [3]> var_277_end_mask_0 = const()[name = tensor<string, []>("op_277_end_mask_0"), val = tensor<bool, [3]>([true, false, true])];
            tensor<bool, [3]> var_277_squeeze_mask_0 = const()[name = tensor<string, []>("op_277_squeeze_mask_0"), val = tensor<bool, [3]>([false, true, false])];
            tensor<fp16, [1, 16]> var_277_cast_fp16 = slice_by_index(begin = var_277_begin_0, end = var_277_end_0, end_mask = var_277_end_mask_0, squeeze_mask = var_277_squeeze_mask_0, x = C_proj_1_cast_fp16)[name = tensor<string, []>("op_277_cast_fp16")];
            tensor<int32, [3]> concat_52 = const()[name = tensor<string, []>("concat_52"), val = tensor<int32, [3]>([1, 16, 1])];
            tensor<fp16, [1, 16, 1]> reshape_19_cast_fp16 = reshape(shape = concat_52, x = var_277_cast_fp16)[name = tensor<string, []>("reshape_19_cast_fp16")];
            tensor<bool, []> matmul_6_transpose_x_0 = const()[name = tensor<string, []>("matmul_6_transpose_x_0"), val = tensor<bool, []>(false)];
            tensor<bool, []> matmul_6_transpose_y_0 = const()[name = tensor<string, []>("matmul_6_transpose_y_0"), val = tensor<bool, []>(false)];
            tensor<fp16, [1, 256, 1]> matmul_6_cast_fp16 = matmul(transpose_x = matmul_6_transpose_x_0, transpose_y = matmul_6_transpose_y_0, x = hidden_state_15_cast_fp16, y = reshape_19_cast_fp16)[name = tensor<string, []>("matmul_6_cast_fp16")];
            tensor<int32, [2]> concat_55 = const()[name = tensor<string, []>("concat_55"), val = tensor<int32, [2]>([1, 256])];
            tensor<fp16, [1, 256]> reshape_20_cast_fp16 = reshape(shape = concat_55, x = matmul_6_cast_fp16)[name = tensor<string, []>("reshape_20_cast_fp16")];
            tensor<int32, [4]> var_282_begin_0 = const()[name = tensor<string, []>("op_282_begin_0"), val = tensor<int32, [4]>([0, 7, 0, 0])];
            tensor<int32, [4]> var_282_end_0 = const()[name = tensor<string, []>("op_282_end_0"), val = tensor<int32, [4]>([1, 8, 256, 16])];
            tensor<bool, [4]> var_282_end_mask_0 = const()[name = tensor<string, []>("op_282_end_mask_0"), val = tensor<bool, [4]>([true, false, true, true])];
            tensor<bool, [4]> var_282_squeeze_mask_0 = const()[name = tensor<string, []>("op_282_squeeze_mask_0"), val = tensor<bool, [4]>([false, true, false, false])];
            tensor<fp16, [1, 256, 16]> var_282_cast_fp16 = slice_by_index(begin = var_282_begin_0, end = var_282_end_0, end_mask = var_282_end_mask_0, squeeze_mask = var_282_squeeze_mask_0, x = clip_1_to_fp16)[name = tensor<string, []>("op_282_cast_fp16")];
            tensor<fp16, [1, 256, 16]> var_283_cast_fp16 = mul(x = var_282_cast_fp16, y = hidden_state_15_cast_fp16)[name = tensor<string, []>("op_283_cast_fp16")];
            tensor<int32, [4]> var_285_begin_0 = const()[name = tensor<string, []>("op_285_begin_0"), val = tensor<int32, [4]>([0, 7, 0, 0])];
            tensor<int32, [4]> var_285_end_0 = const()[name = tensor<string, []>("op_285_end_0"), val = tensor<int32, [4]>([1, 8, 1, 16])];
            tensor<bool, [4]> var_285_end_mask_0 = const()[name = tensor<string, []>("op_285_end_mask_0"), val = tensor<bool, [4]>([true, false, true, true])];
            tensor<bool, [4]> var_285_squeeze_mask_0 = const()[name = tensor<string, []>("op_285_squeeze_mask_0"), val = tensor<bool, [4]>([false, true, false, false])];
            tensor<fp16, [1, 1, 16]> var_285_cast_fp16 = slice_by_index(begin = var_285_begin_0, end = var_285_end_0, end_mask = var_285_end_mask_0, squeeze_mask = var_285_squeeze_mask_0, x = delta_B_u_1_cast_fp16)[name = tensor<string, []>("op_285_cast_fp16")];
            tensor<fp16, [1, 256, 16]> hidden_state_17_cast_fp16 = add(x = var_283_cast_fp16, y = var_285_cast_fp16)[name = tensor<string, []>("hidden_state_17_cast_fp16")];
            tensor<int32, [3]> var_288_begin_0 = const()[name = tensor<string, []>("op_288_begin_0"), val = tensor<int32, [3]>([0, 7, 0])];
            tensor<int32, [3]> var_288_end_0 = const()[name = tensor<string, []>("op_288_end_0"), val = tensor<int32, [3]>([1, 8, 16])];
            tensor<bool, [3]> var_288_end_mask_0 = const()[name = tensor<string, []>("op_288_end_mask_0"), val = tensor<bool, [3]>([true, false, true])];
            tensor<bool, [3]> var_288_squeeze_mask_0 = const()[name = tensor<string, []>("op_288_squeeze_mask_0"), val = tensor<bool, [3]>([false, true, false])];
            tensor<fp16, [1, 16]> var_288_cast_fp16 = slice_by_index(begin = var_288_begin_0, end = var_288_end_0, end_mask = var_288_end_mask_0, squeeze_mask = var_288_squeeze_mask_0, x = C_proj_1_cast_fp16)[name = tensor<string, []>("op_288_cast_fp16")];
            tensor<int32, [3]> concat_60 = const()[name = tensor<string, []>("concat_60"), val = tensor<int32, [3]>([1, 16, 1])];
            tensor<fp16, [1, 16, 1]> reshape_22_cast_fp16 = reshape(shape = concat_60, x = var_288_cast_fp16)[name = tensor<string, []>("reshape_22_cast_fp16")];
            tensor<bool, []> matmul_7_transpose_x_0 = const()[name = tensor<string, []>("matmul_7_transpose_x_0"), val = tensor<bool, []>(false)];
            tensor<bool, []> matmul_7_transpose_y_0 = const()[name = tensor<string, []>("matmul_7_transpose_y_0"), val = tensor<bool, []>(false)];
            tensor<fp16, [1, 256, 1]> matmul_7_cast_fp16 = matmul(transpose_x = matmul_7_transpose_x_0, transpose_y = matmul_7_transpose_y_0, x = hidden_state_17_cast_fp16, y = reshape_22_cast_fp16)[name = tensor<string, []>("matmul_7_cast_fp16")];
            tensor<int32, [2]> concat_63 = const()[name = tensor<string, []>("concat_63"), val = tensor<int32, [2]>([1, 256])];
            tensor<fp16, [1, 256]> reshape_23_cast_fp16 = reshape(shape = concat_63, x = matmul_7_cast_fp16)[name = tensor<string, []>("reshape_23_cast_fp16")];
            tensor<int32, [4]> var_293_begin_0 = const()[name = tensor<string, []>("op_293_begin_0"), val = tensor<int32, [4]>([0, 8, 0, 0])];
            tensor<int32, [4]> var_293_end_0 = const()[name = tensor<string, []>("op_293_end_0"), val = tensor<int32, [4]>([1, 9, 256, 16])];
            tensor<bool, [4]> var_293_end_mask_0 = const()[name = tensor<string, []>("op_293_end_mask_0"), val = tensor<bool, [4]>([true, false, true, true])];
            tensor<bool, [4]> var_293_squeeze_mask_0 = const()[name = tensor<string, []>("op_293_squeeze_mask_0"), val = tensor<bool, [4]>([false, true, false, false])];
            tensor<fp16, [1, 256, 16]> var_293_cast_fp16 = slice_by_index(begin = var_293_begin_0, end = var_293_end_0, end_mask = var_293_end_mask_0, squeeze_mask = var_293_squeeze_mask_0, x = clip_1_to_fp16)[name = tensor<string, []>("op_293_cast_fp16")];
            tensor<fp16, [1, 256, 16]> var_294_cast_fp16 = mul(x = var_293_cast_fp16, y = hidden_state_17_cast_fp16)[name = tensor<string, []>("op_294_cast_fp16")];
            tensor<int32, [4]> var_296_begin_0 = const()[name = tensor<string, []>("op_296_begin_0"), val = tensor<int32, [4]>([0, 8, 0, 0])];
            tensor<int32, [4]> var_296_end_0 = const()[name = tensor<string, []>("op_296_end_0"), val = tensor<int32, [4]>([1, 9, 1, 16])];
            tensor<bool, [4]> var_296_end_mask_0 = const()[name = tensor<string, []>("op_296_end_mask_0"), val = tensor<bool, [4]>([true, false, true, true])];
            tensor<bool, [4]> var_296_squeeze_mask_0 = const()[name = tensor<string, []>("op_296_squeeze_mask_0"), val = tensor<bool, [4]>([false, true, false, false])];
            tensor<fp16, [1, 1, 16]> var_296_cast_fp16 = slice_by_index(begin = var_296_begin_0, end = var_296_end_0, end_mask = var_296_end_mask_0, squeeze_mask = var_296_squeeze_mask_0, x = delta_B_u_1_cast_fp16)[name = tensor<string, []>("op_296_cast_fp16")];
            tensor<fp16, [1, 256, 16]> hidden_state_19_cast_fp16 = add(x = var_294_cast_fp16, y = var_296_cast_fp16)[name = tensor<string, []>("hidden_state_19_cast_fp16")];
            tensor<int32, [3]> var_299_begin_0 = const()[name = tensor<string, []>("op_299_begin_0"), val = tensor<int32, [3]>([0, 8, 0])];
            tensor<int32, [3]> var_299_end_0 = const()[name = tensor<string, []>("op_299_end_0"), val = tensor<int32, [3]>([1, 9, 16])];
            tensor<bool, [3]> var_299_end_mask_0 = const()[name = tensor<string, []>("op_299_end_mask_0"), val = tensor<bool, [3]>([true, false, true])];
            tensor<bool, [3]> var_299_squeeze_mask_0 = const()[name = tensor<string, []>("op_299_squeeze_mask_0"), val = tensor<bool, [3]>([false, true, false])];
            tensor<fp16, [1, 16]> var_299_cast_fp16 = slice_by_index(begin = var_299_begin_0, end = var_299_end_0, end_mask = var_299_end_mask_0, squeeze_mask = var_299_squeeze_mask_0, x = C_proj_1_cast_fp16)[name = tensor<string, []>("op_299_cast_fp16")];
            tensor<int32, [3]> concat_68 = const()[name = tensor<string, []>("concat_68"), val = tensor<int32, [3]>([1, 16, 1])];
            tensor<fp16, [1, 16, 1]> reshape_25_cast_fp16 = reshape(shape = concat_68, x = var_299_cast_fp16)[name = tensor<string, []>("reshape_25_cast_fp16")];
            tensor<bool, []> matmul_8_transpose_x_0 = const()[name = tensor<string, []>("matmul_8_transpose_x_0"), val = tensor<bool, []>(false)];
            tensor<bool, []> matmul_8_transpose_y_0 = const()[name = tensor<string, []>("matmul_8_transpose_y_0"), val = tensor<bool, []>(false)];
            tensor<fp16, [1, 256, 1]> matmul_8_cast_fp16 = matmul(transpose_x = matmul_8_transpose_x_0, transpose_y = matmul_8_transpose_y_0, x = hidden_state_19_cast_fp16, y = reshape_25_cast_fp16)[name = tensor<string, []>("matmul_8_cast_fp16")];
            tensor<int32, [2]> concat_71 = const()[name = tensor<string, []>("concat_71"), val = tensor<int32, [2]>([1, 256])];
            tensor<fp16, [1, 256]> reshape_26_cast_fp16 = reshape(shape = concat_71, x = matmul_8_cast_fp16)[name = tensor<string, []>("reshape_26_cast_fp16")];
            tensor<int32, [4]> var_304_begin_0 = const()[name = tensor<string, []>("op_304_begin_0"), val = tensor<int32, [4]>([0, 9, 0, 0])];
            tensor<int32, [4]> var_304_end_0 = const()[name = tensor<string, []>("op_304_end_0"), val = tensor<int32, [4]>([1, 10, 256, 16])];
            tensor<bool, [4]> var_304_end_mask_0 = const()[name = tensor<string, []>("op_304_end_mask_0"), val = tensor<bool, [4]>([true, false, true, true])];
            tensor<bool, [4]> var_304_squeeze_mask_0 = const()[name = tensor<string, []>("op_304_squeeze_mask_0"), val = tensor<bool, [4]>([false, true, false, false])];
            tensor<fp16, [1, 256, 16]> var_304_cast_fp16 = slice_by_index(begin = var_304_begin_0, end = var_304_end_0, end_mask = var_304_end_mask_0, squeeze_mask = var_304_squeeze_mask_0, x = clip_1_to_fp16)[name = tensor<string, []>("op_304_cast_fp16")];
            tensor<fp16, [1, 256, 16]> var_305_cast_fp16 = mul(x = var_304_cast_fp16, y = hidden_state_19_cast_fp16)[name = tensor<string, []>("op_305_cast_fp16")];
            tensor<int32, [4]> var_307_begin_0 = const()[name = tensor<string, []>("op_307_begin_0"), val = tensor<int32, [4]>([0, 9, 0, 0])];
            tensor<int32, [4]> var_307_end_0 = const()[name = tensor<string, []>("op_307_end_0"), val = tensor<int32, [4]>([1, 10, 1, 16])];
            tensor<bool, [4]> var_307_end_mask_0 = const()[name = tensor<string, []>("op_307_end_mask_0"), val = tensor<bool, [4]>([true, false, true, true])];
            tensor<bool, [4]> var_307_squeeze_mask_0 = const()[name = tensor<string, []>("op_307_squeeze_mask_0"), val = tensor<bool, [4]>([false, true, false, false])];
            tensor<fp16, [1, 1, 16]> var_307_cast_fp16 = slice_by_index(begin = var_307_begin_0, end = var_307_end_0, end_mask = var_307_end_mask_0, squeeze_mask = var_307_squeeze_mask_0, x = delta_B_u_1_cast_fp16)[name = tensor<string, []>("op_307_cast_fp16")];
            tensor<fp16, [1, 256, 16]> hidden_state_21_cast_fp16 = add(x = var_305_cast_fp16, y = var_307_cast_fp16)[name = tensor<string, []>("hidden_state_21_cast_fp16")];
            tensor<int32, [3]> var_310_begin_0 = const()[name = tensor<string, []>("op_310_begin_0"), val = tensor<int32, [3]>([0, 9, 0])];
            tensor<int32, [3]> var_310_end_0 = const()[name = tensor<string, []>("op_310_end_0"), val = tensor<int32, [3]>([1, 10, 16])];
            tensor<bool, [3]> var_310_end_mask_0 = const()[name = tensor<string, []>("op_310_end_mask_0"), val = tensor<bool, [3]>([true, false, true])];
            tensor<bool, [3]> var_310_squeeze_mask_0 = const()[name = tensor<string, []>("op_310_squeeze_mask_0"), val = tensor<bool, [3]>([false, true, false])];
            tensor<fp16, [1, 16]> var_310_cast_fp16 = slice_by_index(begin = var_310_begin_0, end = var_310_end_0, end_mask = var_310_end_mask_0, squeeze_mask = var_310_squeeze_mask_0, x = C_proj_1_cast_fp16)[name = tensor<string, []>("op_310_cast_fp16")];
            tensor<int32, [3]> concat_76 = const()[name = tensor<string, []>("concat_76"), val = tensor<int32, [3]>([1, 16, 1])];
            tensor<fp16, [1, 16, 1]> reshape_28_cast_fp16 = reshape(shape = concat_76, x = var_310_cast_fp16)[name = tensor<string, []>("reshape_28_cast_fp16")];
            tensor<bool, []> matmul_9_transpose_x_0 = const()[name = tensor<string, []>("matmul_9_transpose_x_0"), val = tensor<bool, []>(false)];
            tensor<bool, []> matmul_9_transpose_y_0 = const()[name = tensor<string, []>("matmul_9_transpose_y_0"), val = tensor<bool, []>(false)];
            tensor<fp16, [1, 256, 1]> matmul_9_cast_fp16 = matmul(transpose_x = matmul_9_transpose_x_0, transpose_y = matmul_9_transpose_y_0, x = hidden_state_21_cast_fp16, y = reshape_28_cast_fp16)[name = tensor<string, []>("matmul_9_cast_fp16")];
            tensor<int32, [2]> concat_79 = const()[name = tensor<string, []>("concat_79"), val = tensor<int32, [2]>([1, 256])];
            tensor<fp16, [1, 256]> reshape_29_cast_fp16 = reshape(shape = concat_79, x = matmul_9_cast_fp16)[name = tensor<string, []>("reshape_29_cast_fp16")];
            tensor<int32, [4]> var_315_begin_0 = const()[name = tensor<string, []>("op_315_begin_0"), val = tensor<int32, [4]>([0, 10, 0, 0])];
            tensor<int32, [4]> var_315_end_0 = const()[name = tensor<string, []>("op_315_end_0"), val = tensor<int32, [4]>([1, 11, 256, 16])];
            tensor<bool, [4]> var_315_end_mask_0 = const()[name = tensor<string, []>("op_315_end_mask_0"), val = tensor<bool, [4]>([true, false, true, true])];
            tensor<bool, [4]> var_315_squeeze_mask_0 = const()[name = tensor<string, []>("op_315_squeeze_mask_0"), val = tensor<bool, [4]>([false, true, false, false])];
            tensor<fp16, [1, 256, 16]> var_315_cast_fp16 = slice_by_index(begin = var_315_begin_0, end = var_315_end_0, end_mask = var_315_end_mask_0, squeeze_mask = var_315_squeeze_mask_0, x = clip_1_to_fp16)[name = tensor<string, []>("op_315_cast_fp16")];
            tensor<fp16, [1, 256, 16]> var_316_cast_fp16 = mul(x = var_315_cast_fp16, y = hidden_state_21_cast_fp16)[name = tensor<string, []>("op_316_cast_fp16")];
            tensor<int32, [4]> var_318_begin_0 = const()[name = tensor<string, []>("op_318_begin_0"), val = tensor<int32, [4]>([0, 10, 0, 0])];
            tensor<int32, [4]> var_318_end_0 = const()[name = tensor<string, []>("op_318_end_0"), val = tensor<int32, [4]>([1, 11, 1, 16])];
            tensor<bool, [4]> var_318_end_mask_0 = const()[name = tensor<string, []>("op_318_end_mask_0"), val = tensor<bool, [4]>([true, false, true, true])];
            tensor<bool, [4]> var_318_squeeze_mask_0 = const()[name = tensor<string, []>("op_318_squeeze_mask_0"), val = tensor<bool, [4]>([false, true, false, false])];
            tensor<fp16, [1, 1, 16]> var_318_cast_fp16 = slice_by_index(begin = var_318_begin_0, end = var_318_end_0, end_mask = var_318_end_mask_0, squeeze_mask = var_318_squeeze_mask_0, x = delta_B_u_1_cast_fp16)[name = tensor<string, []>("op_318_cast_fp16")];
            tensor<fp16, [1, 256, 16]> hidden_state_23_cast_fp16 = add(x = var_316_cast_fp16, y = var_318_cast_fp16)[name = tensor<string, []>("hidden_state_23_cast_fp16")];
            tensor<int32, [3]> var_321_begin_0 = const()[name = tensor<string, []>("op_321_begin_0"), val = tensor<int32, [3]>([0, 10, 0])];
            tensor<int32, [3]> var_321_end_0 = const()[name = tensor<string, []>("op_321_end_0"), val = tensor<int32, [3]>([1, 11, 16])];
            tensor<bool, [3]> var_321_end_mask_0 = const()[name = tensor<string, []>("op_321_end_mask_0"), val = tensor<bool, [3]>([true, false, true])];
            tensor<bool, [3]> var_321_squeeze_mask_0 = const()[name = tensor<string, []>("op_321_squeeze_mask_0"), val = tensor<bool, [3]>([false, true, false])];
            tensor<fp16, [1, 16]> var_321_cast_fp16 = slice_by_index(begin = var_321_begin_0, end = var_321_end_0, end_mask = var_321_end_mask_0, squeeze_mask = var_321_squeeze_mask_0, x = C_proj_1_cast_fp16)[name = tensor<string, []>("op_321_cast_fp16")];
            tensor<int32, [3]> concat_84 = const()[name = tensor<string, []>("concat_84"), val = tensor<int32, [3]>([1, 16, 1])];
            tensor<fp16, [1, 16, 1]> reshape_31_cast_fp16 = reshape(shape = concat_84, x = var_321_cast_fp16)[name = tensor<string, []>("reshape_31_cast_fp16")];
            tensor<bool, []> matmul_10_transpose_x_0 = const()[name = tensor<string, []>("matmul_10_transpose_x_0"), val = tensor<bool, []>(false)];
            tensor<bool, []> matmul_10_transpose_y_0 = const()[name = tensor<string, []>("matmul_10_transpose_y_0"), val = tensor<bool, []>(false)];
            tensor<fp16, [1, 256, 1]> matmul_10_cast_fp16 = matmul(transpose_x = matmul_10_transpose_x_0, transpose_y = matmul_10_transpose_y_0, x = hidden_state_23_cast_fp16, y = reshape_31_cast_fp16)[name = tensor<string, []>("matmul_10_cast_fp16")];
            tensor<int32, [2]> concat_87 = const()[name = tensor<string, []>("concat_87"), val = tensor<int32, [2]>([1, 256])];
            tensor<fp16, [1, 256]> reshape_32_cast_fp16 = reshape(shape = concat_87, x = matmul_10_cast_fp16)[name = tensor<string, []>("reshape_32_cast_fp16")];
            tensor<int32, [4]> var_326_begin_0 = const()[name = tensor<string, []>("op_326_begin_0"), val = tensor<int32, [4]>([0, 11, 0, 0])];
            tensor<int32, [4]> var_326_end_0 = const()[name = tensor<string, []>("op_326_end_0"), val = tensor<int32, [4]>([1, 12, 256, 16])];
            tensor<bool, [4]> var_326_end_mask_0 = const()[name = tensor<string, []>("op_326_end_mask_0"), val = tensor<bool, [4]>([true, false, true, true])];
            tensor<bool, [4]> var_326_squeeze_mask_0 = const()[name = tensor<string, []>("op_326_squeeze_mask_0"), val = tensor<bool, [4]>([false, true, false, false])];
            tensor<fp16, [1, 256, 16]> var_326_cast_fp16 = slice_by_index(begin = var_326_begin_0, end = var_326_end_0, end_mask = var_326_end_mask_0, squeeze_mask = var_326_squeeze_mask_0, x = clip_1_to_fp16)[name = tensor<string, []>("op_326_cast_fp16")];
            tensor<fp16, [1, 256, 16]> var_327_cast_fp16 = mul(x = var_326_cast_fp16, y = hidden_state_23_cast_fp16)[name = tensor<string, []>("op_327_cast_fp16")];
            tensor<int32, [4]> var_329_begin_0 = const()[name = tensor<string, []>("op_329_begin_0"), val = tensor<int32, [4]>([0, 11, 0, 0])];
            tensor<int32, [4]> var_329_end_0 = const()[name = tensor<string, []>("op_329_end_0"), val = tensor<int32, [4]>([1, 12, 1, 16])];
            tensor<bool, [4]> var_329_end_mask_0 = const()[name = tensor<string, []>("op_329_end_mask_0"), val = tensor<bool, [4]>([true, false, true, true])];
            tensor<bool, [4]> var_329_squeeze_mask_0 = const()[name = tensor<string, []>("op_329_squeeze_mask_0"), val = tensor<bool, [4]>([false, true, false, false])];
            tensor<fp16, [1, 1, 16]> var_329_cast_fp16 = slice_by_index(begin = var_329_begin_0, end = var_329_end_0, end_mask = var_329_end_mask_0, squeeze_mask = var_329_squeeze_mask_0, x = delta_B_u_1_cast_fp16)[name = tensor<string, []>("op_329_cast_fp16")];
            tensor<fp16, [1, 256, 16]> hidden_state_25_cast_fp16 = add(x = var_327_cast_fp16, y = var_329_cast_fp16)[name = tensor<string, []>("hidden_state_25_cast_fp16")];
            tensor<int32, [3]> var_332_begin_0 = const()[name = tensor<string, []>("op_332_begin_0"), val = tensor<int32, [3]>([0, 11, 0])];
            tensor<int32, [3]> var_332_end_0 = const()[name = tensor<string, []>("op_332_end_0"), val = tensor<int32, [3]>([1, 12, 16])];
            tensor<bool, [3]> var_332_end_mask_0 = const()[name = tensor<string, []>("op_332_end_mask_0"), val = tensor<bool, [3]>([true, false, true])];
            tensor<bool, [3]> var_332_squeeze_mask_0 = const()[name = tensor<string, []>("op_332_squeeze_mask_0"), val = tensor<bool, [3]>([false, true, false])];
            tensor<fp16, [1, 16]> var_332_cast_fp16 = slice_by_index(begin = var_332_begin_0, end = var_332_end_0, end_mask = var_332_end_mask_0, squeeze_mask = var_332_squeeze_mask_0, x = C_proj_1_cast_fp16)[name = tensor<string, []>("op_332_cast_fp16")];
            tensor<int32, [3]> concat_92 = const()[name = tensor<string, []>("concat_92"), val = tensor<int32, [3]>([1, 16, 1])];
            tensor<fp16, [1, 16, 1]> reshape_34_cast_fp16 = reshape(shape = concat_92, x = var_332_cast_fp16)[name = tensor<string, []>("reshape_34_cast_fp16")];
            tensor<bool, []> matmul_11_transpose_x_0 = const()[name = tensor<string, []>("matmul_11_transpose_x_0"), val = tensor<bool, []>(false)];
            tensor<bool, []> matmul_11_transpose_y_0 = const()[name = tensor<string, []>("matmul_11_transpose_y_0"), val = tensor<bool, []>(false)];
            tensor<fp16, [1, 256, 1]> matmul_11_cast_fp16 = matmul(transpose_x = matmul_11_transpose_x_0, transpose_y = matmul_11_transpose_y_0, x = hidden_state_25_cast_fp16, y = reshape_34_cast_fp16)[name = tensor<string, []>("matmul_11_cast_fp16")];
            tensor<int32, [2]> concat_95 = const()[name = tensor<string, []>("concat_95"), val = tensor<int32, [2]>([1, 256])];
            tensor<fp16, [1, 256]> reshape_35_cast_fp16 = reshape(shape = concat_95, x = matmul_11_cast_fp16)[name = tensor<string, []>("reshape_35_cast_fp16")];
            tensor<int32, [4]> var_337_begin_0 = const()[name = tensor<string, []>("op_337_begin_0"), val = tensor<int32, [4]>([0, 12, 0, 0])];
            tensor<int32, [4]> var_337_end_0 = const()[name = tensor<string, []>("op_337_end_0"), val = tensor<int32, [4]>([1, 13, 256, 16])];
            tensor<bool, [4]> var_337_end_mask_0 = const()[name = tensor<string, []>("op_337_end_mask_0"), val = tensor<bool, [4]>([true, false, true, true])];
            tensor<bool, [4]> var_337_squeeze_mask_0 = const()[name = tensor<string, []>("op_337_squeeze_mask_0"), val = tensor<bool, [4]>([false, true, false, false])];
            tensor<fp16, [1, 256, 16]> var_337_cast_fp16 = slice_by_index(begin = var_337_begin_0, end = var_337_end_0, end_mask = var_337_end_mask_0, squeeze_mask = var_337_squeeze_mask_0, x = clip_1_to_fp16)[name = tensor<string, []>("op_337_cast_fp16")];
            tensor<fp16, [1, 256, 16]> var_338_cast_fp16 = mul(x = var_337_cast_fp16, y = hidden_state_25_cast_fp16)[name = tensor<string, []>("op_338_cast_fp16")];
            tensor<int32, [4]> var_340_begin_0 = const()[name = tensor<string, []>("op_340_begin_0"), val = tensor<int32, [4]>([0, 12, 0, 0])];
            tensor<int32, [4]> var_340_end_0 = const()[name = tensor<string, []>("op_340_end_0"), val = tensor<int32, [4]>([1, 13, 1, 16])];
            tensor<bool, [4]> var_340_end_mask_0 = const()[name = tensor<string, []>("op_340_end_mask_0"), val = tensor<bool, [4]>([true, false, true, true])];
            tensor<bool, [4]> var_340_squeeze_mask_0 = const()[name = tensor<string, []>("op_340_squeeze_mask_0"), val = tensor<bool, [4]>([false, true, false, false])];
            tensor<fp16, [1, 1, 16]> var_340_cast_fp16 = slice_by_index(begin = var_340_begin_0, end = var_340_end_0, end_mask = var_340_end_mask_0, squeeze_mask = var_340_squeeze_mask_0, x = delta_B_u_1_cast_fp16)[name = tensor<string, []>("op_340_cast_fp16")];
            tensor<fp16, [1, 256, 16]> hidden_state_27_cast_fp16 = add(x = var_338_cast_fp16, y = var_340_cast_fp16)[name = tensor<string, []>("hidden_state_27_cast_fp16")];
            tensor<int32, [3]> var_343_begin_0 = const()[name = tensor<string, []>("op_343_begin_0"), val = tensor<int32, [3]>([0, 12, 0])];
            tensor<int32, [3]> var_343_end_0 = const()[name = tensor<string, []>("op_343_end_0"), val = tensor<int32, [3]>([1, 13, 16])];
            tensor<bool, [3]> var_343_end_mask_0 = const()[name = tensor<string, []>("op_343_end_mask_0"), val = tensor<bool, [3]>([true, false, true])];
            tensor<bool, [3]> var_343_squeeze_mask_0 = const()[name = tensor<string, []>("op_343_squeeze_mask_0"), val = tensor<bool, [3]>([false, true, false])];
            tensor<fp16, [1, 16]> var_343_cast_fp16 = slice_by_index(begin = var_343_begin_0, end = var_343_end_0, end_mask = var_343_end_mask_0, squeeze_mask = var_343_squeeze_mask_0, x = C_proj_1_cast_fp16)[name = tensor<string, []>("op_343_cast_fp16")];
            tensor<int32, [3]> concat_100 = const()[name = tensor<string, []>("concat_100"), val = tensor<int32, [3]>([1, 16, 1])];
            tensor<fp16, [1, 16, 1]> reshape_37_cast_fp16 = reshape(shape = concat_100, x = var_343_cast_fp16)[name = tensor<string, []>("reshape_37_cast_fp16")];
            tensor<bool, []> matmul_12_transpose_x_0 = const()[name = tensor<string, []>("matmul_12_transpose_x_0"), val = tensor<bool, []>(false)];
            tensor<bool, []> matmul_12_transpose_y_0 = const()[name = tensor<string, []>("matmul_12_transpose_y_0"), val = tensor<bool, []>(false)];
            tensor<fp16, [1, 256, 1]> matmul_12_cast_fp16 = matmul(transpose_x = matmul_12_transpose_x_0, transpose_y = matmul_12_transpose_y_0, x = hidden_state_27_cast_fp16, y = reshape_37_cast_fp16)[name = tensor<string, []>("matmul_12_cast_fp16")];
            tensor<int32, [2]> concat_103 = const()[name = tensor<string, []>("concat_103"), val = tensor<int32, [2]>([1, 256])];
            tensor<fp16, [1, 256]> reshape_38_cast_fp16 = reshape(shape = concat_103, x = matmul_12_cast_fp16)[name = tensor<string, []>("reshape_38_cast_fp16")];
            tensor<int32, [4]> var_348_begin_0 = const()[name = tensor<string, []>("op_348_begin_0"), val = tensor<int32, [4]>([0, 13, 0, 0])];
            tensor<int32, [4]> var_348_end_0 = const()[name = tensor<string, []>("op_348_end_0"), val = tensor<int32, [4]>([1, 14, 256, 16])];
            tensor<bool, [4]> var_348_end_mask_0 = const()[name = tensor<string, []>("op_348_end_mask_0"), val = tensor<bool, [4]>([true, false, true, true])];
            tensor<bool, [4]> var_348_squeeze_mask_0 = const()[name = tensor<string, []>("op_348_squeeze_mask_0"), val = tensor<bool, [4]>([false, true, false, false])];
            tensor<fp16, [1, 256, 16]> var_348_cast_fp16 = slice_by_index(begin = var_348_begin_0, end = var_348_end_0, end_mask = var_348_end_mask_0, squeeze_mask = var_348_squeeze_mask_0, x = clip_1_to_fp16)[name = tensor<string, []>("op_348_cast_fp16")];
            tensor<fp16, [1, 256, 16]> var_349_cast_fp16 = mul(x = var_348_cast_fp16, y = hidden_state_27_cast_fp16)[name = tensor<string, []>("op_349_cast_fp16")];
            tensor<int32, [4]> var_351_begin_0 = const()[name = tensor<string, []>("op_351_begin_0"), val = tensor<int32, [4]>([0, 13, 0, 0])];
            tensor<int32, [4]> var_351_end_0 = const()[name = tensor<string, []>("op_351_end_0"), val = tensor<int32, [4]>([1, 14, 1, 16])];
            tensor<bool, [4]> var_351_end_mask_0 = const()[name = tensor<string, []>("op_351_end_mask_0"), val = tensor<bool, [4]>([true, false, true, true])];
            tensor<bool, [4]> var_351_squeeze_mask_0 = const()[name = tensor<string, []>("op_351_squeeze_mask_0"), val = tensor<bool, [4]>([false, true, false, false])];
            tensor<fp16, [1, 1, 16]> var_351_cast_fp16 = slice_by_index(begin = var_351_begin_0, end = var_351_end_0, end_mask = var_351_end_mask_0, squeeze_mask = var_351_squeeze_mask_0, x = delta_B_u_1_cast_fp16)[name = tensor<string, []>("op_351_cast_fp16")];
            tensor<fp16, [1, 256, 16]> hidden_state_29_cast_fp16 = add(x = var_349_cast_fp16, y = var_351_cast_fp16)[name = tensor<string, []>("hidden_state_29_cast_fp16")];
            tensor<int32, [3]> var_354_begin_0 = const()[name = tensor<string, []>("op_354_begin_0"), val = tensor<int32, [3]>([0, 13, 0])];
            tensor<int32, [3]> var_354_end_0 = const()[name = tensor<string, []>("op_354_end_0"), val = tensor<int32, [3]>([1, 14, 16])];
            tensor<bool, [3]> var_354_end_mask_0 = const()[name = tensor<string, []>("op_354_end_mask_0"), val = tensor<bool, [3]>([true, false, true])];
            tensor<bool, [3]> var_354_squeeze_mask_0 = const()[name = tensor<string, []>("op_354_squeeze_mask_0"), val = tensor<bool, [3]>([false, true, false])];
            tensor<fp16, [1, 16]> var_354_cast_fp16 = slice_by_index(begin = var_354_begin_0, end = var_354_end_0, end_mask = var_354_end_mask_0, squeeze_mask = var_354_squeeze_mask_0, x = C_proj_1_cast_fp16)[name = tensor<string, []>("op_354_cast_fp16")];
            tensor<int32, [3]> concat_108 = const()[name = tensor<string, []>("concat_108"), val = tensor<int32, [3]>([1, 16, 1])];
            tensor<fp16, [1, 16, 1]> reshape_40_cast_fp16 = reshape(shape = concat_108, x = var_354_cast_fp16)[name = tensor<string, []>("reshape_40_cast_fp16")];
            tensor<bool, []> matmul_13_transpose_x_0 = const()[name = tensor<string, []>("matmul_13_transpose_x_0"), val = tensor<bool, []>(false)];
            tensor<bool, []> matmul_13_transpose_y_0 = const()[name = tensor<string, []>("matmul_13_transpose_y_0"), val = tensor<bool, []>(false)];
            tensor<fp16, [1, 256, 1]> matmul_13_cast_fp16 = matmul(transpose_x = matmul_13_transpose_x_0, transpose_y = matmul_13_transpose_y_0, x = hidden_state_29_cast_fp16, y = reshape_40_cast_fp16)[name = tensor<string, []>("matmul_13_cast_fp16")];
            tensor<int32, [2]> concat_111 = const()[name = tensor<string, []>("concat_111"), val = tensor<int32, [2]>([1, 256])];
            tensor<fp16, [1, 256]> reshape_41_cast_fp16 = reshape(shape = concat_111, x = matmul_13_cast_fp16)[name = tensor<string, []>("reshape_41_cast_fp16")];
            tensor<int32, [4]> var_359_begin_0 = const()[name = tensor<string, []>("op_359_begin_0"), val = tensor<int32, [4]>([0, 14, 0, 0])];
            tensor<int32, [4]> var_359_end_0 = const()[name = tensor<string, []>("op_359_end_0"), val = tensor<int32, [4]>([1, 15, 256, 16])];
            tensor<bool, [4]> var_359_end_mask_0 = const()[name = tensor<string, []>("op_359_end_mask_0"), val = tensor<bool, [4]>([true, false, true, true])];
            tensor<bool, [4]> var_359_squeeze_mask_0 = const()[name = tensor<string, []>("op_359_squeeze_mask_0"), val = tensor<bool, [4]>([false, true, false, false])];
            tensor<fp16, [1, 256, 16]> var_359_cast_fp16 = slice_by_index(begin = var_359_begin_0, end = var_359_end_0, end_mask = var_359_end_mask_0, squeeze_mask = var_359_squeeze_mask_0, x = clip_1_to_fp16)[name = tensor<string, []>("op_359_cast_fp16")];
            tensor<fp16, [1, 256, 16]> var_360_cast_fp16 = mul(x = var_359_cast_fp16, y = hidden_state_29_cast_fp16)[name = tensor<string, []>("op_360_cast_fp16")];
            tensor<int32, [4]> var_362_begin_0 = const()[name = tensor<string, []>("op_362_begin_0"), val = tensor<int32, [4]>([0, 14, 0, 0])];
            tensor<int32, [4]> var_362_end_0 = const()[name = tensor<string, []>("op_362_end_0"), val = tensor<int32, [4]>([1, 15, 1, 16])];
            tensor<bool, [4]> var_362_end_mask_0 = const()[name = tensor<string, []>("op_362_end_mask_0"), val = tensor<bool, [4]>([true, false, true, true])];
            tensor<bool, [4]> var_362_squeeze_mask_0 = const()[name = tensor<string, []>("op_362_squeeze_mask_0"), val = tensor<bool, [4]>([false, true, false, false])];
            tensor<fp16, [1, 1, 16]> var_362_cast_fp16 = slice_by_index(begin = var_362_begin_0, end = var_362_end_0, end_mask = var_362_end_mask_0, squeeze_mask = var_362_squeeze_mask_0, x = delta_B_u_1_cast_fp16)[name = tensor<string, []>("op_362_cast_fp16")];
            tensor<fp16, [1, 256, 16]> hidden_state_31_cast_fp16 = add(x = var_360_cast_fp16, y = var_362_cast_fp16)[name = tensor<string, []>("hidden_state_31_cast_fp16")];
            tensor<int32, [3]> var_365_begin_0 = const()[name = tensor<string, []>("op_365_begin_0"), val = tensor<int32, [3]>([0, 14, 0])];
            tensor<int32, [3]> var_365_end_0 = const()[name = tensor<string, []>("op_365_end_0"), val = tensor<int32, [3]>([1, 15, 16])];
            tensor<bool, [3]> var_365_end_mask_0 = const()[name = tensor<string, []>("op_365_end_mask_0"), val = tensor<bool, [3]>([true, false, true])];
            tensor<bool, [3]> var_365_squeeze_mask_0 = const()[name = tensor<string, []>("op_365_squeeze_mask_0"), val = tensor<bool, [3]>([false, true, false])];
            tensor<fp16, [1, 16]> var_365_cast_fp16 = slice_by_index(begin = var_365_begin_0, end = var_365_end_0, end_mask = var_365_end_mask_0, squeeze_mask = var_365_squeeze_mask_0, x = C_proj_1_cast_fp16)[name = tensor<string, []>("op_365_cast_fp16")];
            tensor<int32, [3]> concat_116 = const()[name = tensor<string, []>("concat_116"), val = tensor<int32, [3]>([1, 16, 1])];
            tensor<fp16, [1, 16, 1]> reshape_43_cast_fp16 = reshape(shape = concat_116, x = var_365_cast_fp16)[name = tensor<string, []>("reshape_43_cast_fp16")];
            tensor<bool, []> matmul_14_transpose_x_0 = const()[name = tensor<string, []>("matmul_14_transpose_x_0"), val = tensor<bool, []>(false)];
            tensor<bool, []> matmul_14_transpose_y_0 = const()[name = tensor<string, []>("matmul_14_transpose_y_0"), val = tensor<bool, []>(false)];
            tensor<fp16, [1, 256, 1]> matmul_14_cast_fp16 = matmul(transpose_x = matmul_14_transpose_x_0, transpose_y = matmul_14_transpose_y_0, x = hidden_state_31_cast_fp16, y = reshape_43_cast_fp16)[name = tensor<string, []>("matmul_14_cast_fp16")];
            tensor<int32, [2]> concat_119 = const()[name = tensor<string, []>("concat_119"), val = tensor<int32, [2]>([1, 256])];
            tensor<fp16, [1, 256]> reshape_44_cast_fp16 = reshape(shape = concat_119, x = matmul_14_cast_fp16)[name = tensor<string, []>("reshape_44_cast_fp16")];
            tensor<int32, [4]> var_370_begin_0 = const()[name = tensor<string, []>("op_370_begin_0"), val = tensor<int32, [4]>([0, 15, 0, 0])];
            tensor<int32, [4]> var_370_end_0 = const()[name = tensor<string, []>("op_370_end_0"), val = tensor<int32, [4]>([1, 16, 256, 16])];
            tensor<bool, [4]> var_370_end_mask_0 = const()[name = tensor<string, []>("op_370_end_mask_0"), val = tensor<bool, [4]>([true, false, true, true])];
            tensor<bool, [4]> var_370_squeeze_mask_0 = const()[name = tensor<string, []>("op_370_squeeze_mask_0"), val = tensor<bool, [4]>([false, true, false, false])];
            tensor<fp16, [1, 256, 16]> var_370_cast_fp16 = slice_by_index(begin = var_370_begin_0, end = var_370_end_0, end_mask = var_370_end_mask_0, squeeze_mask = var_370_squeeze_mask_0, x = clip_1_to_fp16)[name = tensor<string, []>("op_370_cast_fp16")];
            tensor<fp16, [1, 256, 16]> var_371_cast_fp16 = mul(x = var_370_cast_fp16, y = hidden_state_31_cast_fp16)[name = tensor<string, []>("op_371_cast_fp16")];
            tensor<int32, [4]> var_373_begin_0 = const()[name = tensor<string, []>("op_373_begin_0"), val = tensor<int32, [4]>([0, 15, 0, 0])];
            tensor<int32, [4]> var_373_end_0 = const()[name = tensor<string, []>("op_373_end_0"), val = tensor<int32, [4]>([1, 16, 1, 16])];
            tensor<bool, [4]> var_373_end_mask_0 = const()[name = tensor<string, []>("op_373_end_mask_0"), val = tensor<bool, [4]>([true, false, true, true])];
            tensor<bool, [4]> var_373_squeeze_mask_0 = const()[name = tensor<string, []>("op_373_squeeze_mask_0"), val = tensor<bool, [4]>([false, true, false, false])];
            tensor<fp16, [1, 1, 16]> var_373_cast_fp16 = slice_by_index(begin = var_373_begin_0, end = var_373_end_0, end_mask = var_373_end_mask_0, squeeze_mask = var_373_squeeze_mask_0, x = delta_B_u_1_cast_fp16)[name = tensor<string, []>("op_373_cast_fp16")];
            tensor<fp16, [1, 256, 16]> hidden_state_33_cast_fp16 = add(x = var_371_cast_fp16, y = var_373_cast_fp16)[name = tensor<string, []>("hidden_state_33_cast_fp16")];
            tensor<int32, [3]> var_376_begin_0 = const()[name = tensor<string, []>("op_376_begin_0"), val = tensor<int32, [3]>([0, 15, 0])];
            tensor<int32, [3]> var_376_end_0 = const()[name = tensor<string, []>("op_376_end_0"), val = tensor<int32, [3]>([1, 16, 16])];
            tensor<bool, [3]> var_376_end_mask_0 = const()[name = tensor<string, []>("op_376_end_mask_0"), val = tensor<bool, [3]>([true, false, true])];
            tensor<bool, [3]> var_376_squeeze_mask_0 = const()[name = tensor<string, []>("op_376_squeeze_mask_0"), val = tensor<bool, [3]>([false, true, false])];
            tensor<fp16, [1, 16]> var_376_cast_fp16 = slice_by_index(begin = var_376_begin_0, end = var_376_end_0, end_mask = var_376_end_mask_0, squeeze_mask = var_376_squeeze_mask_0, x = C_proj_1_cast_fp16)[name = tensor<string, []>("op_376_cast_fp16")];
            tensor<int32, [3]> concat_124 = const()[name = tensor<string, []>("concat_124"), val = tensor<int32, [3]>([1, 16, 1])];
            tensor<fp16, [1, 16, 1]> reshape_46_cast_fp16 = reshape(shape = concat_124, x = var_376_cast_fp16)[name = tensor<string, []>("reshape_46_cast_fp16")];
            tensor<bool, []> matmul_15_transpose_x_0 = const()[name = tensor<string, []>("matmul_15_transpose_x_0"), val = tensor<bool, []>(false)];
            tensor<bool, []> matmul_15_transpose_y_0 = const()[name = tensor<string, []>("matmul_15_transpose_y_0"), val = tensor<bool, []>(false)];
            tensor<fp16, [1, 256, 1]> matmul_15_cast_fp16 = matmul(transpose_x = matmul_15_transpose_x_0, transpose_y = matmul_15_transpose_y_0, x = hidden_state_33_cast_fp16, y = reshape_46_cast_fp16)[name = tensor<string, []>("matmul_15_cast_fp16")];
            tensor<int32, [2]> concat_127 = const()[name = tensor<string, []>("concat_127"), val = tensor<int32, [2]>([1, 256])];
            tensor<fp16, [1, 256]> reshape_47_cast_fp16 = reshape(shape = concat_127, x = matmul_15_cast_fp16)[name = tensor<string, []>("reshape_47_cast_fp16")];
            tensor<int32, [4]> var_381_begin_0 = const()[name = tensor<string, []>("op_381_begin_0"), val = tensor<int32, [4]>([0, 16, 0, 0])];
            tensor<int32, [4]> var_381_end_0 = const()[name = tensor<string, []>("op_381_end_0"), val = tensor<int32, [4]>([1, 17, 256, 16])];
            tensor<bool, [4]> var_381_end_mask_0 = const()[name = tensor<string, []>("op_381_end_mask_0"), val = tensor<bool, [4]>([true, false, true, true])];
            tensor<bool, [4]> var_381_squeeze_mask_0 = const()[name = tensor<string, []>("op_381_squeeze_mask_0"), val = tensor<bool, [4]>([false, true, false, false])];
            tensor<fp16, [1, 256, 16]> var_381_cast_fp16 = slice_by_index(begin = var_381_begin_0, end = var_381_end_0, end_mask = var_381_end_mask_0, squeeze_mask = var_381_squeeze_mask_0, x = clip_1_to_fp16)[name = tensor<string, []>("op_381_cast_fp16")];
            tensor<fp16, [1, 256, 16]> var_382_cast_fp16 = mul(x = var_381_cast_fp16, y = hidden_state_33_cast_fp16)[name = tensor<string, []>("op_382_cast_fp16")];
            tensor<int32, [4]> var_384_begin_0 = const()[name = tensor<string, []>("op_384_begin_0"), val = tensor<int32, [4]>([0, 16, 0, 0])];
            tensor<int32, [4]> var_384_end_0 = const()[name = tensor<string, []>("op_384_end_0"), val = tensor<int32, [4]>([1, 17, 1, 16])];
            tensor<bool, [4]> var_384_end_mask_0 = const()[name = tensor<string, []>("op_384_end_mask_0"), val = tensor<bool, [4]>([true, false, true, true])];
            tensor<bool, [4]> var_384_squeeze_mask_0 = const()[name = tensor<string, []>("op_384_squeeze_mask_0"), val = tensor<bool, [4]>([false, true, false, false])];
            tensor<fp16, [1, 1, 16]> var_384_cast_fp16 = slice_by_index(begin = var_384_begin_0, end = var_384_end_0, end_mask = var_384_end_mask_0, squeeze_mask = var_384_squeeze_mask_0, x = delta_B_u_1_cast_fp16)[name = tensor<string, []>("op_384_cast_fp16")];
            tensor<fp16, [1, 256, 16]> hidden_state_35_cast_fp16 = add(x = var_382_cast_fp16, y = var_384_cast_fp16)[name = tensor<string, []>("hidden_state_35_cast_fp16")];
            tensor<int32, [3]> var_387_begin_0 = const()[name = tensor<string, []>("op_387_begin_0"), val = tensor<int32, [3]>([0, 16, 0])];
            tensor<int32, [3]> var_387_end_0 = const()[name = tensor<string, []>("op_387_end_0"), val = tensor<int32, [3]>([1, 17, 16])];
            tensor<bool, [3]> var_387_end_mask_0 = const()[name = tensor<string, []>("op_387_end_mask_0"), val = tensor<bool, [3]>([true, false, true])];
            tensor<bool, [3]> var_387_squeeze_mask_0 = const()[name = tensor<string, []>("op_387_squeeze_mask_0"), val = tensor<bool, [3]>([false, true, false])];
            tensor<fp16, [1, 16]> var_387_cast_fp16 = slice_by_index(begin = var_387_begin_0, end = var_387_end_0, end_mask = var_387_end_mask_0, squeeze_mask = var_387_squeeze_mask_0, x = C_proj_1_cast_fp16)[name = tensor<string, []>("op_387_cast_fp16")];
            tensor<int32, [3]> concat_132 = const()[name = tensor<string, []>("concat_132"), val = tensor<int32, [3]>([1, 16, 1])];
            tensor<fp16, [1, 16, 1]> reshape_49_cast_fp16 = reshape(shape = concat_132, x = var_387_cast_fp16)[name = tensor<string, []>("reshape_49_cast_fp16")];
            tensor<bool, []> matmul_16_transpose_x_0 = const()[name = tensor<string, []>("matmul_16_transpose_x_0"), val = tensor<bool, []>(false)];
            tensor<bool, []> matmul_16_transpose_y_0 = const()[name = tensor<string, []>("matmul_16_transpose_y_0"), val = tensor<bool, []>(false)];
            tensor<fp16, [1, 256, 1]> matmul_16_cast_fp16 = matmul(transpose_x = matmul_16_transpose_x_0, transpose_y = matmul_16_transpose_y_0, x = hidden_state_35_cast_fp16, y = reshape_49_cast_fp16)[name = tensor<string, []>("matmul_16_cast_fp16")];
            tensor<int32, [2]> concat_135 = const()[name = tensor<string, []>("concat_135"), val = tensor<int32, [2]>([1, 256])];
            tensor<fp16, [1, 256]> reshape_50_cast_fp16 = reshape(shape = concat_135, x = matmul_16_cast_fp16)[name = tensor<string, []>("reshape_50_cast_fp16")];
            tensor<int32, [4]> var_392_begin_0 = const()[name = tensor<string, []>("op_392_begin_0"), val = tensor<int32, [4]>([0, 17, 0, 0])];
            tensor<int32, [4]> var_392_end_0 = const()[name = tensor<string, []>("op_392_end_0"), val = tensor<int32, [4]>([1, 18, 256, 16])];
            tensor<bool, [4]> var_392_end_mask_0 = const()[name = tensor<string, []>("op_392_end_mask_0"), val = tensor<bool, [4]>([true, false, true, true])];
            tensor<bool, [4]> var_392_squeeze_mask_0 = const()[name = tensor<string, []>("op_392_squeeze_mask_0"), val = tensor<bool, [4]>([false, true, false, false])];
            tensor<fp16, [1, 256, 16]> var_392_cast_fp16 = slice_by_index(begin = var_392_begin_0, end = var_392_end_0, end_mask = var_392_end_mask_0, squeeze_mask = var_392_squeeze_mask_0, x = clip_1_to_fp16)[name = tensor<string, []>("op_392_cast_fp16")];
            tensor<fp16, [1, 256, 16]> var_393_cast_fp16 = mul(x = var_392_cast_fp16, y = hidden_state_35_cast_fp16)[name = tensor<string, []>("op_393_cast_fp16")];
            tensor<int32, [4]> var_395_begin_0 = const()[name = tensor<string, []>("op_395_begin_0"), val = tensor<int32, [4]>([0, 17, 0, 0])];
            tensor<int32, [4]> var_395_end_0 = const()[name = tensor<string, []>("op_395_end_0"), val = tensor<int32, [4]>([1, 18, 1, 16])];
            tensor<bool, [4]> var_395_end_mask_0 = const()[name = tensor<string, []>("op_395_end_mask_0"), val = tensor<bool, [4]>([true, false, true, true])];
            tensor<bool, [4]> var_395_squeeze_mask_0 = const()[name = tensor<string, []>("op_395_squeeze_mask_0"), val = tensor<bool, [4]>([false, true, false, false])];
            tensor<fp16, [1, 1, 16]> var_395_cast_fp16 = slice_by_index(begin = var_395_begin_0, end = var_395_end_0, end_mask = var_395_end_mask_0, squeeze_mask = var_395_squeeze_mask_0, x = delta_B_u_1_cast_fp16)[name = tensor<string, []>("op_395_cast_fp16")];
            tensor<fp16, [1, 256, 16]> hidden_state_37_cast_fp16 = add(x = var_393_cast_fp16, y = var_395_cast_fp16)[name = tensor<string, []>("hidden_state_37_cast_fp16")];
            tensor<int32, [3]> var_398_begin_0 = const()[name = tensor<string, []>("op_398_begin_0"), val = tensor<int32, [3]>([0, 17, 0])];
            tensor<int32, [3]> var_398_end_0 = const()[name = tensor<string, []>("op_398_end_0"), val = tensor<int32, [3]>([1, 18, 16])];
            tensor<bool, [3]> var_398_end_mask_0 = const()[name = tensor<string, []>("op_398_end_mask_0"), val = tensor<bool, [3]>([true, false, true])];
            tensor<bool, [3]> var_398_squeeze_mask_0 = const()[name = tensor<string, []>("op_398_squeeze_mask_0"), val = tensor<bool, [3]>([false, true, false])];
            tensor<fp16, [1, 16]> var_398_cast_fp16 = slice_by_index(begin = var_398_begin_0, end = var_398_end_0, end_mask = var_398_end_mask_0, squeeze_mask = var_398_squeeze_mask_0, x = C_proj_1_cast_fp16)[name = tensor<string, []>("op_398_cast_fp16")];
            tensor<int32, [3]> concat_140 = const()[name = tensor<string, []>("concat_140"), val = tensor<int32, [3]>([1, 16, 1])];
            tensor<fp16, [1, 16, 1]> reshape_52_cast_fp16 = reshape(shape = concat_140, x = var_398_cast_fp16)[name = tensor<string, []>("reshape_52_cast_fp16")];
            tensor<bool, []> matmul_17_transpose_x_0 = const()[name = tensor<string, []>("matmul_17_transpose_x_0"), val = tensor<bool, []>(false)];
            tensor<bool, []> matmul_17_transpose_y_0 = const()[name = tensor<string, []>("matmul_17_transpose_y_0"), val = tensor<bool, []>(false)];
            tensor<fp16, [1, 256, 1]> matmul_17_cast_fp16 = matmul(transpose_x = matmul_17_transpose_x_0, transpose_y = matmul_17_transpose_y_0, x = hidden_state_37_cast_fp16, y = reshape_52_cast_fp16)[name = tensor<string, []>("matmul_17_cast_fp16")];
            tensor<int32, [2]> concat_143 = const()[name = tensor<string, []>("concat_143"), val = tensor<int32, [2]>([1, 256])];
            tensor<fp16, [1, 256]> reshape_53_cast_fp16 = reshape(shape = concat_143, x = matmul_17_cast_fp16)[name = tensor<string, []>("reshape_53_cast_fp16")];
            tensor<int32, [4]> var_403_begin_0 = const()[name = tensor<string, []>("op_403_begin_0"), val = tensor<int32, [4]>([0, 18, 0, 0])];
            tensor<int32, [4]> var_403_end_0 = const()[name = tensor<string, []>("op_403_end_0"), val = tensor<int32, [4]>([1, 19, 256, 16])];
            tensor<bool, [4]> var_403_end_mask_0 = const()[name = tensor<string, []>("op_403_end_mask_0"), val = tensor<bool, [4]>([true, false, true, true])];
            tensor<bool, [4]> var_403_squeeze_mask_0 = const()[name = tensor<string, []>("op_403_squeeze_mask_0"), val = tensor<bool, [4]>([false, true, false, false])];
            tensor<fp16, [1, 256, 16]> var_403_cast_fp16 = slice_by_index(begin = var_403_begin_0, end = var_403_end_0, end_mask = var_403_end_mask_0, squeeze_mask = var_403_squeeze_mask_0, x = clip_1_to_fp16)[name = tensor<string, []>("op_403_cast_fp16")];
            tensor<fp16, [1, 256, 16]> var_404_cast_fp16 = mul(x = var_403_cast_fp16, y = hidden_state_37_cast_fp16)[name = tensor<string, []>("op_404_cast_fp16")];
            tensor<int32, [4]> var_406_begin_0 = const()[name = tensor<string, []>("op_406_begin_0"), val = tensor<int32, [4]>([0, 18, 0, 0])];
            tensor<int32, [4]> var_406_end_0 = const()[name = tensor<string, []>("op_406_end_0"), val = tensor<int32, [4]>([1, 19, 1, 16])];
            tensor<bool, [4]> var_406_end_mask_0 = const()[name = tensor<string, []>("op_406_end_mask_0"), val = tensor<bool, [4]>([true, false, true, true])];
            tensor<bool, [4]> var_406_squeeze_mask_0 = const()[name = tensor<string, []>("op_406_squeeze_mask_0"), val = tensor<bool, [4]>([false, true, false, false])];
            tensor<fp16, [1, 1, 16]> var_406_cast_fp16 = slice_by_index(begin = var_406_begin_0, end = var_406_end_0, end_mask = var_406_end_mask_0, squeeze_mask = var_406_squeeze_mask_0, x = delta_B_u_1_cast_fp16)[name = tensor<string, []>("op_406_cast_fp16")];
            tensor<fp16, [1, 256, 16]> hidden_state_39_cast_fp16 = add(x = var_404_cast_fp16, y = var_406_cast_fp16)[name = tensor<string, []>("hidden_state_39_cast_fp16")];
            tensor<int32, [3]> var_409_begin_0 = const()[name = tensor<string, []>("op_409_begin_0"), val = tensor<int32, [3]>([0, 18, 0])];
            tensor<int32, [3]> var_409_end_0 = const()[name = tensor<string, []>("op_409_end_0"), val = tensor<int32, [3]>([1, 19, 16])];
            tensor<bool, [3]> var_409_end_mask_0 = const()[name = tensor<string, []>("op_409_end_mask_0"), val = tensor<bool, [3]>([true, false, true])];
            tensor<bool, [3]> var_409_squeeze_mask_0 = const()[name = tensor<string, []>("op_409_squeeze_mask_0"), val = tensor<bool, [3]>([false, true, false])];
            tensor<fp16, [1, 16]> var_409_cast_fp16 = slice_by_index(begin = var_409_begin_0, end = var_409_end_0, end_mask = var_409_end_mask_0, squeeze_mask = var_409_squeeze_mask_0, x = C_proj_1_cast_fp16)[name = tensor<string, []>("op_409_cast_fp16")];
            tensor<int32, [3]> concat_148 = const()[name = tensor<string, []>("concat_148"), val = tensor<int32, [3]>([1, 16, 1])];
            tensor<fp16, [1, 16, 1]> reshape_55_cast_fp16 = reshape(shape = concat_148, x = var_409_cast_fp16)[name = tensor<string, []>("reshape_55_cast_fp16")];
            tensor<bool, []> matmul_18_transpose_x_0 = const()[name = tensor<string, []>("matmul_18_transpose_x_0"), val = tensor<bool, []>(false)];
            tensor<bool, []> matmul_18_transpose_y_0 = const()[name = tensor<string, []>("matmul_18_transpose_y_0"), val = tensor<bool, []>(false)];
            tensor<fp16, [1, 256, 1]> matmul_18_cast_fp16 = matmul(transpose_x = matmul_18_transpose_x_0, transpose_y = matmul_18_transpose_y_0, x = hidden_state_39_cast_fp16, y = reshape_55_cast_fp16)[name = tensor<string, []>("matmul_18_cast_fp16")];
            tensor<int32, [2]> concat_151 = const()[name = tensor<string, []>("concat_151"), val = tensor<int32, [2]>([1, 256])];
            tensor<fp16, [1, 256]> reshape_56_cast_fp16 = reshape(shape = concat_151, x = matmul_18_cast_fp16)[name = tensor<string, []>("reshape_56_cast_fp16")];
            tensor<int32, [4]> var_414_begin_0 = const()[name = tensor<string, []>("op_414_begin_0"), val = tensor<int32, [4]>([0, 19, 0, 0])];
            tensor<int32, [4]> var_414_end_0 = const()[name = tensor<string, []>("op_414_end_0"), val = tensor<int32, [4]>([1, 20, 256, 16])];
            tensor<bool, [4]> var_414_end_mask_0 = const()[name = tensor<string, []>("op_414_end_mask_0"), val = tensor<bool, [4]>([true, false, true, true])];
            tensor<bool, [4]> var_414_squeeze_mask_0 = const()[name = tensor<string, []>("op_414_squeeze_mask_0"), val = tensor<bool, [4]>([false, true, false, false])];
            tensor<fp16, [1, 256, 16]> var_414_cast_fp16 = slice_by_index(begin = var_414_begin_0, end = var_414_end_0, end_mask = var_414_end_mask_0, squeeze_mask = var_414_squeeze_mask_0, x = clip_1_to_fp16)[name = tensor<string, []>("op_414_cast_fp16")];
            tensor<fp16, [1, 256, 16]> var_415_cast_fp16 = mul(x = var_414_cast_fp16, y = hidden_state_39_cast_fp16)[name = tensor<string, []>("op_415_cast_fp16")];
            tensor<int32, [4]> var_417_begin_0 = const()[name = tensor<string, []>("op_417_begin_0"), val = tensor<int32, [4]>([0, 19, 0, 0])];
            tensor<int32, [4]> var_417_end_0 = const()[name = tensor<string, []>("op_417_end_0"), val = tensor<int32, [4]>([1, 20, 1, 16])];
            tensor<bool, [4]> var_417_end_mask_0 = const()[name = tensor<string, []>("op_417_end_mask_0"), val = tensor<bool, [4]>([true, false, true, true])];
            tensor<bool, [4]> var_417_squeeze_mask_0 = const()[name = tensor<string, []>("op_417_squeeze_mask_0"), val = tensor<bool, [4]>([false, true, false, false])];
            tensor<fp16, [1, 1, 16]> var_417_cast_fp16 = slice_by_index(begin = var_417_begin_0, end = var_417_end_0, end_mask = var_417_end_mask_0, squeeze_mask = var_417_squeeze_mask_0, x = delta_B_u_1_cast_fp16)[name = tensor<string, []>("op_417_cast_fp16")];
            tensor<fp16, [1, 256, 16]> hidden_state_41_cast_fp16 = add(x = var_415_cast_fp16, y = var_417_cast_fp16)[name = tensor<string, []>("hidden_state_41_cast_fp16")];
            tensor<int32, [3]> var_420_begin_0 = const()[name = tensor<string, []>("op_420_begin_0"), val = tensor<int32, [3]>([0, 19, 0])];
            tensor<int32, [3]> var_420_end_0 = const()[name = tensor<string, []>("op_420_end_0"), val = tensor<int32, [3]>([1, 20, 16])];
            tensor<bool, [3]> var_420_end_mask_0 = const()[name = tensor<string, []>("op_420_end_mask_0"), val = tensor<bool, [3]>([true, false, true])];
            tensor<bool, [3]> var_420_squeeze_mask_0 = const()[name = tensor<string, []>("op_420_squeeze_mask_0"), val = tensor<bool, [3]>([false, true, false])];
            tensor<fp16, [1, 16]> var_420_cast_fp16 = slice_by_index(begin = var_420_begin_0, end = var_420_end_0, end_mask = var_420_end_mask_0, squeeze_mask = var_420_squeeze_mask_0, x = C_proj_1_cast_fp16)[name = tensor<string, []>("op_420_cast_fp16")];
            tensor<int32, [3]> concat_156 = const()[name = tensor<string, []>("concat_156"), val = tensor<int32, [3]>([1, 16, 1])];
            tensor<fp16, [1, 16, 1]> reshape_58_cast_fp16 = reshape(shape = concat_156, x = var_420_cast_fp16)[name = tensor<string, []>("reshape_58_cast_fp16")];
            tensor<bool, []> matmul_19_transpose_x_0 = const()[name = tensor<string, []>("matmul_19_transpose_x_0"), val = tensor<bool, []>(false)];
            tensor<bool, []> matmul_19_transpose_y_0 = const()[name = tensor<string, []>("matmul_19_transpose_y_0"), val = tensor<bool, []>(false)];
            tensor<fp16, [1, 256, 1]> matmul_19_cast_fp16 = matmul(transpose_x = matmul_19_transpose_x_0, transpose_y = matmul_19_transpose_y_0, x = hidden_state_41_cast_fp16, y = reshape_58_cast_fp16)[name = tensor<string, []>("matmul_19_cast_fp16")];
            tensor<int32, [2]> concat_159 = const()[name = tensor<string, []>("concat_159"), val = tensor<int32, [2]>([1, 256])];
            tensor<fp16, [1, 256]> reshape_59_cast_fp16 = reshape(shape = concat_159, x = matmul_19_cast_fp16)[name = tensor<string, []>("reshape_59_cast_fp16")];
            tensor<int32, [4]> var_425_begin_0 = const()[name = tensor<string, []>("op_425_begin_0"), val = tensor<int32, [4]>([0, 20, 0, 0])];
            tensor<int32, [4]> var_425_end_0 = const()[name = tensor<string, []>("op_425_end_0"), val = tensor<int32, [4]>([1, 21, 256, 16])];
            tensor<bool, [4]> var_425_end_mask_0 = const()[name = tensor<string, []>("op_425_end_mask_0"), val = tensor<bool, [4]>([true, false, true, true])];
            tensor<bool, [4]> var_425_squeeze_mask_0 = const()[name = tensor<string, []>("op_425_squeeze_mask_0"), val = tensor<bool, [4]>([false, true, false, false])];
            tensor<fp16, [1, 256, 16]> var_425_cast_fp16 = slice_by_index(begin = var_425_begin_0, end = var_425_end_0, end_mask = var_425_end_mask_0, squeeze_mask = var_425_squeeze_mask_0, x = clip_1_to_fp16)[name = tensor<string, []>("op_425_cast_fp16")];
            tensor<fp16, [1, 256, 16]> var_426_cast_fp16 = mul(x = var_425_cast_fp16, y = hidden_state_41_cast_fp16)[name = tensor<string, []>("op_426_cast_fp16")];
            tensor<int32, [4]> var_428_begin_0 = const()[name = tensor<string, []>("op_428_begin_0"), val = tensor<int32, [4]>([0, 20, 0, 0])];
            tensor<int32, [4]> var_428_end_0 = const()[name = tensor<string, []>("op_428_end_0"), val = tensor<int32, [4]>([1, 21, 1, 16])];
            tensor<bool, [4]> var_428_end_mask_0 = const()[name = tensor<string, []>("op_428_end_mask_0"), val = tensor<bool, [4]>([true, false, true, true])];
            tensor<bool, [4]> var_428_squeeze_mask_0 = const()[name = tensor<string, []>("op_428_squeeze_mask_0"), val = tensor<bool, [4]>([false, true, false, false])];
            tensor<fp16, [1, 1, 16]> var_428_cast_fp16 = slice_by_index(begin = var_428_begin_0, end = var_428_end_0, end_mask = var_428_end_mask_0, squeeze_mask = var_428_squeeze_mask_0, x = delta_B_u_1_cast_fp16)[name = tensor<string, []>("op_428_cast_fp16")];
            tensor<fp16, [1, 256, 16]> hidden_state_43_cast_fp16 = add(x = var_426_cast_fp16, y = var_428_cast_fp16)[name = tensor<string, []>("hidden_state_43_cast_fp16")];
            tensor<int32, [3]> var_431_begin_0 = const()[name = tensor<string, []>("op_431_begin_0"), val = tensor<int32, [3]>([0, 20, 0])];
            tensor<int32, [3]> var_431_end_0 = const()[name = tensor<string, []>("op_431_end_0"), val = tensor<int32, [3]>([1, 21, 16])];
            tensor<bool, [3]> var_431_end_mask_0 = const()[name = tensor<string, []>("op_431_end_mask_0"), val = tensor<bool, [3]>([true, false, true])];
            tensor<bool, [3]> var_431_squeeze_mask_0 = const()[name = tensor<string, []>("op_431_squeeze_mask_0"), val = tensor<bool, [3]>([false, true, false])];
            tensor<fp16, [1, 16]> var_431_cast_fp16 = slice_by_index(begin = var_431_begin_0, end = var_431_end_0, end_mask = var_431_end_mask_0, squeeze_mask = var_431_squeeze_mask_0, x = C_proj_1_cast_fp16)[name = tensor<string, []>("op_431_cast_fp16")];
            tensor<int32, [3]> concat_164 = const()[name = tensor<string, []>("concat_164"), val = tensor<int32, [3]>([1, 16, 1])];
            tensor<fp16, [1, 16, 1]> reshape_61_cast_fp16 = reshape(shape = concat_164, x = var_431_cast_fp16)[name = tensor<string, []>("reshape_61_cast_fp16")];
            tensor<bool, []> matmul_20_transpose_x_0 = const()[name = tensor<string, []>("matmul_20_transpose_x_0"), val = tensor<bool, []>(false)];
            tensor<bool, []> matmul_20_transpose_y_0 = const()[name = tensor<string, []>("matmul_20_transpose_y_0"), val = tensor<bool, []>(false)];
            tensor<fp16, [1, 256, 1]> matmul_20_cast_fp16 = matmul(transpose_x = matmul_20_transpose_x_0, transpose_y = matmul_20_transpose_y_0, x = hidden_state_43_cast_fp16, y = reshape_61_cast_fp16)[name = tensor<string, []>("matmul_20_cast_fp16")];
            tensor<int32, [2]> concat_167 = const()[name = tensor<string, []>("concat_167"), val = tensor<int32, [2]>([1, 256])];
            tensor<fp16, [1, 256]> reshape_62_cast_fp16 = reshape(shape = concat_167, x = matmul_20_cast_fp16)[name = tensor<string, []>("reshape_62_cast_fp16")];
            tensor<int32, [4]> var_436_begin_0 = const()[name = tensor<string, []>("op_436_begin_0"), val = tensor<int32, [4]>([0, 21, 0, 0])];
            tensor<int32, [4]> var_436_end_0 = const()[name = tensor<string, []>("op_436_end_0"), val = tensor<int32, [4]>([1, 22, 256, 16])];
            tensor<bool, [4]> var_436_end_mask_0 = const()[name = tensor<string, []>("op_436_end_mask_0"), val = tensor<bool, [4]>([true, false, true, true])];
            tensor<bool, [4]> var_436_squeeze_mask_0 = const()[name = tensor<string, []>("op_436_squeeze_mask_0"), val = tensor<bool, [4]>([false, true, false, false])];
            tensor<fp16, [1, 256, 16]> var_436_cast_fp16 = slice_by_index(begin = var_436_begin_0, end = var_436_end_0, end_mask = var_436_end_mask_0, squeeze_mask = var_436_squeeze_mask_0, x = clip_1_to_fp16)[name = tensor<string, []>("op_436_cast_fp16")];
            tensor<fp16, [1, 256, 16]> var_437_cast_fp16 = mul(x = var_436_cast_fp16, y = hidden_state_43_cast_fp16)[name = tensor<string, []>("op_437_cast_fp16")];
            tensor<int32, [4]> var_439_begin_0 = const()[name = tensor<string, []>("op_439_begin_0"), val = tensor<int32, [4]>([0, 21, 0, 0])];
            tensor<int32, [4]> var_439_end_0 = const()[name = tensor<string, []>("op_439_end_0"), val = tensor<int32, [4]>([1, 22, 1, 16])];
            tensor<bool, [4]> var_439_end_mask_0 = const()[name = tensor<string, []>("op_439_end_mask_0"), val = tensor<bool, [4]>([true, false, true, true])];
            tensor<bool, [4]> var_439_squeeze_mask_0 = const()[name = tensor<string, []>("op_439_squeeze_mask_0"), val = tensor<bool, [4]>([false, true, false, false])];
            tensor<fp16, [1, 1, 16]> var_439_cast_fp16 = slice_by_index(begin = var_439_begin_0, end = var_439_end_0, end_mask = var_439_end_mask_0, squeeze_mask = var_439_squeeze_mask_0, x = delta_B_u_1_cast_fp16)[name = tensor<string, []>("op_439_cast_fp16")];
            tensor<fp16, [1, 256, 16]> hidden_state_45_cast_fp16 = add(x = var_437_cast_fp16, y = var_439_cast_fp16)[name = tensor<string, []>("hidden_state_45_cast_fp16")];
            tensor<int32, [3]> var_442_begin_0 = const()[name = tensor<string, []>("op_442_begin_0"), val = tensor<int32, [3]>([0, 21, 0])];
            tensor<int32, [3]> var_442_end_0 = const()[name = tensor<string, []>("op_442_end_0"), val = tensor<int32, [3]>([1, 22, 16])];
            tensor<bool, [3]> var_442_end_mask_0 = const()[name = tensor<string, []>("op_442_end_mask_0"), val = tensor<bool, [3]>([true, false, true])];
            tensor<bool, [3]> var_442_squeeze_mask_0 = const()[name = tensor<string, []>("op_442_squeeze_mask_0"), val = tensor<bool, [3]>([false, true, false])];
            tensor<fp16, [1, 16]> var_442_cast_fp16 = slice_by_index(begin = var_442_begin_0, end = var_442_end_0, end_mask = var_442_end_mask_0, squeeze_mask = var_442_squeeze_mask_0, x = C_proj_1_cast_fp16)[name = tensor<string, []>("op_442_cast_fp16")];
            tensor<int32, [3]> concat_172 = const()[name = tensor<string, []>("concat_172"), val = tensor<int32, [3]>([1, 16, 1])];
            tensor<fp16, [1, 16, 1]> reshape_64_cast_fp16 = reshape(shape = concat_172, x = var_442_cast_fp16)[name = tensor<string, []>("reshape_64_cast_fp16")];
            tensor<bool, []> matmul_21_transpose_x_0 = const()[name = tensor<string, []>("matmul_21_transpose_x_0"), val = tensor<bool, []>(false)];
            tensor<bool, []> matmul_21_transpose_y_0 = const()[name = tensor<string, []>("matmul_21_transpose_y_0"), val = tensor<bool, []>(false)];
            tensor<fp16, [1, 256, 1]> matmul_21_cast_fp16 = matmul(transpose_x = matmul_21_transpose_x_0, transpose_y = matmul_21_transpose_y_0, x = hidden_state_45_cast_fp16, y = reshape_64_cast_fp16)[name = tensor<string, []>("matmul_21_cast_fp16")];
            tensor<int32, [2]> concat_175 = const()[name = tensor<string, []>("concat_175"), val = tensor<int32, [2]>([1, 256])];
            tensor<fp16, [1, 256]> reshape_65_cast_fp16 = reshape(shape = concat_175, x = matmul_21_cast_fp16)[name = tensor<string, []>("reshape_65_cast_fp16")];
            tensor<int32, [4]> var_447_begin_0 = const()[name = tensor<string, []>("op_447_begin_0"), val = tensor<int32, [4]>([0, 22, 0, 0])];
            tensor<int32, [4]> var_447_end_0 = const()[name = tensor<string, []>("op_447_end_0"), val = tensor<int32, [4]>([1, 23, 256, 16])];
            tensor<bool, [4]> var_447_end_mask_0 = const()[name = tensor<string, []>("op_447_end_mask_0"), val = tensor<bool, [4]>([true, false, true, true])];
            tensor<bool, [4]> var_447_squeeze_mask_0 = const()[name = tensor<string, []>("op_447_squeeze_mask_0"), val = tensor<bool, [4]>([false, true, false, false])];
            tensor<fp16, [1, 256, 16]> var_447_cast_fp16 = slice_by_index(begin = var_447_begin_0, end = var_447_end_0, end_mask = var_447_end_mask_0, squeeze_mask = var_447_squeeze_mask_0, x = clip_1_to_fp16)[name = tensor<string, []>("op_447_cast_fp16")];
            tensor<fp16, [1, 256, 16]> var_448_cast_fp16 = mul(x = var_447_cast_fp16, y = hidden_state_45_cast_fp16)[name = tensor<string, []>("op_448_cast_fp16")];
            tensor<int32, [4]> var_450_begin_0 = const()[name = tensor<string, []>("op_450_begin_0"), val = tensor<int32, [4]>([0, 22, 0, 0])];
            tensor<int32, [4]> var_450_end_0 = const()[name = tensor<string, []>("op_450_end_0"), val = tensor<int32, [4]>([1, 23, 1, 16])];
            tensor<bool, [4]> var_450_end_mask_0 = const()[name = tensor<string, []>("op_450_end_mask_0"), val = tensor<bool, [4]>([true, false, true, true])];
            tensor<bool, [4]> var_450_squeeze_mask_0 = const()[name = tensor<string, []>("op_450_squeeze_mask_0"), val = tensor<bool, [4]>([false, true, false, false])];
            tensor<fp16, [1, 1, 16]> var_450_cast_fp16 = slice_by_index(begin = var_450_begin_0, end = var_450_end_0, end_mask = var_450_end_mask_0, squeeze_mask = var_450_squeeze_mask_0, x = delta_B_u_1_cast_fp16)[name = tensor<string, []>("op_450_cast_fp16")];
            tensor<fp16, [1, 256, 16]> hidden_state_47_cast_fp16 = add(x = var_448_cast_fp16, y = var_450_cast_fp16)[name = tensor<string, []>("hidden_state_47_cast_fp16")];
            tensor<int32, [3]> var_453_begin_0 = const()[name = tensor<string, []>("op_453_begin_0"), val = tensor<int32, [3]>([0, 22, 0])];
            tensor<int32, [3]> var_453_end_0 = const()[name = tensor<string, []>("op_453_end_0"), val = tensor<int32, [3]>([1, 23, 16])];
            tensor<bool, [3]> var_453_end_mask_0 = const()[name = tensor<string, []>("op_453_end_mask_0"), val = tensor<bool, [3]>([true, false, true])];
            tensor<bool, [3]> var_453_squeeze_mask_0 = const()[name = tensor<string, []>("op_453_squeeze_mask_0"), val = tensor<bool, [3]>([false, true, false])];
            tensor<fp16, [1, 16]> var_453_cast_fp16 = slice_by_index(begin = var_453_begin_0, end = var_453_end_0, end_mask = var_453_end_mask_0, squeeze_mask = var_453_squeeze_mask_0, x = C_proj_1_cast_fp16)[name = tensor<string, []>("op_453_cast_fp16")];
            tensor<int32, [3]> concat_180 = const()[name = tensor<string, []>("concat_180"), val = tensor<int32, [3]>([1, 16, 1])];
            tensor<fp16, [1, 16, 1]> reshape_67_cast_fp16 = reshape(shape = concat_180, x = var_453_cast_fp16)[name = tensor<string, []>("reshape_67_cast_fp16")];
            tensor<bool, []> matmul_22_transpose_x_0 = const()[name = tensor<string, []>("matmul_22_transpose_x_0"), val = tensor<bool, []>(false)];
            tensor<bool, []> matmul_22_transpose_y_0 = const()[name = tensor<string, []>("matmul_22_transpose_y_0"), val = tensor<bool, []>(false)];
            tensor<fp16, [1, 256, 1]> matmul_22_cast_fp16 = matmul(transpose_x = matmul_22_transpose_x_0, transpose_y = matmul_22_transpose_y_0, x = hidden_state_47_cast_fp16, y = reshape_67_cast_fp16)[name = tensor<string, []>("matmul_22_cast_fp16")];
            tensor<int32, [2]> concat_183 = const()[name = tensor<string, []>("concat_183"), val = tensor<int32, [2]>([1, 256])];
            tensor<fp16, [1, 256]> reshape_68_cast_fp16 = reshape(shape = concat_183, x = matmul_22_cast_fp16)[name = tensor<string, []>("reshape_68_cast_fp16")];
            tensor<int32, [4]> var_458_begin_0 = const()[name = tensor<string, []>("op_458_begin_0"), val = tensor<int32, [4]>([0, 23, 0, 0])];
            tensor<int32, [4]> var_458_end_0 = const()[name = tensor<string, []>("op_458_end_0"), val = tensor<int32, [4]>([1, 24, 256, 16])];
            tensor<bool, [4]> var_458_end_mask_0 = const()[name = tensor<string, []>("op_458_end_mask_0"), val = tensor<bool, [4]>([true, false, true, true])];
            tensor<bool, [4]> var_458_squeeze_mask_0 = const()[name = tensor<string, []>("op_458_squeeze_mask_0"), val = tensor<bool, [4]>([false, true, false, false])];
            tensor<fp16, [1, 256, 16]> var_458_cast_fp16 = slice_by_index(begin = var_458_begin_0, end = var_458_end_0, end_mask = var_458_end_mask_0, squeeze_mask = var_458_squeeze_mask_0, x = clip_1_to_fp16)[name = tensor<string, []>("op_458_cast_fp16")];
            tensor<fp16, [1, 256, 16]> var_459_cast_fp16 = mul(x = var_458_cast_fp16, y = hidden_state_47_cast_fp16)[name = tensor<string, []>("op_459_cast_fp16")];
            tensor<int32, [4]> var_461_begin_0 = const()[name = tensor<string, []>("op_461_begin_0"), val = tensor<int32, [4]>([0, 23, 0, 0])];
            tensor<int32, [4]> var_461_end_0 = const()[name = tensor<string, []>("op_461_end_0"), val = tensor<int32, [4]>([1, 24, 1, 16])];
            tensor<bool, [4]> var_461_end_mask_0 = const()[name = tensor<string, []>("op_461_end_mask_0"), val = tensor<bool, [4]>([true, false, true, true])];
            tensor<bool, [4]> var_461_squeeze_mask_0 = const()[name = tensor<string, []>("op_461_squeeze_mask_0"), val = tensor<bool, [4]>([false, true, false, false])];
            tensor<fp16, [1, 1, 16]> var_461_cast_fp16 = slice_by_index(begin = var_461_begin_0, end = var_461_end_0, end_mask = var_461_end_mask_0, squeeze_mask = var_461_squeeze_mask_0, x = delta_B_u_1_cast_fp16)[name = tensor<string, []>("op_461_cast_fp16")];
            tensor<fp16, [1, 256, 16]> hidden_state_49_cast_fp16 = add(x = var_459_cast_fp16, y = var_461_cast_fp16)[name = tensor<string, []>("hidden_state_49_cast_fp16")];
            tensor<int32, [3]> var_464_begin_0 = const()[name = tensor<string, []>("op_464_begin_0"), val = tensor<int32, [3]>([0, 23, 0])];
            tensor<int32, [3]> var_464_end_0 = const()[name = tensor<string, []>("op_464_end_0"), val = tensor<int32, [3]>([1, 24, 16])];
            tensor<bool, [3]> var_464_end_mask_0 = const()[name = tensor<string, []>("op_464_end_mask_0"), val = tensor<bool, [3]>([true, false, true])];
            tensor<bool, [3]> var_464_squeeze_mask_0 = const()[name = tensor<string, []>("op_464_squeeze_mask_0"), val = tensor<bool, [3]>([false, true, false])];
            tensor<fp16, [1, 16]> var_464_cast_fp16 = slice_by_index(begin = var_464_begin_0, end = var_464_end_0, end_mask = var_464_end_mask_0, squeeze_mask = var_464_squeeze_mask_0, x = C_proj_1_cast_fp16)[name = tensor<string, []>("op_464_cast_fp16")];
            tensor<int32, [3]> concat_188 = const()[name = tensor<string, []>("concat_188"), val = tensor<int32, [3]>([1, 16, 1])];
            tensor<fp16, [1, 16, 1]> reshape_70_cast_fp16 = reshape(shape = concat_188, x = var_464_cast_fp16)[name = tensor<string, []>("reshape_70_cast_fp16")];
            tensor<bool, []> matmul_23_transpose_x_0 = const()[name = tensor<string, []>("matmul_23_transpose_x_0"), val = tensor<bool, []>(false)];
            tensor<bool, []> matmul_23_transpose_y_0 = const()[name = tensor<string, []>("matmul_23_transpose_y_0"), val = tensor<bool, []>(false)];
            tensor<fp16, [1, 256, 1]> matmul_23_cast_fp16 = matmul(transpose_x = matmul_23_transpose_x_0, transpose_y = matmul_23_transpose_y_0, x = hidden_state_49_cast_fp16, y = reshape_70_cast_fp16)[name = tensor<string, []>("matmul_23_cast_fp16")];
            tensor<int32, [2]> concat_191 = const()[name = tensor<string, []>("concat_191"), val = tensor<int32, [2]>([1, 256])];
            tensor<fp16, [1, 256]> reshape_71_cast_fp16 = reshape(shape = concat_191, x = matmul_23_cast_fp16)[name = tensor<string, []>("reshape_71_cast_fp16")];
            tensor<int32, [4]> var_469_begin_0 = const()[name = tensor<string, []>("op_469_begin_0"), val = tensor<int32, [4]>([0, 24, 0, 0])];
            tensor<int32, [4]> var_469_end_0 = const()[name = tensor<string, []>("op_469_end_0"), val = tensor<int32, [4]>([1, 25, 256, 16])];
            tensor<bool, [4]> var_469_end_mask_0 = const()[name = tensor<string, []>("op_469_end_mask_0"), val = tensor<bool, [4]>([true, false, true, true])];
            tensor<bool, [4]> var_469_squeeze_mask_0 = const()[name = tensor<string, []>("op_469_squeeze_mask_0"), val = tensor<bool, [4]>([false, true, false, false])];
            tensor<fp16, [1, 256, 16]> var_469_cast_fp16 = slice_by_index(begin = var_469_begin_0, end = var_469_end_0, end_mask = var_469_end_mask_0, squeeze_mask = var_469_squeeze_mask_0, x = clip_1_to_fp16)[name = tensor<string, []>("op_469_cast_fp16")];
            tensor<fp16, [1, 256, 16]> var_470_cast_fp16 = mul(x = var_469_cast_fp16, y = hidden_state_49_cast_fp16)[name = tensor<string, []>("op_470_cast_fp16")];
            tensor<int32, [4]> var_472_begin_0 = const()[name = tensor<string, []>("op_472_begin_0"), val = tensor<int32, [4]>([0, 24, 0, 0])];
            tensor<int32, [4]> var_472_end_0 = const()[name = tensor<string, []>("op_472_end_0"), val = tensor<int32, [4]>([1, 25, 1, 16])];
            tensor<bool, [4]> var_472_end_mask_0 = const()[name = tensor<string, []>("op_472_end_mask_0"), val = tensor<bool, [4]>([true, false, true, true])];
            tensor<bool, [4]> var_472_squeeze_mask_0 = const()[name = tensor<string, []>("op_472_squeeze_mask_0"), val = tensor<bool, [4]>([false, true, false, false])];
            tensor<fp16, [1, 1, 16]> var_472_cast_fp16 = slice_by_index(begin = var_472_begin_0, end = var_472_end_0, end_mask = var_472_end_mask_0, squeeze_mask = var_472_squeeze_mask_0, x = delta_B_u_1_cast_fp16)[name = tensor<string, []>("op_472_cast_fp16")];
            tensor<fp16, [1, 256, 16]> hidden_state_51_cast_fp16 = add(x = var_470_cast_fp16, y = var_472_cast_fp16)[name = tensor<string, []>("hidden_state_51_cast_fp16")];
            tensor<int32, [3]> var_475_begin_0 = const()[name = tensor<string, []>("op_475_begin_0"), val = tensor<int32, [3]>([0, 24, 0])];
            tensor<int32, [3]> var_475_end_0 = const()[name = tensor<string, []>("op_475_end_0"), val = tensor<int32, [3]>([1, 25, 16])];
            tensor<bool, [3]> var_475_end_mask_0 = const()[name = tensor<string, []>("op_475_end_mask_0"), val = tensor<bool, [3]>([true, false, true])];
            tensor<bool, [3]> var_475_squeeze_mask_0 = const()[name = tensor<string, []>("op_475_squeeze_mask_0"), val = tensor<bool, [3]>([false, true, false])];
            tensor<fp16, [1, 16]> var_475_cast_fp16 = slice_by_index(begin = var_475_begin_0, end = var_475_end_0, end_mask = var_475_end_mask_0, squeeze_mask = var_475_squeeze_mask_0, x = C_proj_1_cast_fp16)[name = tensor<string, []>("op_475_cast_fp16")];
            tensor<int32, [3]> concat_196 = const()[name = tensor<string, []>("concat_196"), val = tensor<int32, [3]>([1, 16, 1])];
            tensor<fp16, [1, 16, 1]> reshape_73_cast_fp16 = reshape(shape = concat_196, x = var_475_cast_fp16)[name = tensor<string, []>("reshape_73_cast_fp16")];
            tensor<bool, []> matmul_24_transpose_x_0 = const()[name = tensor<string, []>("matmul_24_transpose_x_0"), val = tensor<bool, []>(false)];
            tensor<bool, []> matmul_24_transpose_y_0 = const()[name = tensor<string, []>("matmul_24_transpose_y_0"), val = tensor<bool, []>(false)];
            tensor<fp16, [1, 256, 1]> matmul_24_cast_fp16 = matmul(transpose_x = matmul_24_transpose_x_0, transpose_y = matmul_24_transpose_y_0, x = hidden_state_51_cast_fp16, y = reshape_73_cast_fp16)[name = tensor<string, []>("matmul_24_cast_fp16")];
            tensor<int32, [2]> concat_199 = const()[name = tensor<string, []>("concat_199"), val = tensor<int32, [2]>([1, 256])];
            tensor<fp16, [1, 256]> reshape_74_cast_fp16 = reshape(shape = concat_199, x = matmul_24_cast_fp16)[name = tensor<string, []>("reshape_74_cast_fp16")];
            tensor<int32, [4]> var_480_begin_0 = const()[name = tensor<string, []>("op_480_begin_0"), val = tensor<int32, [4]>([0, 25, 0, 0])];
            tensor<int32, [4]> var_480_end_0 = const()[name = tensor<string, []>("op_480_end_0"), val = tensor<int32, [4]>([1, 26, 256, 16])];
            tensor<bool, [4]> var_480_end_mask_0 = const()[name = tensor<string, []>("op_480_end_mask_0"), val = tensor<bool, [4]>([true, false, true, true])];
            tensor<bool, [4]> var_480_squeeze_mask_0 = const()[name = tensor<string, []>("op_480_squeeze_mask_0"), val = tensor<bool, [4]>([false, true, false, false])];
            tensor<fp16, [1, 256, 16]> var_480_cast_fp16 = slice_by_index(begin = var_480_begin_0, end = var_480_end_0, end_mask = var_480_end_mask_0, squeeze_mask = var_480_squeeze_mask_0, x = clip_1_to_fp16)[name = tensor<string, []>("op_480_cast_fp16")];
            tensor<fp16, [1, 256, 16]> var_481_cast_fp16 = mul(x = var_480_cast_fp16, y = hidden_state_51_cast_fp16)[name = tensor<string, []>("op_481_cast_fp16")];
            tensor<int32, [4]> var_483_begin_0 = const()[name = tensor<string, []>("op_483_begin_0"), val = tensor<int32, [4]>([0, 25, 0, 0])];
            tensor<int32, [4]> var_483_end_0 = const()[name = tensor<string, []>("op_483_end_0"), val = tensor<int32, [4]>([1, 26, 1, 16])];
            tensor<bool, [4]> var_483_end_mask_0 = const()[name = tensor<string, []>("op_483_end_mask_0"), val = tensor<bool, [4]>([true, false, true, true])];
            tensor<bool, [4]> var_483_squeeze_mask_0 = const()[name = tensor<string, []>("op_483_squeeze_mask_0"), val = tensor<bool, [4]>([false, true, false, false])];
            tensor<fp16, [1, 1, 16]> var_483_cast_fp16 = slice_by_index(begin = var_483_begin_0, end = var_483_end_0, end_mask = var_483_end_mask_0, squeeze_mask = var_483_squeeze_mask_0, x = delta_B_u_1_cast_fp16)[name = tensor<string, []>("op_483_cast_fp16")];
            tensor<fp16, [1, 256, 16]> hidden_state_53_cast_fp16 = add(x = var_481_cast_fp16, y = var_483_cast_fp16)[name = tensor<string, []>("hidden_state_53_cast_fp16")];
            tensor<int32, [3]> var_486_begin_0 = const()[name = tensor<string, []>("op_486_begin_0"), val = tensor<int32, [3]>([0, 25, 0])];
            tensor<int32, [3]> var_486_end_0 = const()[name = tensor<string, []>("op_486_end_0"), val = tensor<int32, [3]>([1, 26, 16])];
            tensor<bool, [3]> var_486_end_mask_0 = const()[name = tensor<string, []>("op_486_end_mask_0"), val = tensor<bool, [3]>([true, false, true])];
            tensor<bool, [3]> var_486_squeeze_mask_0 = const()[name = tensor<string, []>("op_486_squeeze_mask_0"), val = tensor<bool, [3]>([false, true, false])];
            tensor<fp16, [1, 16]> var_486_cast_fp16 = slice_by_index(begin = var_486_begin_0, end = var_486_end_0, end_mask = var_486_end_mask_0, squeeze_mask = var_486_squeeze_mask_0, x = C_proj_1_cast_fp16)[name = tensor<string, []>("op_486_cast_fp16")];
            tensor<int32, [3]> concat_204 = const()[name = tensor<string, []>("concat_204"), val = tensor<int32, [3]>([1, 16, 1])];
            tensor<fp16, [1, 16, 1]> reshape_76_cast_fp16 = reshape(shape = concat_204, x = var_486_cast_fp16)[name = tensor<string, []>("reshape_76_cast_fp16")];
            tensor<bool, []> matmul_25_transpose_x_0 = const()[name = tensor<string, []>("matmul_25_transpose_x_0"), val = tensor<bool, []>(false)];
            tensor<bool, []> matmul_25_transpose_y_0 = const()[name = tensor<string, []>("matmul_25_transpose_y_0"), val = tensor<bool, []>(false)];
            tensor<fp16, [1, 256, 1]> matmul_25_cast_fp16 = matmul(transpose_x = matmul_25_transpose_x_0, transpose_y = matmul_25_transpose_y_0, x = hidden_state_53_cast_fp16, y = reshape_76_cast_fp16)[name = tensor<string, []>("matmul_25_cast_fp16")];
            tensor<int32, [2]> concat_207 = const()[name = tensor<string, []>("concat_207"), val = tensor<int32, [2]>([1, 256])];
            tensor<fp16, [1, 256]> reshape_77_cast_fp16 = reshape(shape = concat_207, x = matmul_25_cast_fp16)[name = tensor<string, []>("reshape_77_cast_fp16")];
            tensor<int32, [4]> var_491_begin_0 = const()[name = tensor<string, []>("op_491_begin_0"), val = tensor<int32, [4]>([0, 26, 0, 0])];
            tensor<int32, [4]> var_491_end_0 = const()[name = tensor<string, []>("op_491_end_0"), val = tensor<int32, [4]>([1, 27, 256, 16])];
            tensor<bool, [4]> var_491_end_mask_0 = const()[name = tensor<string, []>("op_491_end_mask_0"), val = tensor<bool, [4]>([true, false, true, true])];
            tensor<bool, [4]> var_491_squeeze_mask_0 = const()[name = tensor<string, []>("op_491_squeeze_mask_0"), val = tensor<bool, [4]>([false, true, false, false])];
            tensor<fp16, [1, 256, 16]> var_491_cast_fp16 = slice_by_index(begin = var_491_begin_0, end = var_491_end_0, end_mask = var_491_end_mask_0, squeeze_mask = var_491_squeeze_mask_0, x = clip_1_to_fp16)[name = tensor<string, []>("op_491_cast_fp16")];
            tensor<fp16, [1, 256, 16]> var_492_cast_fp16 = mul(x = var_491_cast_fp16, y = hidden_state_53_cast_fp16)[name = tensor<string, []>("op_492_cast_fp16")];
            tensor<int32, [4]> var_494_begin_0 = const()[name = tensor<string, []>("op_494_begin_0"), val = tensor<int32, [4]>([0, 26, 0, 0])];
            tensor<int32, [4]> var_494_end_0 = const()[name = tensor<string, []>("op_494_end_0"), val = tensor<int32, [4]>([1, 27, 1, 16])];
            tensor<bool, [4]> var_494_end_mask_0 = const()[name = tensor<string, []>("op_494_end_mask_0"), val = tensor<bool, [4]>([true, false, true, true])];
            tensor<bool, [4]> var_494_squeeze_mask_0 = const()[name = tensor<string, []>("op_494_squeeze_mask_0"), val = tensor<bool, [4]>([false, true, false, false])];
            tensor<fp16, [1, 1, 16]> var_494_cast_fp16 = slice_by_index(begin = var_494_begin_0, end = var_494_end_0, end_mask = var_494_end_mask_0, squeeze_mask = var_494_squeeze_mask_0, x = delta_B_u_1_cast_fp16)[name = tensor<string, []>("op_494_cast_fp16")];
            tensor<fp16, [1, 256, 16]> hidden_state_55_cast_fp16 = add(x = var_492_cast_fp16, y = var_494_cast_fp16)[name = tensor<string, []>("hidden_state_55_cast_fp16")];
            tensor<int32, [3]> var_497_begin_0 = const()[name = tensor<string, []>("op_497_begin_0"), val = tensor<int32, [3]>([0, 26, 0])];
            tensor<int32, [3]> var_497_end_0 = const()[name = tensor<string, []>("op_497_end_0"), val = tensor<int32, [3]>([1, 27, 16])];
            tensor<bool, [3]> var_497_end_mask_0 = const()[name = tensor<string, []>("op_497_end_mask_0"), val = tensor<bool, [3]>([true, false, true])];
            tensor<bool, [3]> var_497_squeeze_mask_0 = const()[name = tensor<string, []>("op_497_squeeze_mask_0"), val = tensor<bool, [3]>([false, true, false])];
            tensor<fp16, [1, 16]> var_497_cast_fp16 = slice_by_index(begin = var_497_begin_0, end = var_497_end_0, end_mask = var_497_end_mask_0, squeeze_mask = var_497_squeeze_mask_0, x = C_proj_1_cast_fp16)[name = tensor<string, []>("op_497_cast_fp16")];
            tensor<int32, [3]> concat_212 = const()[name = tensor<string, []>("concat_212"), val = tensor<int32, [3]>([1, 16, 1])];
            tensor<fp16, [1, 16, 1]> reshape_79_cast_fp16 = reshape(shape = concat_212, x = var_497_cast_fp16)[name = tensor<string, []>("reshape_79_cast_fp16")];
            tensor<bool, []> matmul_26_transpose_x_0 = const()[name = tensor<string, []>("matmul_26_transpose_x_0"), val = tensor<bool, []>(false)];
            tensor<bool, []> matmul_26_transpose_y_0 = const()[name = tensor<string, []>("matmul_26_transpose_y_0"), val = tensor<bool, []>(false)];
            tensor<fp16, [1, 256, 1]> matmul_26_cast_fp16 = matmul(transpose_x = matmul_26_transpose_x_0, transpose_y = matmul_26_transpose_y_0, x = hidden_state_55_cast_fp16, y = reshape_79_cast_fp16)[name = tensor<string, []>("matmul_26_cast_fp16")];
            tensor<int32, [2]> concat_215 = const()[name = tensor<string, []>("concat_215"), val = tensor<int32, [2]>([1, 256])];
            tensor<fp16, [1, 256]> reshape_80_cast_fp16 = reshape(shape = concat_215, x = matmul_26_cast_fp16)[name = tensor<string, []>("reshape_80_cast_fp16")];
            tensor<int32, [4]> var_502_begin_0 = const()[name = tensor<string, []>("op_502_begin_0"), val = tensor<int32, [4]>([0, 27, 0, 0])];
            tensor<int32, [4]> var_502_end_0 = const()[name = tensor<string, []>("op_502_end_0"), val = tensor<int32, [4]>([1, 28, 256, 16])];
            tensor<bool, [4]> var_502_end_mask_0 = const()[name = tensor<string, []>("op_502_end_mask_0"), val = tensor<bool, [4]>([true, false, true, true])];
            tensor<bool, [4]> var_502_squeeze_mask_0 = const()[name = tensor<string, []>("op_502_squeeze_mask_0"), val = tensor<bool, [4]>([false, true, false, false])];
            tensor<fp16, [1, 256, 16]> var_502_cast_fp16 = slice_by_index(begin = var_502_begin_0, end = var_502_end_0, end_mask = var_502_end_mask_0, squeeze_mask = var_502_squeeze_mask_0, x = clip_1_to_fp16)[name = tensor<string, []>("op_502_cast_fp16")];
            tensor<fp16, [1, 256, 16]> var_503_cast_fp16 = mul(x = var_502_cast_fp16, y = hidden_state_55_cast_fp16)[name = tensor<string, []>("op_503_cast_fp16")];
            tensor<int32, [4]> var_505_begin_0 = const()[name = tensor<string, []>("op_505_begin_0"), val = tensor<int32, [4]>([0, 27, 0, 0])];
            tensor<int32, [4]> var_505_end_0 = const()[name = tensor<string, []>("op_505_end_0"), val = tensor<int32, [4]>([1, 28, 1, 16])];
            tensor<bool, [4]> var_505_end_mask_0 = const()[name = tensor<string, []>("op_505_end_mask_0"), val = tensor<bool, [4]>([true, false, true, true])];
            tensor<bool, [4]> var_505_squeeze_mask_0 = const()[name = tensor<string, []>("op_505_squeeze_mask_0"), val = tensor<bool, [4]>([false, true, false, false])];
            tensor<fp16, [1, 1, 16]> var_505_cast_fp16 = slice_by_index(begin = var_505_begin_0, end = var_505_end_0, end_mask = var_505_end_mask_0, squeeze_mask = var_505_squeeze_mask_0, x = delta_B_u_1_cast_fp16)[name = tensor<string, []>("op_505_cast_fp16")];
            tensor<fp16, [1, 256, 16]> hidden_state_57_cast_fp16 = add(x = var_503_cast_fp16, y = var_505_cast_fp16)[name = tensor<string, []>("hidden_state_57_cast_fp16")];
            tensor<int32, [3]> var_508_begin_0 = const()[name = tensor<string, []>("op_508_begin_0"), val = tensor<int32, [3]>([0, 27, 0])];
            tensor<int32, [3]> var_508_end_0 = const()[name = tensor<string, []>("op_508_end_0"), val = tensor<int32, [3]>([1, 28, 16])];
            tensor<bool, [3]> var_508_end_mask_0 = const()[name = tensor<string, []>("op_508_end_mask_0"), val = tensor<bool, [3]>([true, false, true])];
            tensor<bool, [3]> var_508_squeeze_mask_0 = const()[name = tensor<string, []>("op_508_squeeze_mask_0"), val = tensor<bool, [3]>([false, true, false])];
            tensor<fp16, [1, 16]> var_508_cast_fp16 = slice_by_index(begin = var_508_begin_0, end = var_508_end_0, end_mask = var_508_end_mask_0, squeeze_mask = var_508_squeeze_mask_0, x = C_proj_1_cast_fp16)[name = tensor<string, []>("op_508_cast_fp16")];
            tensor<int32, [3]> concat_220 = const()[name = tensor<string, []>("concat_220"), val = tensor<int32, [3]>([1, 16, 1])];
            tensor<fp16, [1, 16, 1]> reshape_82_cast_fp16 = reshape(shape = concat_220, x = var_508_cast_fp16)[name = tensor<string, []>("reshape_82_cast_fp16")];
            tensor<bool, []> matmul_27_transpose_x_0 = const()[name = tensor<string, []>("matmul_27_transpose_x_0"), val = tensor<bool, []>(false)];
            tensor<bool, []> matmul_27_transpose_y_0 = const()[name = tensor<string, []>("matmul_27_transpose_y_0"), val = tensor<bool, []>(false)];
            tensor<fp16, [1, 256, 1]> matmul_27_cast_fp16 = matmul(transpose_x = matmul_27_transpose_x_0, transpose_y = matmul_27_transpose_y_0, x = hidden_state_57_cast_fp16, y = reshape_82_cast_fp16)[name = tensor<string, []>("matmul_27_cast_fp16")];
            tensor<int32, [2]> concat_223 = const()[name = tensor<string, []>("concat_223"), val = tensor<int32, [2]>([1, 256])];
            tensor<fp16, [1, 256]> reshape_83_cast_fp16 = reshape(shape = concat_223, x = matmul_27_cast_fp16)[name = tensor<string, []>("reshape_83_cast_fp16")];
            tensor<int32, [4]> var_513_begin_0 = const()[name = tensor<string, []>("op_513_begin_0"), val = tensor<int32, [4]>([0, 28, 0, 0])];
            tensor<int32, [4]> var_513_end_0 = const()[name = tensor<string, []>("op_513_end_0"), val = tensor<int32, [4]>([1, 29, 256, 16])];
            tensor<bool, [4]> var_513_end_mask_0 = const()[name = tensor<string, []>("op_513_end_mask_0"), val = tensor<bool, [4]>([true, false, true, true])];
            tensor<bool, [4]> var_513_squeeze_mask_0 = const()[name = tensor<string, []>("op_513_squeeze_mask_0"), val = tensor<bool, [4]>([false, true, false, false])];
            tensor<fp16, [1, 256, 16]> var_513_cast_fp16 = slice_by_index(begin = var_513_begin_0, end = var_513_end_0, end_mask = var_513_end_mask_0, squeeze_mask = var_513_squeeze_mask_0, x = clip_1_to_fp16)[name = tensor<string, []>("op_513_cast_fp16")];
            tensor<fp16, [1, 256, 16]> var_514_cast_fp16 = mul(x = var_513_cast_fp16, y = hidden_state_57_cast_fp16)[name = tensor<string, []>("op_514_cast_fp16")];
            tensor<int32, [4]> var_516_begin_0 = const()[name = tensor<string, []>("op_516_begin_0"), val = tensor<int32, [4]>([0, 28, 0, 0])];
            tensor<int32, [4]> var_516_end_0 = const()[name = tensor<string, []>("op_516_end_0"), val = tensor<int32, [4]>([1, 29, 1, 16])];
            tensor<bool, [4]> var_516_end_mask_0 = const()[name = tensor<string, []>("op_516_end_mask_0"), val = tensor<bool, [4]>([true, false, true, true])];
            tensor<bool, [4]> var_516_squeeze_mask_0 = const()[name = tensor<string, []>("op_516_squeeze_mask_0"), val = tensor<bool, [4]>([false, true, false, false])];
            tensor<fp16, [1, 1, 16]> var_516_cast_fp16 = slice_by_index(begin = var_516_begin_0, end = var_516_end_0, end_mask = var_516_end_mask_0, squeeze_mask = var_516_squeeze_mask_0, x = delta_B_u_1_cast_fp16)[name = tensor<string, []>("op_516_cast_fp16")];
            tensor<fp16, [1, 256, 16]> hidden_state_59_cast_fp16 = add(x = var_514_cast_fp16, y = var_516_cast_fp16)[name = tensor<string, []>("hidden_state_59_cast_fp16")];
            tensor<int32, [3]> var_519_begin_0 = const()[name = tensor<string, []>("op_519_begin_0"), val = tensor<int32, [3]>([0, 28, 0])];
            tensor<int32, [3]> var_519_end_0 = const()[name = tensor<string, []>("op_519_end_0"), val = tensor<int32, [3]>([1, 29, 16])];
            tensor<bool, [3]> var_519_end_mask_0 = const()[name = tensor<string, []>("op_519_end_mask_0"), val = tensor<bool, [3]>([true, false, true])];
            tensor<bool, [3]> var_519_squeeze_mask_0 = const()[name = tensor<string, []>("op_519_squeeze_mask_0"), val = tensor<bool, [3]>([false, true, false])];
            tensor<fp16, [1, 16]> var_519_cast_fp16 = slice_by_index(begin = var_519_begin_0, end = var_519_end_0, end_mask = var_519_end_mask_0, squeeze_mask = var_519_squeeze_mask_0, x = C_proj_1_cast_fp16)[name = tensor<string, []>("op_519_cast_fp16")];
            tensor<int32, [3]> concat_228 = const()[name = tensor<string, []>("concat_228"), val = tensor<int32, [3]>([1, 16, 1])];
            tensor<fp16, [1, 16, 1]> reshape_85_cast_fp16 = reshape(shape = concat_228, x = var_519_cast_fp16)[name = tensor<string, []>("reshape_85_cast_fp16")];
            tensor<bool, []> matmul_28_transpose_x_0 = const()[name = tensor<string, []>("matmul_28_transpose_x_0"), val = tensor<bool, []>(false)];
            tensor<bool, []> matmul_28_transpose_y_0 = const()[name = tensor<string, []>("matmul_28_transpose_y_0"), val = tensor<bool, []>(false)];
            tensor<fp16, [1, 256, 1]> matmul_28_cast_fp16 = matmul(transpose_x = matmul_28_transpose_x_0, transpose_y = matmul_28_transpose_y_0, x = hidden_state_59_cast_fp16, y = reshape_85_cast_fp16)[name = tensor<string, []>("matmul_28_cast_fp16")];
            tensor<int32, [2]> concat_231 = const()[name = tensor<string, []>("concat_231"), val = tensor<int32, [2]>([1, 256])];
            tensor<fp16, [1, 256]> reshape_86_cast_fp16 = reshape(shape = concat_231, x = matmul_28_cast_fp16)[name = tensor<string, []>("reshape_86_cast_fp16")];
            tensor<int32, [4]> var_524_begin_0 = const()[name = tensor<string, []>("op_524_begin_0"), val = tensor<int32, [4]>([0, 29, 0, 0])];
            tensor<int32, [4]> var_524_end_0 = const()[name = tensor<string, []>("op_524_end_0"), val = tensor<int32, [4]>([1, 30, 256, 16])];
            tensor<bool, [4]> var_524_end_mask_0 = const()[name = tensor<string, []>("op_524_end_mask_0"), val = tensor<bool, [4]>([true, false, true, true])];
            tensor<bool, [4]> var_524_squeeze_mask_0 = const()[name = tensor<string, []>("op_524_squeeze_mask_0"), val = tensor<bool, [4]>([false, true, false, false])];
            tensor<fp16, [1, 256, 16]> var_524_cast_fp16 = slice_by_index(begin = var_524_begin_0, end = var_524_end_0, end_mask = var_524_end_mask_0, squeeze_mask = var_524_squeeze_mask_0, x = clip_1_to_fp16)[name = tensor<string, []>("op_524_cast_fp16")];
            tensor<fp16, [1, 256, 16]> var_525_cast_fp16 = mul(x = var_524_cast_fp16, y = hidden_state_59_cast_fp16)[name = tensor<string, []>("op_525_cast_fp16")];
            tensor<int32, [4]> var_527_begin_0 = const()[name = tensor<string, []>("op_527_begin_0"), val = tensor<int32, [4]>([0, 29, 0, 0])];
            tensor<int32, [4]> var_527_end_0 = const()[name = tensor<string, []>("op_527_end_0"), val = tensor<int32, [4]>([1, 30, 1, 16])];
            tensor<bool, [4]> var_527_end_mask_0 = const()[name = tensor<string, []>("op_527_end_mask_0"), val = tensor<bool, [4]>([true, false, true, true])];
            tensor<bool, [4]> var_527_squeeze_mask_0 = const()[name = tensor<string, []>("op_527_squeeze_mask_0"), val = tensor<bool, [4]>([false, true, false, false])];
            tensor<fp16, [1, 1, 16]> var_527_cast_fp16 = slice_by_index(begin = var_527_begin_0, end = var_527_end_0, end_mask = var_527_end_mask_0, squeeze_mask = var_527_squeeze_mask_0, x = delta_B_u_1_cast_fp16)[name = tensor<string, []>("op_527_cast_fp16")];
            tensor<fp16, [1, 256, 16]> hidden_state_61_cast_fp16 = add(x = var_525_cast_fp16, y = var_527_cast_fp16)[name = tensor<string, []>("hidden_state_61_cast_fp16")];
            tensor<int32, [3]> var_530_begin_0 = const()[name = tensor<string, []>("op_530_begin_0"), val = tensor<int32, [3]>([0, 29, 0])];
            tensor<int32, [3]> var_530_end_0 = const()[name = tensor<string, []>("op_530_end_0"), val = tensor<int32, [3]>([1, 30, 16])];
            tensor<bool, [3]> var_530_end_mask_0 = const()[name = tensor<string, []>("op_530_end_mask_0"), val = tensor<bool, [3]>([true, false, true])];
            tensor<bool, [3]> var_530_squeeze_mask_0 = const()[name = tensor<string, []>("op_530_squeeze_mask_0"), val = tensor<bool, [3]>([false, true, false])];
            tensor<fp16, [1, 16]> var_530_cast_fp16 = slice_by_index(begin = var_530_begin_0, end = var_530_end_0, end_mask = var_530_end_mask_0, squeeze_mask = var_530_squeeze_mask_0, x = C_proj_1_cast_fp16)[name = tensor<string, []>("op_530_cast_fp16")];
            tensor<int32, [3]> concat_236 = const()[name = tensor<string, []>("concat_236"), val = tensor<int32, [3]>([1, 16, 1])];
            tensor<fp16, [1, 16, 1]> reshape_88_cast_fp16 = reshape(shape = concat_236, x = var_530_cast_fp16)[name = tensor<string, []>("reshape_88_cast_fp16")];
            tensor<bool, []> matmul_29_transpose_x_0 = const()[name = tensor<string, []>("matmul_29_transpose_x_0"), val = tensor<bool, []>(false)];
            tensor<bool, []> matmul_29_transpose_y_0 = const()[name = tensor<string, []>("matmul_29_transpose_y_0"), val = tensor<bool, []>(false)];
            tensor<fp16, [1, 256, 1]> matmul_29_cast_fp16 = matmul(transpose_x = matmul_29_transpose_x_0, transpose_y = matmul_29_transpose_y_0, x = hidden_state_61_cast_fp16, y = reshape_88_cast_fp16)[name = tensor<string, []>("matmul_29_cast_fp16")];
            tensor<int32, [2]> concat_239 = const()[name = tensor<string, []>("concat_239"), val = tensor<int32, [2]>([1, 256])];
            tensor<fp16, [1, 256]> reshape_89_cast_fp16 = reshape(shape = concat_239, x = matmul_29_cast_fp16)[name = tensor<string, []>("reshape_89_cast_fp16")];
            tensor<int32, [4]> var_535_begin_0 = const()[name = tensor<string, []>("op_535_begin_0"), val = tensor<int32, [4]>([0, 30, 0, 0])];
            tensor<int32, [4]> var_535_end_0 = const()[name = tensor<string, []>("op_535_end_0"), val = tensor<int32, [4]>([1, 31, 256, 16])];
            tensor<bool, [4]> var_535_end_mask_0 = const()[name = tensor<string, []>("op_535_end_mask_0"), val = tensor<bool, [4]>([true, false, true, true])];
            tensor<bool, [4]> var_535_squeeze_mask_0 = const()[name = tensor<string, []>("op_535_squeeze_mask_0"), val = tensor<bool, [4]>([false, true, false, false])];
            tensor<fp16, [1, 256, 16]> var_535_cast_fp16 = slice_by_index(begin = var_535_begin_0, end = var_535_end_0, end_mask = var_535_end_mask_0, squeeze_mask = var_535_squeeze_mask_0, x = clip_1_to_fp16)[name = tensor<string, []>("op_535_cast_fp16")];
            tensor<fp16, [1, 256, 16]> var_536_cast_fp16 = mul(x = var_535_cast_fp16, y = hidden_state_61_cast_fp16)[name = tensor<string, []>("op_536_cast_fp16")];
            tensor<int32, [4]> var_538_begin_0 = const()[name = tensor<string, []>("op_538_begin_0"), val = tensor<int32, [4]>([0, 30, 0, 0])];
            tensor<int32, [4]> var_538_end_0 = const()[name = tensor<string, []>("op_538_end_0"), val = tensor<int32, [4]>([1, 31, 1, 16])];
            tensor<bool, [4]> var_538_end_mask_0 = const()[name = tensor<string, []>("op_538_end_mask_0"), val = tensor<bool, [4]>([true, false, true, true])];
            tensor<bool, [4]> var_538_squeeze_mask_0 = const()[name = tensor<string, []>("op_538_squeeze_mask_0"), val = tensor<bool, [4]>([false, true, false, false])];
            tensor<fp16, [1, 1, 16]> var_538_cast_fp16 = slice_by_index(begin = var_538_begin_0, end = var_538_end_0, end_mask = var_538_end_mask_0, squeeze_mask = var_538_squeeze_mask_0, x = delta_B_u_1_cast_fp16)[name = tensor<string, []>("op_538_cast_fp16")];
            tensor<fp16, [1, 256, 16]> hidden_state_63_cast_fp16 = add(x = var_536_cast_fp16, y = var_538_cast_fp16)[name = tensor<string, []>("hidden_state_63_cast_fp16")];
            tensor<int32, [3]> var_541_begin_0 = const()[name = tensor<string, []>("op_541_begin_0"), val = tensor<int32, [3]>([0, 30, 0])];
            tensor<int32, [3]> var_541_end_0 = const()[name = tensor<string, []>("op_541_end_0"), val = tensor<int32, [3]>([1, 31, 16])];
            tensor<bool, [3]> var_541_end_mask_0 = const()[name = tensor<string, []>("op_541_end_mask_0"), val = tensor<bool, [3]>([true, false, true])];
            tensor<bool, [3]> var_541_squeeze_mask_0 = const()[name = tensor<string, []>("op_541_squeeze_mask_0"), val = tensor<bool, [3]>([false, true, false])];
            tensor<fp16, [1, 16]> var_541_cast_fp16 = slice_by_index(begin = var_541_begin_0, end = var_541_end_0, end_mask = var_541_end_mask_0, squeeze_mask = var_541_squeeze_mask_0, x = C_proj_1_cast_fp16)[name = tensor<string, []>("op_541_cast_fp16")];
            tensor<int32, [3]> concat_244 = const()[name = tensor<string, []>("concat_244"), val = tensor<int32, [3]>([1, 16, 1])];
            tensor<fp16, [1, 16, 1]> reshape_91_cast_fp16 = reshape(shape = concat_244, x = var_541_cast_fp16)[name = tensor<string, []>("reshape_91_cast_fp16")];
            tensor<bool, []> matmul_30_transpose_x_0 = const()[name = tensor<string, []>("matmul_30_transpose_x_0"), val = tensor<bool, []>(false)];
            tensor<bool, []> matmul_30_transpose_y_0 = const()[name = tensor<string, []>("matmul_30_transpose_y_0"), val = tensor<bool, []>(false)];
            tensor<fp16, [1, 256, 1]> matmul_30_cast_fp16 = matmul(transpose_x = matmul_30_transpose_x_0, transpose_y = matmul_30_transpose_y_0, x = hidden_state_63_cast_fp16, y = reshape_91_cast_fp16)[name = tensor<string, []>("matmul_30_cast_fp16")];
            tensor<int32, [2]> concat_247 = const()[name = tensor<string, []>("concat_247"), val = tensor<int32, [2]>([1, 256])];
            tensor<fp16, [1, 256]> reshape_92_cast_fp16 = reshape(shape = concat_247, x = matmul_30_cast_fp16)[name = tensor<string, []>("reshape_92_cast_fp16")];
            tensor<int32, [4]> var_546_begin_0 = const()[name = tensor<string, []>("op_546_begin_0"), val = tensor<int32, [4]>([0, 31, 0, 0])];
            tensor<int32, [4]> var_546_end_0 = const()[name = tensor<string, []>("op_546_end_0"), val = tensor<int32, [4]>([1, 32, 256, 16])];
            tensor<bool, [4]> var_546_end_mask_0 = const()[name = tensor<string, []>("op_546_end_mask_0"), val = tensor<bool, [4]>([true, false, true, true])];
            tensor<bool, [4]> var_546_squeeze_mask_0 = const()[name = tensor<string, []>("op_546_squeeze_mask_0"), val = tensor<bool, [4]>([false, true, false, false])];
            tensor<fp16, [1, 256, 16]> var_546_cast_fp16 = slice_by_index(begin = var_546_begin_0, end = var_546_end_0, end_mask = var_546_end_mask_0, squeeze_mask = var_546_squeeze_mask_0, x = clip_1_to_fp16)[name = tensor<string, []>("op_546_cast_fp16")];
            tensor<fp16, [1, 256, 16]> var_547_cast_fp16 = mul(x = var_546_cast_fp16, y = hidden_state_63_cast_fp16)[name = tensor<string, []>("op_547_cast_fp16")];
            tensor<int32, [4]> var_549_begin_0 = const()[name = tensor<string, []>("op_549_begin_0"), val = tensor<int32, [4]>([0, 31, 0, 0])];
            tensor<int32, [4]> var_549_end_0 = const()[name = tensor<string, []>("op_549_end_0"), val = tensor<int32, [4]>([1, 32, 1, 16])];
            tensor<bool, [4]> var_549_end_mask_0 = const()[name = tensor<string, []>("op_549_end_mask_0"), val = tensor<bool, [4]>([true, false, true, true])];
            tensor<bool, [4]> var_549_squeeze_mask_0 = const()[name = tensor<string, []>("op_549_squeeze_mask_0"), val = tensor<bool, [4]>([false, true, false, false])];
            tensor<fp16, [1, 1, 16]> var_549_cast_fp16 = slice_by_index(begin = var_549_begin_0, end = var_549_end_0, end_mask = var_549_end_mask_0, squeeze_mask = var_549_squeeze_mask_0, x = delta_B_u_1_cast_fp16)[name = tensor<string, []>("op_549_cast_fp16")];
            tensor<fp16, [1, 256, 16]> hidden_state_65_cast_fp16 = add(x = var_547_cast_fp16, y = var_549_cast_fp16)[name = tensor<string, []>("hidden_state_65_cast_fp16")];
            tensor<int32, [3]> var_552_begin_0 = const()[name = tensor<string, []>("op_552_begin_0"), val = tensor<int32, [3]>([0, 31, 0])];
            tensor<int32, [3]> var_552_end_0 = const()[name = tensor<string, []>("op_552_end_0"), val = tensor<int32, [3]>([1, 32, 16])];
            tensor<bool, [3]> var_552_end_mask_0 = const()[name = tensor<string, []>("op_552_end_mask_0"), val = tensor<bool, [3]>([true, false, true])];
            tensor<bool, [3]> var_552_squeeze_mask_0 = const()[name = tensor<string, []>("op_552_squeeze_mask_0"), val = tensor<bool, [3]>([false, true, false])];
            tensor<fp16, [1, 16]> var_552_cast_fp16 = slice_by_index(begin = var_552_begin_0, end = var_552_end_0, end_mask = var_552_end_mask_0, squeeze_mask = var_552_squeeze_mask_0, x = C_proj_1_cast_fp16)[name = tensor<string, []>("op_552_cast_fp16")];
            tensor<int32, [3]> concat_252 = const()[name = tensor<string, []>("concat_252"), val = tensor<int32, [3]>([1, 16, 1])];
            tensor<fp16, [1, 16, 1]> reshape_94_cast_fp16 = reshape(shape = concat_252, x = var_552_cast_fp16)[name = tensor<string, []>("reshape_94_cast_fp16")];
            tensor<bool, []> matmul_31_transpose_x_0 = const()[name = tensor<string, []>("matmul_31_transpose_x_0"), val = tensor<bool, []>(false)];
            tensor<bool, []> matmul_31_transpose_y_0 = const()[name = tensor<string, []>("matmul_31_transpose_y_0"), val = tensor<bool, []>(false)];
            tensor<fp16, [1, 256, 1]> matmul_31_cast_fp16 = matmul(transpose_x = matmul_31_transpose_x_0, transpose_y = matmul_31_transpose_y_0, x = hidden_state_65_cast_fp16, y = reshape_94_cast_fp16)[name = tensor<string, []>("matmul_31_cast_fp16")];
            tensor<int32, [2]> concat_255 = const()[name = tensor<string, []>("concat_255"), val = tensor<int32, [2]>([1, 256])];
            tensor<fp16, [1, 256]> reshape_95_cast_fp16 = reshape(shape = concat_255, x = matmul_31_cast_fp16)[name = tensor<string, []>("reshape_95_cast_fp16")];
            tensor<int32, [4]> var_557_begin_0 = const()[name = tensor<string, []>("op_557_begin_0"), val = tensor<int32, [4]>([0, 32, 0, 0])];
            tensor<int32, [4]> var_557_end_0 = const()[name = tensor<string, []>("op_557_end_0"), val = tensor<int32, [4]>([1, 33, 256, 16])];
            tensor<bool, [4]> var_557_end_mask_0 = const()[name = tensor<string, []>("op_557_end_mask_0"), val = tensor<bool, [4]>([true, false, true, true])];
            tensor<bool, [4]> var_557_squeeze_mask_0 = const()[name = tensor<string, []>("op_557_squeeze_mask_0"), val = tensor<bool, [4]>([false, true, false, false])];
            tensor<fp16, [1, 256, 16]> var_557_cast_fp16 = slice_by_index(begin = var_557_begin_0, end = var_557_end_0, end_mask = var_557_end_mask_0, squeeze_mask = var_557_squeeze_mask_0, x = clip_1_to_fp16)[name = tensor<string, []>("op_557_cast_fp16")];
            tensor<fp16, [1, 256, 16]> var_558_cast_fp16 = mul(x = var_557_cast_fp16, y = hidden_state_65_cast_fp16)[name = tensor<string, []>("op_558_cast_fp16")];
            tensor<int32, [4]> var_560_begin_0 = const()[name = tensor<string, []>("op_560_begin_0"), val = tensor<int32, [4]>([0, 32, 0, 0])];
…
            tensor<fp16, [1, 1, 1, 320]> input_199_cast_fp16 = tanh(x = input_197_cast_fp16)[name = tensor<string, []>("input_199_cast_fp16")];
            tensor<fp16, [1, 1, 1, 1024]> linear_141_cast_fp16 = linear(bias = model_joiner_vocabulary_projection_bias_to_fp16, weight = model_joiner_vocabulary_projection_weight_to_fp16, x = input_199_cast_fp16)[name = tensor<string, []>("linear_141_cast_fp16")];
            tensor<int32, [3]> var_4576_begin_0 = const()[name = tensor<string, []>("op_4576_begin_0"), val = tensor<int32, [3]>([0, 39, 0])];
            tensor<int32, [3]> var_4576_end_0 = const()[name = tensor<string, []>("op_4576_end_0"), val = tensor<int32, [3]>([1, 40, 256])];
            tensor<bool, [3]> var_4576_end_mask_0 = const()[name = tensor<string, []>("op_4576_end_mask_0"), val = tensor<bool, [3]>([true, false, true])];
            tensor<fp16, [1, 1, 256]> var_4576_cast_fp16 = slice_by_index(begin = var_4576_begin_0, end = var_4576_end_0, end_mask = var_4576_end_mask_0, x = acoustic_encoded_cast_fp16)[name = tensor<string, []>("op_4576_cast_fp16")];
            tensor<fp16, [1, 1, 320]> linear_142_cast_fp16 = linear(bias = model_joiner_acoustic_projection_bias_to_fp16, weight = model_joiner_acoustic_projection_weight_to_fp16, x = var_4576_cast_fp16)[name = tensor<string, []>("linear_142_cast_fp16")];
            tensor<int32, [1]> acoustic_broadcast_79_axes_0 = const()[name = tensor<string, []>("acoustic_broadcast_79_axes_0"), val = tensor<int32, [1]>([2])];
            tensor<fp16, [1, 1, 1, 320]> acoustic_broadcast_79_cast_fp16 = expand_dims(axes = acoustic_broadcast_79_axes_0, x = linear_142_cast_fp16)[name = tensor<string, []>("acoustic_broadcast_79_cast_fp16")];
            tensor<fp16, [1, 1, 1, 320]> input_201_cast_fp16 = add(x = acoustic_broadcast_79_cast_fp16, y = linguistic_broadcast_1_cast_fp16)[name = tensor<string, []>("input_201_cast_fp16")];
            tensor<fp16, [1, 1, 1, 320]> input_203_cast_fp16 = tanh(x = input_201_cast_fp16)[name = tensor<string, []>("input_203_cast_fp16")];
            tensor<fp16, [1, 1, 1, 1024]> linear_144_cast_fp16 = linear(bias = model_joiner_vocabulary_projection_bias_to_fp16, weight = model_joiner_vocabulary_projection_weight_to_fp16, x = input_203_cast_fp16)[name = tensor<string, []>("linear_144_cast_fp16")];
            tensor<int32, [3]> var_4609_begin_0 = const()[name = tensor<string, []>("op_4609_begin_0"), val = tensor<int32, [3]>([0, 40, 0])];
            tensor<int32, [3]> var_4609_end_0 = const()[name = tensor<string, []>("op_4609_end_0"), val = tensor<int32, [3]>([1, 41, 256])];
            tensor<bool, [3]> var_4609_end_mask_0 = const()[name = tensor<string, []>("op_4609_end_mask_0"), val = tensor<bool, [3]>([true, false, true])];
            tensor<fp16, [1, 1, 256]> var_4609_cast_fp16 = slice_by_index(begin = var_4609_begin_0, end = var_4609_end_0, end_mask = var_4609_end_mask_0, x = acoustic_encoded_cast_fp16)[name = tensor<string, []>("op_4609_cast_fp16")];
            tensor<fp16, [1, 1, 320]> linear_145_cast_fp16 = linear(bias = model_joiner_acoustic_projection_bias_to_fp16, weight = model_joiner_acoustic_projection_weight_to_fp16, x = var_4609_cast_fp16)[name = tensor<string, []>("linear_145_cast_fp16")];
            tensor<int32, [1]> acoustic_broadcast_81_axes_0 = const()[name = tensor<string, []>("acoustic_broadcast_81_axes_0"), val = tensor<int32, [1]>([2])];
            tensor<fp16, [1, 1, 1, 320]> acoustic_broadcast_81_cast_fp16 = expand_dims(axes = acoustic_broadcast_81_axes_0, x = linear_145_cast_fp16)[name = tensor<string, []>("acoustic_broadcast_81_cast_fp16")];
            tensor<fp16, [1, 1, 1, 320]> input_205_cast_fp16 = add(x = acoustic_broadcast_81_cast_fp16, y = linguistic_broadcast_1_cast_fp16)[name = tensor<string, []>("input_205_cast_fp16")];
            tensor<fp16, [1, 1, 1, 320]> input_207_cast_fp16 = tanh(x = input_205_cast_fp16)[name = tensor<string, []>("input_207_cast_fp16")];
            tensor<fp16, [1, 1, 1, 1024]> linear_147_cast_fp16 = linear(bias = model_joiner_vocabulary_projection_bias_to_fp16, weight = model_joiner_vocabulary_projection_weight_to_fp16, x = input_207_cast_fp16)[name = tensor<string, []>("linear_147_cast_fp16")];
            tensor<int32, [3]> var_4642_begin_0 = const()[name = tensor<string, []>("op_4642_begin_0"), val = tensor<int32, [3]>([0, 41, 0])];
            tensor<int32, [3]> var_4642_end_0 = const()[name = tensor<string, []>("op_4642_end_0"), val = tensor<int32, [3]>([1, 42, 256])];
            tensor<bool, [3]> var_4642_end_mask_0 = const()[name = tensor<string, []>("op_4642_end_mask_0"), val = tensor<bool, [3]>([true, false, true])];
            tensor<fp16, [1, 1, 256]> var_4642_cast_fp16 = slice_by_index(begin = var_4642_begin_0, end = var_4642_end_0, end_mask = var_4642_end_mask_0, x = acoustic_encoded_cast_fp16)[name = tensor<string, []>("op_4642_cast_fp16")];
            tensor<fp16, [1, 1, 320]> linear_148_cast_fp16 = linear(bias = model_joiner_acoustic_projection_bias_to_fp16, weight = model_joiner_acoustic_projection_weight_to_fp16, x = var_4642_cast_fp16)[name = tensor<string, []>("linear_148_cast_fp16")];
            tensor<int32, [1]> acoustic_broadcast_83_axes_0 = const()[name = tensor<string, []>("acoustic_broadcast_83_axes_0"), val = tensor<int32, [1]>([2])];
            tensor<fp16, [1, 1, 1, 320]> acoustic_broadcast_83_cast_fp16 = expand_dims(axes = acoustic_broadcast_83_axes_0, x = linear_148_cast_fp16)[name = tensor<string, []>("acoustic_broadcast_83_cast_fp16")];
            tensor<fp16, [1, 1, 1, 320]> input_209_cast_fp16 = add(x = acoustic_broadcast_83_cast_fp16, y = linguistic_broadcast_1_cast_fp16)[name = tensor<string, []>("input_209_cast_fp16")];
            tensor<fp16, [1, 1, 1, 320]> input_211_cast_fp16 = tanh(x = input_209_cast_fp16)[name = tensor<string, []>("input_211_cast_fp16")];
            tensor<fp16, [1, 1, 1, 1024]> linear_150_cast_fp16 = linear(bias = model_joiner_vocabulary_projection_bias_to_fp16, weight = model_joiner_vocabulary_projection_weight_to_fp16, x = input_211_cast_fp16)[name = tensor<string, []>("linear_150_cast_fp16")];
            tensor<int32, [3]> var_4675_begin_0 = const()[name = tensor<string, []>("op_4675_begin_0"), val = tensor<int32, [3]>([0, 42, 0])];
            tensor<int32, [3]> var_4675_end_0 = const()[name = tensor<string, []>("op_4675_end_0"), val = tensor<int32, [3]>([1, 43, 256])];
            tensor<bool, [3]> var_4675_end_mask_0 = const()[name = tensor<string, []>("op_4675_end_mask_0"), val = tensor<bool, [3]>([true, false, true])];
            tensor<fp16, [1, 1, 256]> var_4675_cast_fp16 = slice_by_index(begin = var_4675_begin_0, end = var_4675_end_0, end_mask = var_4675_end_mask_0, x = acoustic_encoded_cast_fp16)[name = tensor<string, []>("op_4675_cast_fp16")];
            tensor<fp16, [1, 1, 320]> linear_151_cast_fp16 = linear(bias = model_joiner_acoustic_projection_bias_to_fp16, weight = model_joiner_acoustic_projection_weight_to_fp16, x = var_4675_cast_fp16)[name = tensor<string, []>("linear_151_cast_fp16")];
            tensor<int32, [1]> acoustic_broadcast_85_axes_0 = const()[name = tensor<string, []>("acoustic_broadcast_85_axes_0"), val = tensor<int32, [1]>([2])];
            tensor<fp16, [1, 1, 1, 320]> acoustic_broadcast_85_cast_fp16 = expand_dims(axes = acoustic_broadcast_85_axes_0, x = linear_151_cast_fp16)[name = tensor<string, []>("acoustic_broadcast_85_cast_fp16")];
            tensor<fp16, [1, 1, 1, 320]> input_213_cast_fp16 = add(x = acoustic_broadcast_85_cast_fp16, y = linguistic_broadcast_1_cast_fp16)[name = tensor<string, []>("input_213_cast_fp16")];
            tensor<fp16, [1, 1, 1, 320]> input_215_cast_fp16 = tanh(x = input_213_cast_fp16)[name = tensor<string, []>("input_215_cast_fp16")];
            tensor<fp16, [1, 1, 1, 1024]> linear_153_cast_fp16 = linear(bias = model_joiner_vocabulary_projection_bias_to_fp16, weight = model_joiner_vocabulary_projection_weight_to_fp16, x = input_215_cast_fp16)[name = tensor<string, []>("linear_153_cast_fp16")];
            tensor<int32, [3]> var_4708_begin_0 = const()[name = tensor<string, []>("op_4708_begin_0"), val = tensor<int32, [3]>([0, 43, 0])];
            tensor<int32, [3]> var_4708_end_0 = const()[name = tensor<string, []>("op_4708_end_0"), val = tensor<int32, [3]>([1, 44, 256])];
            tensor<bool, [3]> var_4708_end_mask_0 = const()[name = tensor<string, []>("op_4708_end_mask_0"), val = tensor<bool, [3]>([true, false, true])];
            tensor<fp16, [1, 1, 256]> var_4708_cast_fp16 = slice_by_index(begin = var_4708_begin_0, end = var_4708_end_0, end_mask = var_4708_end_mask_0, x = acoustic_encoded_cast_fp16)[name = tensor<string, []>("op_4708_cast_fp16")];
            tensor<fp16, [1, 1, 320]> linear_154_cast_fp16 = linear(bias = model_joiner_acoustic_projection_bias_to_fp16, weight = model_joiner_acoustic_projection_weight_to_fp16, x = var_4708_cast_fp16)[name = tensor<string, []>("linear_154_cast_fp16")];
            tensor<int32, [1]> acoustic_broadcast_87_axes_0 = const()[name = tensor<string, []>("acoustic_broadcast_87_axes_0"), val = tensor<int32, [1]>([2])];
            tensor<fp16, [1, 1, 1, 320]> acoustic_broadcast_87_cast_fp16 = expand_dims(axes = acoustic_broadcast_87_axes_0, x = linear_154_cast_fp16)[name = tensor<string, []>("acoustic_broadcast_87_cast_fp16")];
            tensor<fp16, [1, 1, 1, 320]> input_217_cast_fp16 = add(x = acoustic_broadcast_87_cast_fp16, y = linguistic_broadcast_1_cast_fp16)[name = tensor<string, []>("input_217_cast_fp16")];
            tensor<fp16, [1, 1, 1, 320]> input_219_cast_fp16 = tanh(x = input_217_cast_fp16)[name = tensor<string, []>("input_219_cast_fp16")];
            tensor<fp16, [1, 1, 1, 1024]> linear_156_cast_fp16 = linear(bias = model_joiner_vocabulary_projection_bias_to_fp16, weight = model_joiner_vocabulary_projection_weight_to_fp16, x = input_219_cast_fp16)[name = tensor<string, []>("linear_156_cast_fp16")];
            tensor<int32, [3]> var_4741_begin_0 = const()[name = tensor<string, []>("op_4741_begin_0"), val = tensor<int32, [3]>([0, 44, 0])];
            tensor<int32, [3]> var_4741_end_0 = const()[name = tensor<string, []>("op_4741_end_0"), val = tensor<int32, [3]>([1, 45, 256])];
            tensor<bool, [3]> var_4741_end_mask_0 = const()[name = tensor<string, []>("op_4741_end_mask_0"), val = tensor<bool, [3]>([true, false, true])];
            tensor<fp16, [1, 1, 256]> var_4741_cast_fp16 = slice_by_index(begin = var_4741_begin_0, end = var_4741_end_0, end_mask = var_4741_end_mask_0, x = acoustic_encoded_cast_fp16)[name = tensor<string, []>("op_4741_cast_fp16")];
            tensor<fp16, [1, 1, 320]> linear_157_cast_fp16 = linear(bias = model_joiner_acoustic_projection_bias_to_fp16, weight = model_joiner_acoustic_projection_weight_to_fp16, x = var_4741_cast_fp16)[name = tensor<string, []>("linear_157_cast_fp16")];
            tensor<int32, [1]> acoustic_broadcast_89_axes_0 = const()[name = tensor<string, []>("acoustic_broadcast_89_axes_0"), val = tensor<int32, [1]>([2])];
            tensor<fp16, [1, 1, 1, 320]> acoustic_broadcast_89_cast_fp16 = expand_dims(axes = acoustic_broadcast_89_axes_0, x = linear_157_cast_fp16)[name = tensor<string, []>("acoustic_broadcast_89_cast_fp16")];
            tensor<fp16, [1, 1, 1, 320]> input_221_cast_fp16 = add(x = acoustic_broadcast_89_cast_fp16, y = linguistic_broadcast_1_cast_fp16)[name = tensor<string, []>("input_221_cast_fp16")];
            tensor<fp16, [1, 1, 1, 320]> input_223_cast_fp16 = tanh(x = input_221_cast_fp16)[name = tensor<string, []>("input_223_cast_fp16")];
            tensor<fp16, [1, 1, 1, 1024]> linear_159_cast_fp16 = linear(bias = model_joiner_vocabulary_projection_bias_to_fp16, weight = model_joiner_vocabulary_projection_weight_to_fp16, x = input_223_cast_fp16)[name = tensor<string, []>("linear_159_cast_fp16")];
            tensor<int32, [3]> var_4774_begin_0 = const()[name = tensor<string, []>("op_4774_begin_0"), val = tensor<int32, [3]>([0, 45, 0])];
            tensor<int32, [3]> var_4774_end_0 = const()[name = tensor<string, []>("op_4774_end_0"), val = tensor<int32, [3]>([1, 46, 256])];
            tensor<bool, [3]> var_4774_end_mask_0 = const()[name = tensor<string, []>("op_4774_end_mask_0"), val = tensor<bool, [3]>([true, false, true])];
            tensor<fp16, [1, 1, 256]> var_4774_cast_fp16 = slice_by_index(begin = var_4774_begin_0, end = var_4774_end_0, end_mask = var_4774_end_mask_0, x = acoustic_encoded_cast_fp16)[name = tensor<string, []>("op_4774_cast_fp16")];
            tensor<fp16, [1, 1, 320]> linear_160_cast_fp16 = linear(bias = model_joiner_acoustic_projection_bias_to_fp16, weight = model_joiner_acoustic_projection_weight_to_fp16, x = var_4774_cast_fp16)[name = tensor<string, []>("linear_160_cast_fp16")];
            tensor<int32, [1]> acoustic_broadcast_91_axes_0 = const()[name = tensor<string, []>("acoustic_broadcast_91_axes_0"), val = tensor<int32, [1]>([2])];
            tensor<fp16, [1, 1, 1, 320]> acoustic_broadcast_91_cast_fp16 = expand_dims(axes = acoustic_broadcast_91_axes_0, x = linear_160_cast_fp16)[name = tensor<string, []>("acoustic_broadcast_91_cast_fp16")];
            tensor<fp16, [1, 1, 1, 320]> input_225_cast_fp16 = add(x = acoustic_broadcast_91_cast_fp16, y = linguistic_broadcast_1_cast_fp16)[name = tensor<string, []>("input_225_cast_fp16")];
            tensor<fp16, [1, 1, 1, 320]> input_227_cast_fp16 = tanh(x = input_225_cast_fp16)[name = tensor<string, []>("input_227_cast_fp16")];
            tensor<fp16, [1, 1, 1, 1024]> linear_162_cast_fp16 = linear(bias = model_joiner_vocabulary_projection_bias_to_fp16, weight = model_joiner_vocabulary_projection_weight_to_fp16, x = input_227_cast_fp16)[name = tensor<string, []>("linear_162_cast_fp16")];
            tensor<int32, [3]> var_4807_begin_0 = const()[name = tensor<string, []>("op_4807_begin_0"), val = tensor<int32, [3]>([0, 46, 0])];
            tensor<int32, [3]> var_4807_end_0 = const()[name = tensor<string, []>("op_4807_end_0"), val = tensor<int32, [3]>([1, 47, 256])];
            tensor<bool, [3]> var_4807_end_mask_0 = const()[name = tensor<string, []>("op_4807_end_mask_0"), val = tensor<bool, [3]>([true, false, true])];
            tensor<fp16, [1, 1, 256]> var_4807_cast_fp16 = slice_by_index(begin = var_4807_begin_0, end = var_4807_end_0, end_mask = var_4807_end_mask_0, x = acoustic_encoded_cast_fp16)[name = tensor<string, []>("op_4807_cast_fp16")];
            tensor<fp16, [1, 1, 320]> linear_163_cast_fp16 = linear(bias = model_joiner_acoustic_projection_bias_to_fp16, weight = model_joiner_acoustic_projection_weight_to_fp16, x = var_4807_cast_fp16)[name = tensor<string, []>("linear_163_cast_fp16")];
            tensor<int32, [1]> acoustic_broadcast_93_axes_0 = const()[name = tensor<string, []>("acoustic_broadcast_93_axes_0"), val = tensor<int32, [1]>([2])];
            tensor<fp16, [1, 1, 1, 320]> acoustic_broadcast_93_cast_fp16 = expand_dims(axes = acoustic_broadcast_93_axes_0, x = linear_163_cast_fp16)[name = tensor<string, []>("acoustic_broadcast_93_cast_fp16")];
            tensor<fp16, [1, 1, 1, 320]> input_229_cast_fp16 = add(x = acoustic_broadcast_93_cast_fp16, y = linguistic_broadcast_1_cast_fp16)[name = tensor<string, []>("input_229_cast_fp16")];
            tensor<fp16, [1, 1, 1, 320]> input_231_cast_fp16 = tanh(x = input_229_cast_fp16)[name = tensor<string, []>("input_231_cast_fp16")];
            tensor<fp16, [1, 1, 1, 1024]> linear_165_cast_fp16 = linear(bias = model_joiner_vocabulary_projection_bias_to_fp16, weight = model_joiner_vocabulary_projection_weight_to_fp16, x = input_231_cast_fp16)[name = tensor<string, []>("linear_165_cast_fp16")];
            tensor<int32, [3]> var_4840_begin_0 = const()[name = tensor<string, []>("op_4840_begin_0"), val = tensor<int32, [3]>([0, 47, 0])];
            tensor<int32, [3]> var_4840_end_0 = const()[name = tensor<string, []>("op_4840_end_0"), val = tensor<int32, [3]>([1, 48, 256])];
            tensor<bool, [3]> var_4840_end_mask_0 = const()[name = tensor<string, []>("op_4840_end_mask_0"), val = tensor<bool, [3]>([true, false, true])];
            tensor<fp16, [1, 1, 256]> var_4840_cast_fp16 = slice_by_index(begin = var_4840_begin_0, end = var_4840_end_0, end_mask = var_4840_end_mask_0, x = acoustic_encoded_cast_fp16)[name = tensor<string, []>("op_4840_cast_fp16")];
            tensor<fp16, [1, 1, 320]> linear_166_cast_fp16 = linear(bias = model_joiner_acoustic_projection_bias_to_fp16, weight = model_joiner_acoustic_projection_weight_to_fp16, x = var_4840_cast_fp16)[name = tensor<string, []>("linear_166_cast_fp16")];
            tensor<int32, [1]> acoustic_broadcast_95_axes_0 = const()[name = tensor<string, []>("acoustic_broadcast_95_axes_0"), val = tensor<int32, [1]>([2])];
            tensor<fp16, [1, 1, 1, 320]> acoustic_broadcast_95_cast_fp16 = expand_dims(axes = acoustic_broadcast_95_axes_0, x = linear_166_cast_fp16)[name = tensor<string, []>("acoustic_broadcast_95_cast_fp16")];
            tensor<fp16, [1, 1, 1, 320]> input_233_cast_fp16 = add(x = acoustic_broadcast_95_cast_fp16, y = linguistic_broadcast_1_cast_fp16)[name = tensor<string, []>("input_233_cast_fp16")];
            tensor<fp16, [1, 1, 1, 320]> input_235_cast_fp16 = tanh(x = input_233_cast_fp16)[name = tensor<string, []>("input_235_cast_fp16")];
            tensor<fp16, [1, 1, 1, 1024]> linear_168_cast_fp16 = linear(bias = model_joiner_vocabulary_projection_bias_to_fp16, weight = model_joiner_vocabulary_projection_weight_to_fp16, x = input_235_cast_fp16)[name = tensor<string, []>("linear_168_cast_fp16")];
            tensor<int32, [3]> var_4873_begin_0 = const()[name = tensor<string, []>("op_4873_begin_0"), val = tensor<int32, [3]>([0, 48, 0])];
            tensor<int32, [3]> var_4873_end_0 = const()[name = tensor<string, []>("op_4873_end_0"), val = tensor<int32, [3]>([1, 49, 256])];
            tensor<bool, [3]> var_4873_end_mask_0 = const()[name = tensor<string, []>("op_4873_end_mask_0"), val = tensor<bool, [3]>([true, false, true])];
            tensor<fp16, [1, 1, 256]> var_4873_cast_fp16 = slice_by_index(begin = var_4873_begin_0, end = var_4873_end_0, end_mask = var_4873_end_mask_0, x = acoustic_encoded_cast_fp16)[name = tensor<string, []>("op_4873_cast_fp16")];
            tensor<fp16, [1, 1, 320]> linear_169_cast_fp16 = linear(bias = model_joiner_acoustic_projection_bias_to_fp16, weight = model_joiner_acoustic_projection_weight_to_fp16, x = var_4873_cast_fp16)[name = tensor<string, []>("linear_169_cast_fp16")];
            tensor<int32, [1]> acoustic_broadcast_97_axes_0 = const()[name = tensor<string, []>("acoustic_broadcast_97_axes_0"), val = tensor<int32, [1]>([2])];
            tensor<fp16, [1, 1, 1, 320]> acoustic_broadcast_97_cast_fp16 = expand_dims(axes = acoustic_broadcast_97_axes_0, x = linear_169_cast_fp16)[name = tensor<string, []>("acoustic_broadcast_97_cast_fp16")];
            tensor<fp16, [1, 1, 1, 320]> input_237_cast_fp16 = add(x = acoustic_broadcast_97_cast_fp16, y = linguistic_broadcast_1_cast_fp16)[name = tensor<string, []>("input_237_cast_fp16")];
            tensor<fp16, [1, 1, 1, 320]> input_239_cast_fp16 = tanh(x = input_237_cast_fp16)[name = tensor<string, []>("input_239_cast_fp16")];
            tensor<fp16, [1, 1, 1, 1024]> linear_171_cast_fp16 = linear(bias = model_joiner_vocabulary_projection_bias_to_fp16, weight = model_joiner_vocabulary_projection_weight_to_fp16, x = input_239_cast_fp16)[name = tensor<string, []>("linear_171_cast_fp16")];
            tensor<int32, [3]> var_4906_begin_0 = const()[name = tensor<string, []>("op_4906_begin_0"), val = tensor<int32, [3]>([0, 49, 0])];
            tensor<int32, [3]> var_4906_end_0 = const()[name = tensor<string, []>("op_4906_end_0"), val = tensor<int32, [3]>([1, 50, 256])];
            tensor<bool, [3]> var_4906_end_mask_0 = const()[name = tensor<string, []>("op_4906_end_mask_0"), val = tensor<bool, [3]>([true, false, true])];
            tensor<fp16, [1, 1, 256]> var_4906_cast_fp16 = slice_by_index(begin = var_4906_begin_0, end = var_4906_end_0, end_mask = var_4906_end_mask_0, x = acoustic_encoded_cast_fp16)[name = tensor<string, []>("op_4906_cast_fp16")];
            tensor<fp16, [1, 1, 320]> linear_172_cast_fp16 = linear(bias = model_joiner_acoustic_projection_bias_to_fp16, weight = model_joiner_acoustic_projection_weight_to_fp16, x = var_4906_cast_fp16)[name = tensor<string, []>("linear_172_cast_fp16")];
            tensor<int32, [1]> acoustic_broadcast_99_axes_0 = const()[name = tensor<string, []>("acoustic_broadcast_99_axes_0"), val = tensor<int32, [1]>([2])];
            tensor<fp16, [1, 1, 1, 320]> acoustic_broadcast_99_cast_fp16 = expand_dims(axes = acoustic_broadcast_99_axes_0, x = linear_172_cast_fp16)[name = tensor<string, []>("acoustic_broadcast_99_cast_fp16")];
            tensor<fp16, [1, 1, 1, 320]> input_241_cast_fp16 = add(x = acoustic_broadcast_99_cast_fp16, y = linguistic_broadcast_1_cast_fp16)[name = tensor<string, []>("input_241_cast_fp16")];
            tensor<fp16, [1, 1, 1, 320]> input_243_cast_fp16 = tanh(x = input_241_cast_fp16)[name = tensor<string, []>("input_243_cast_fp16")];
            tensor<fp16, [1, 1, 1, 1024]> linear_174_cast_fp16 = linear(bias = model_joiner_vocabulary_projection_bias_to_fp16, weight = model_joiner_vocabulary_projection_weight_to_fp16, x = input_243_cast_fp16)[name = tensor<string, []>("linear_174_cast_fp16")];
            tensor<int32, [3]> var_4939_begin_0 = const()[name = tensor<string, []>("op_4939_begin_0"), val = tensor<int32, [3]>([0, 50, 0])];
            tensor<int32, [3]> var_4939_end_0 = const()[name = tensor<string, []>("op_4939_end_0"), val = tensor<int32, [3]>([1, 51, 256])];
            tensor<bool, [3]> var_4939_end_mask_0 = const()[name = tensor<string, []>("op_4939_end_mask_0"), val = tensor<bool, [3]>([true, false, true])];
            tensor<fp16, [1, 1, 256]> var_4939_cast_fp16 = slice_by_index(begin = var_4939_begin_0, end = var_4939_end_0, end_mask = var_4939_end_mask_0, x = acoustic_encoded_cast_fp16)[name = tensor<string, []>("op_4939_cast_fp16")];
            tensor<fp16, [1, 1, 320]> linear_175_cast_fp16 = linear(bias = model_joiner_acoustic_projection_bias_to_fp16, weight = model_joiner_acoustic_projection_weight_to_fp16, x = var_4939_cast_fp16)[name = tensor<string, []>("linear_175_cast_fp16")];
            tensor<int32, [1]> acoustic_broadcast_101_axes_0 = const()[name = tensor<string, []>("acoustic_broadcast_101_axes_0"), val = tensor<int32, [1]>([2])];
            tensor<fp16, [1, 1, 1, 320]> acoustic_broadcast_101_cast_fp16 = expand_dims(axes = acoustic_broadcast_101_axes_0, x = linear_175_cast_fp16)[name = tensor<string, []>("acoustic_broadcast_101_cast_fp16")];
            tensor<fp16, [1, 1, 1, 320]> input_245_cast_fp16 = add(x = acoustic_broadcast_101_cast_fp16, y = linguistic_broadcast_1_cast_fp16)[name = tensor<string, []>("input_245_cast_fp16")];
            tensor<fp16, [1, 1, 1, 320]> input_247_cast_fp16 = tanh(x = input_245_cast_fp16)[name = tensor<string, []>("input_247_cast_fp16")];
            tensor<fp16, [1, 1, 1, 1024]> linear_177_cast_fp16 = linear(bias = model_joiner_vocabulary_projection_bias_to_fp16, weight = model_joiner_vocabulary_projection_weight_to_fp16, x = input_247_cast_fp16)[name = tensor<string, []>("linear_177_cast_fp16")];
            tensor<int32, [3]> var_4972_begin_0 = const()[name = tensor<string, []>("op_4972_begin_0"), val = tensor<int32, [3]>([0, 51, 0])];
            tensor<int32, [3]> var_4972_end_0 = const()[name = tensor<string, []>("op_4972_end_0"), val = tensor<int32, [3]>([1, 52, 256])];
            tensor<bool, [3]> var_4972_end_mask_0 = const()[name = tensor<string, []>("op_4972_end_mask_0"), val = tensor<bool, [3]>([true, false, true])];
            tensor<fp16, [1, 1, 256]> var_4972_cast_fp16 = slice_by_index(begin = var_4972_begin_0, end = var_4972_end_0, end_mask = var_4972_end_mask_0, x = acoustic_encoded_cast_fp16)[name = tensor<string, []>("op_4972_cast_fp16")];
            tensor<fp16, [1, 1, 320]> linear_178_cast_fp16 = linear(bias = model_joiner_acoustic_projection_bias_to_fp16, weight = model_joiner_acoustic_projection_weight_to_fp16, x = var_4972_cast_fp16)[name = tensor<string, []>("linear_178_cast_fp16")];
            tensor<int32, [1]> acoustic_broadcast_103_axes_0 = const()[name = tensor<string, []>("acoustic_broadcast_103_axes_0"), val = tensor<int32, [1]>([2])];
            tensor<fp16, [1, 1, 1, 320]> acoustic_broadcast_103_cast_fp16 = expand_dims(axes = acoustic_broadcast_103_axes_0, x = linear_178_cast_fp16)[name = tensor<string, []>("acoustic_broadcast_103_cast_fp16")];
            tensor<fp16, [1, 1, 1, 320]> input_249_cast_fp16 = add(x = acoustic_broadcast_103_cast_fp16, y = linguistic_broadcast_1_cast_fp16)[name = tensor<string, []>("input_249_cast_fp16")];
            tensor<fp16, [1, 1, 1, 320]> input_251_cast_fp16 = tanh(x = input_249_cast_fp16)[name = tensor<string, []>("input_251_cast_fp16")];
            tensor<fp16, [1, 1, 1, 1024]> linear_180_cast_fp16 = linear(bias = model_joiner_vocabulary_projection_bias_to_fp16, weight = model_joiner_vocabulary_projection_weight_to_fp16, x = input_251_cast_fp16)[name = tensor<string, []>("linear_180_cast_fp16")];
            tensor<int32, [3]> var_5005_begin_0 = const()[name = tensor<string, []>("op_5005_begin_0"), val = tensor<int32, [3]>([0, 52, 0])];
            tensor<int32, [3]> var_5005_end_0 = const()[name = tensor<string, []>("op_5005_end_0"), val = tensor<int32, [3]>([1, 53, 256])];
            tensor<bool, [3]> var_5005_end_mask_0 = const()[name = tensor<string, []>("op_5005_end_mask_0"), val = tensor<bool, [3]>([true, false, true])];
            tensor<fp16, [1, 1, 256]> var_5005_cast_fp16 = slice_by_index(begin = var_5005_begin_0, end = var_5005_end_0, end_mask = var_5005_end_mask_0, x = acoustic_encoded_cast_fp16)[name = tensor<string, []>("op_5005_cast_fp16")];
            tensor<fp16, [1, 1, 320]> linear_181_cast_fp16 = linear(bias = model_joiner_acoustic_projection_bias_to_fp16, weight = model_joiner_acoustic_projection_weight_to_fp16, x = var_5005_cast_fp16)[name = tensor<string, []>("linear_181_cast_fp16")];
            tensor<int32, [1]> acoustic_broadcast_105_axes_0 = const()[name = tensor<string, []>("acoustic_broadcast_105_axes_0"), val = tensor<int32, [1]>([2])];
            tensor<fp16, [1, 1, 1, 320]> acoustic_broadcast_105_cast_fp16 = expand_dims(axes = acoustic_broadcast_105_axes_0, x = linear_181_cast_fp16)[name = tensor<string, []>("acoustic_broadcast_105_cast_fp16")];
            tensor<fp16, [1, 1, 1, 320]> input_253_cast_fp16 = add(x = acoustic_broadcast_105_cast_fp16, y = linguistic_broadcast_1_cast_fp16)[name = tensor<string, []>("input_253_cast_fp16")];
            tensor<fp16, [1, 1, 1, 320]> input_255_cast_fp16 = tanh(x = input_253_cast_fp16)[name = tensor<string, []>("input_255_cast_fp16")];
            tensor<fp16, [1, 1, 1, 1024]> linear_183_cast_fp16 = linear(bias = model_joiner_vocabulary_projection_bias_to_fp16, weight = model_joiner_vocabulary_projection_weight_to_fp16, x = input_255_cast_fp16)[name = tensor<string, []>("linear_183_cast_fp16")];
            tensor<int32, [3]> var_5038_begin_0 = const()[name = tensor<string, []>("op_5038_begin_0"), val = tensor<int32, [3]>([0, 53, 0])];
            tensor<int32, [3]> var_5038_end_0 = const()[name = tensor<string, []>("op_5038_end_0"), val = tensor<int32, [3]>([1, 54, 256])];
            tensor<bool, [3]> var_5038_end_mask_0 = const()[name = tensor<string, []>("op_5038_end_mask_0"), val = tensor<bool, [3]>([true, false, true])];
            tensor<fp16, [1, 1, 256]> var_5038_cast_fp16 = slice_by_index(begin = var_5038_begin_0, end = var_5038_end_0, end_mask = var_5038_end_mask_0, x = acoustic_encoded_cast_fp16)[name = tensor<string, []>("op_5038_cast_fp16")];
            tensor<fp16, [1, 1, 320]> linear_184_cast_fp16 = linear(bias = model_joiner_acoustic_projection_bias_to_fp16, weight = model_joiner_acoustic_projection_weight_to_fp16, x = var_5038_cast_fp16)[name = tensor<string, []>("linear_184_cast_fp16")];
            tensor<int32, [1]> acoustic_broadcast_107_axes_0 = const()[name = tensor<string, []>("acoustic_broadcast_107_axes_0"), val = tensor<int32, [1]>([2])];
            tensor<fp16, [1, 1, 1, 320]> acoustic_broadcast_107_cast_fp16 = expand_dims(axes = acoustic_broadcast_107_axes_0, x = linear_184_cast_fp16)[name = tensor<string, []>("acoustic_broadcast_107_cast_fp16")];
            tensor<fp16, [1, 1, 1, 320]> input_257_cast_fp16 = add(x = acoustic_broadcast_107_cast_fp16, y = linguistic_broadcast_1_cast_fp16)[name = tensor<string, []>("input_257_cast_fp16")];
            tensor<fp16, [1, 1, 1, 320]> input_259_cast_fp16 = tanh(x = input_257_cast_fp16)[name = tensor<string, []>("input_259_cast_fp16")];
            tensor<fp16, [1, 1, 1, 1024]> linear_186_cast_fp16 = linear(bias = model_joiner_vocabulary_projection_bias_to_fp16, weight = model_joiner_vocabulary_projection_weight_to_fp16, x = input_259_cast_fp16)[name = tensor<string, []>("linear_186_cast_fp16")];
            tensor<int32, [3]> var_5071_begin_0 = const()[name = tensor<string, []>("op_5071_begin_0"), val = tensor<int32, [3]>([0, 54, 0])];
            tensor<int32, [3]> var_5071_end_0 = const()[name = tensor<string, []>("op_5071_end_0"), val = tensor<int32, [3]>([1, 55, 256])];
            tensor<bool, [3]> var_5071_end_mask_0 = const()[name = tensor<string, []>("op_5071_end_mask_0"), val = tensor<bool, [3]>([true, false, true])];
            tensor<fp16, [1, 1, 256]> var_5071_cast_fp16 = slice_by_index(begin = var_5071_begin_0, end = var_5071_end_0, end_mask = var_5071_end_mask_0, x = acoustic_encoded_cast_fp16)[name = tensor<string, []>("op_5071_cast_fp16")];
            tensor<fp16, [1, 1, 320]> linear_187_cast_fp16 = linear(bias = model_joiner_acoustic_projection_bias_to_fp16, weight = model_joiner_acoustic_projection_weight_to_fp16, x = var_5071_cast_fp16)[name = tensor<string, []>("linear_187_cast_fp16")];
            tensor<int32, [1]> acoustic_broadcast_109_axes_0 = const()[name = tensor<string, []>("acoustic_broadcast_109_axes_0"), val = tensor<int32, [1]>([2])];
            tensor<fp16, [1, 1, 1, 320]> acoustic_broadcast_109_cast_fp16 = expand_dims(axes = acoustic_broadcast_109_axes_0, x = linear_187_cast_fp16)[name = tensor<string, []>("acoustic_broadcast_109_cast_fp16")];
            tensor<fp16, [1, 1, 1, 320]> input_261_cast_fp16 = add(x = acoustic_broadcast_109_cast_fp16, y = linguistic_broadcast_1_cast_fp16)[name = tensor<string, []>("input_261_cast_fp16")];
            tensor<fp16, [1, 1, 1, 320]> input_263_cast_fp16 = tanh(x = input_261_cast_fp16)[name = tensor<string, []>("input_263_cast_fp16")];
            tensor<fp16, [1, 1, 1, 1024]> linear_189_cast_fp16 = linear(bias = model_joiner_vocabulary_projection_bias_to_fp16, weight = model_joiner_vocabulary_projection_weight_to_fp16, x = input_263_cast_fp16)[name = tensor<string, []>("linear_189_cast_fp16")];
            tensor<int32, [3]> var_5104_begin_0 = const()[name = tensor<string, []>("op_5104_begin_0"), val = tensor<int32, [3]>([0, 55, 0])];
            tensor<int32, [3]> var_5104_end_0 = const()[name = tensor<string, []>("op_5104_end_0"), val = tensor<int32, [3]>([1, 56, 256])];
            tensor<bool, [3]> var_5104_end_mask_0 = const()[name = tensor<string, []>("op_5104_end_mask_0"), val = tensor<bool, [3]>([true, false, true])];
            tensor<fp16, [1, 1, 256]> var_5104_cast_fp16 = slice_by_index(begin = var_5104_begin_0, end = var_5104_end_0, end_mask = var_5104_end_mask_0, x = acoustic_encoded_cast_fp16)[name = tensor<string, []>("op_5104_cast_fp16")];
            tensor<fp16, [1, 1, 320]> linear_190_cast_fp16 = linear(bias = model_joiner_acoustic_projection_bias_to_fp16, weight = model_joiner_acoustic_projection_weight_to_fp16, x = var_5104_cast_fp16)[name = tensor<string, []>("linear_190_cast_fp16")];
            tensor<int32, [1]> acoustic_broadcast_111_axes_0 = const()[name = tensor<string, []>("acoustic_broadcast_111_axes_0"), val = tensor<int32, [1]>([2])];
            tensor<fp16, [1, 1, 1, 320]> acoustic_broadcast_111_cast_fp16 = expand_dims(axes = acoustic_broadcast_111_axes_0, x = linear_190_cast_fp16)[name = tensor<string, []>("acoustic_broadcast_111_cast_fp16")];
            tensor<fp16, [1, 1, 1, 320]> input_265_cast_fp16 = add(x = acoustic_broadcast_111_cast_fp16, y = linguistic_broadcast_1_cast_fp16)[name = tensor<string, []>("input_265_cast_fp16")];
            tensor<fp16, [1, 1, 1, 320]> input_267_cast_fp16 = tanh(x = input_265_cast_fp16)[name = tensor<string, []>("input_267_cast_fp16")];
            tensor<fp16, [1, 1, 1, 1024]> linear_192_cast_fp16 = linear(bias = model_joiner_vocabulary_projection_bias_to_fp16, weight = model_joiner_vocabulary_projection_weight_to_fp16, x = input_267_cast_fp16)[name = tensor<string, []>("linear_192_cast_fp16")];
            tensor<int32, [3]> var_5137_begin_0 = const()[name = tensor<string, []>("op_5137_begin_0"), val = tensor<int32, [3]>([0, 56, 0])];
            tensor<int32, [3]> var_5137_end_0 = const()[name = tensor<string, []>("op_5137_end_0"), val = tensor<int32, [3]>([1, 57, 256])];
            tensor<bool, [3]> var_5137_end_mask_0 = const()[name = tensor<string, []>("op_5137_end_mask_0"), val = tensor<bool, [3]>([true, false, true])];
            tensor<fp16, [1, 1, 256]> var_5137_cast_fp16 = slice_by_index(begin = var_5137_begin_0, end = var_5137_end_0, end_mask = var_5137_end_mask_0, x = acoustic_encoded_cast_fp16)[name = tensor<string, []>("op_5137_cast_fp16")];
            tensor<fp16, [1, 1, 320]> linear_193_cast_fp16 = linear(bias = model_joiner_acoustic_projection_bias_to_fp16, weight = model_joiner_acoustic_projection_weight_to_fp16, x = var_5137_cast_fp16)[name = tensor<string, []>("linear_193_cast_fp16")];
            tensor<int32, [1]> acoustic_broadcast_113_axes_0 = const()[name = tensor<string, []>("acoustic_broadcast_113_axes_0"), val = tensor<int32, [1]>([2])];
            tensor<fp16, [1, 1, 1, 320]> acoustic_broadcast_113_cast_fp16 = expand_dims(axes = acoustic_broadcast_113_axes_0, x = linear_193_cast_fp16)[name = tensor<string, []>("acoustic_broadcast_113_cast_fp16")];
            tensor<fp16, [1, 1, 1, 320]> input_269_cast_fp16 = add(x = acoustic_broadcast_113_cast_fp16, y = linguistic_broadcast_1_cast_fp16)[name = tensor<string, []>("input_269_cast_fp16")];
            tensor<fp16, [1, 1, 1, 320]> input_271_cast_fp16 = tanh(x = input_269_cast_fp16)[name = tensor<string, []>("input_271_cast_fp16")];
            tensor<fp16, [1, 1, 1, 1024]> linear_195_cast_fp16 = linear(bias = model_joiner_vocabulary_projection_bias_to_fp16, weight = model_joiner_vocabulary_projection_weight_to_fp16, x = input_271_cast_fp16)[name = tensor<string, []>("linear_195_cast_fp16")];
            tensor<int32, [3]> var_5170_begin_0 = const()[name = tensor<string, []>("op_5170_begin_0"), val = tensor<int32, [3]>([0, 57, 0])];
            tensor<int32, [3]> var_5170_end_0 = const()[name = tensor<string, []>("op_5170_end_0"), val = tensor<int32, [3]>([1, 58, 256])];
            tensor<bool, [3]> var_5170_end_mask_0 = const()[name = tensor<string, []>("op_5170_end_mask_0"), val = tensor<bool, [3]>([true, false, true])];
            tensor<fp16, [1, 1, 256]> var_5170_cast_fp16 = slice_by_index(begin = var_5170_begin_0, end = var_5170_end_0, end_mask = var_5170_end_mask_0, x = acoustic_encoded_cast_fp16)[name = tensor<string, []>("op_5170_cast_fp16")];
            tensor<fp16, [1, 1, 320]> linear_196_cast_fp16 = linear(bias = model_joiner_acoustic_projection_bias_to_fp16, weight = model_joiner_acoustic_projection_weight_to_fp16, x = var_5170_cast_fp16)[name = tensor<string, []>("linear_196_cast_fp16")];
            tensor<int32, [1]> acoustic_broadcast_115_axes_0 = const()[name = tensor<string, []>("acoustic_broadcast_115_axes_0"), val = tensor<int32, [1]>([2])];
            tensor<fp16, [1, 1, 1, 320]> acoustic_broadcast_115_cast_fp16 = expand_dims(axes = acoustic_broadcast_115_axes_0, x = linear_196_cast_fp16)[name = tensor<string, []>("acoustic_broadcast_115_cast_fp16")];
            tensor<fp16, [1, 1, 1, 320]> input_273_cast_fp16 = add(x = acoustic_broadcast_115_cast_fp16, y = linguistic_broadcast_1_cast_fp16)[name = tensor<string, []>("input_273_cast_fp16")];
            tensor<fp16, [1, 1, 1, 320]> input_275_cast_fp16 = tanh(x = input_273_cast_fp16)[name = tensor<string, []>("input_275_cast_fp16")];
            tensor<fp16, [1, 1, 1, 1024]> linear_198_cast_fp16 = linear(bias = model_joiner_vocabulary_projection_bias_to_fp16, weight = model_joiner_vocabulary_projection_weight_to_fp16, x = input_275_cast_fp16)[name = tensor<string, []>("linear_198_cast_fp16")];
            tensor<int32, [3]> var_5203_begin_0 = const()[name = tensor<string, []>("op_5203_begin_0"), val = tensor<int32, [3]>([0, 58, 0])];
            tensor<int32, [3]> var_5203_end_0 = const()[name = tensor<string, []>("op_5203_end_0"), val = tensor<int32, [3]>([1, 59, 256])];
            tensor<bool, [3]> var_5203_end_mask_0 = const()[name = tensor<string, []>("op_5203_end_mask_0"), val = tensor<bool, [3]>([true, false, true])];
            tensor<fp16, [1, 1, 256]> var_5203_cast_fp16 = slice_by_index(begin = var_5203_begin_0, end = var_5203_end_0, end_mask = var_5203_end_mask_0, x = acoustic_encoded_cast_fp16)[name = tensor<string, []>("op_5203_cast_fp16")];
            tensor<fp16, [1, 1, 320]> linear_199_cast_fp16 = linear(bias = model_joiner_acoustic_projection_bias_to_fp16, weight = model_joiner_acoustic_projection_weight_to_fp16, x = var_5203_cast_fp16)[name = tensor<string, []>("linear_199_cast_fp16")];
            tensor<int32, [1]> acoustic_broadcast_117_axes_0 = const()[name = tensor<string, []>("acoustic_broadcast_117_axes_0"), val = tensor<int32, [1]>([2])];
            tensor<fp16, [1, 1, 1, 320]> acoustic_broadcast_117_cast_fp16 = expand_dims(axes = acoustic_broadcast_117_axes_0, x = linear_199_cast_fp16)[name = tensor<string, []>("acoustic_broadcast_117_cast_fp16")];
            tensor<fp16, [1, 1, 1, 320]> input_277_cast_fp16 = add(x = acoustic_broadcast_117_cast_fp16, y = linguistic_broadcast_1_cast_fp16)[name = tensor<string, []>("input_277_cast_fp16")];
            tensor<fp16, [1, 1, 1, 320]> input_279_cast_fp16 = tanh(x = input_277_cast_fp16)[name = tensor<string, []>("input_279_cast_fp16")];
            tensor<fp16, [1, 1, 1, 1024]> linear_201_cast_fp16 = linear(bias = model_joiner_vocabulary_projection_bias_to_fp16, weight = model_joiner_vocabulary_projection_weight_to_fp16, x = input_279_cast_fp16)[name = tensor<string, []>("linear_201_cast_fp16")];
            tensor<int32, [3]> var_5236_begin_0 = const()[name = tensor<string, []>("op_5236_begin_0"), val = tensor<int32, [3]>([0, 59, 0])];
            tensor<int32, [3]> var_5236_end_0 = const()[name = tensor<string, []>("op_5236_end_0"), val = tensor<int32, [3]>([1, 60, 256])];
            tensor<bool, [3]> var_5236_end_mask_0 = const()[name = tensor<string, []>("op_5236_end_mask_0"), val = tensor<bool, [3]>([true, false, true])];
            tensor<fp16, [1, 1, 256]> var_5236_cast_fp16 = slice_by_index(begin = var_5236_begin_0, end = var_5236_end_0, end_mask = var_5236_end_mask_0, x = acoustic_encoded_cast_fp16)[name = tensor<string, []>("op_5236_cast_fp16")];
            tensor<fp16, [1, 1, 320]> linear_202_cast_fp16 = linear(bias = model_joiner_acoustic_projection_bias_to_fp16, weight = model_joiner_acoustic_projection_weight_to_fp16, x = var_5236_cast_fp16)[name = tensor<string, []>("linear_202_cast_fp16")];
            tensor<int32, [1]> acoustic_broadcast_119_axes_0 = const()[name = tensor<string, []>("acoustic_broadcast_119_axes_0"), val = tensor<int32, [1]>([2])];
            tensor<fp16, [1, 1, 1, 320]> acoustic_broadcast_119_cast_fp16 = expand_dims(axes = acoustic_broadcast_119_axes_0, x = linear_202_cast_fp16)[name = tensor<string, []>("acoustic_broadcast_119_cast_fp16")];
            tensor<fp16, [1, 1, 1, 320]> input_281_cast_fp16 = add(x = acoustic_broadcast_119_cast_fp16, y = linguistic_broadcast_1_cast_fp16)[name = tensor<string, []>("input_281_cast_fp16")];
            tensor<fp16, [1, 1, 1, 320]> input_283_cast_fp16 = tanh(x = input_281_cast_fp16)[name = tensor<string, []>("input_283_cast_fp16")];
            tensor<fp16, [1, 1, 1, 1024]> linear_204_cast_fp16 = linear(bias = model_joiner_vocabulary_projection_bias_to_fp16, weight = model_joiner_vocabulary_projection_weight_to_fp16, x = input_283_cast_fp16)[name = tensor<string, []>("linear_204_cast_fp16")];
            tensor<int32, [3]> var_5269_begin_0 = const()[name = tensor<string, []>("op_5269_begin_0"), val = tensor<int32, [3]>([0, 60, 0])];
            tensor<int32, [3]> var_5269_end_0 = const()[name = tensor<string, []>("op_5269_end_0"), val = tensor<int32, [3]>([1, 61, 256])];
            tensor<bool, [3]> var_5269_end_mask_0 = const()[name = tensor<string, []>("op_5269_end_mask_0"), val = tensor<bool, [3]>([true, false, true])];
            tensor<fp16, [1, 1, 256]> var_5269_cast_fp16 = slice_by_index(begin = var_5269_begin_0, end = var_5269_end_0, end_mask = var_5269_end_mask_0, x = acoustic_encoded_cast_fp16)[name = tensor<string, []>("op_5269_cast_fp16")];
            tensor<fp16, [1, 1, 320]> linear_205_cast_fp16 = linear(bias = model_joiner_acoustic_projection_bias_to_fp16, weight = model_joiner_acoustic_projection_weight_to_fp16, x = var_5269_cast_fp16)[name = tensor<string, []>("linear_205_cast_fp16")];
            tensor<int32, [1]> acoustic_broadcast_121_axes_0 = const()[name = tensor<string, []>("acoustic_broadcast_121_axes_0"), val = tensor<int32, [1]>([2])];
            tensor<fp16, [1, 1, 1, 320]> acoustic_broadcast_121_cast_fp16 = expand_dims(axes = acoustic_broadcast_121_axes_0, x = linear_205_cast_fp16)[name = tensor<string, []>("acoustic_broadcast_121_cast_fp16")];
            tensor<fp16, [1, 1, 1, 320]> input_285_cast_fp16 = add(x = acoustic_broadcast_121_cast_fp16, y = linguistic_broadcast_1_cast_fp16)[name = tensor<string, []>("input_285_cast_fp16")];
            tensor<fp16, [1, 1, 1, 320]> input_287_cast_fp16 = tanh(x = input_285_cast_fp16)[name = tensor<string, []>("input_287_cast_fp16")];
            tensor<fp16, [1, 1, 1, 1024]> linear_207_cast_fp16 = linear(bias = model_joiner_vocabulary_projection_bias_to_fp16, weight = model_joiner_vocabulary_projection_weight_to_fp16, x = input_287_cast_fp16)[name = tensor<string, []>("linear_207_cast_fp16")];
            tensor<int32, [3]> var_5302_begin_0 = const()[name = tensor<string, []>("op_5302_begin_0"), val = tensor<int32, [3]>([0, 61, 0])];
            tensor<int32, [3]> var_5302_end_0 = const()[name = tensor<string, []>("op_5302_end_0"), val = tensor<int32, [3]>([1, 62, 256])];
            tensor<bool, [3]> var_5302_end_mask_0 = const()[name = tensor<string, []>("op_5302_end_mask_0"), val = tensor<bool, [3]>([true, false, true])];
            tensor<fp16, [1, 1, 256]> var_5302_cast_fp16 = slice_by_index(begin = var_5302_begin_0, end = var_5302_end_0, end_mask = var_5302_end_mask_0, x = acoustic_encoded_cast_fp16)[name = tensor<string, []>("op_5302_cast_fp16")];
            tensor<fp16, [1, 1, 320]> linear_208_cast_fp16 = linear(bias = model_joiner_acoustic_projection_bias_to_fp16, weight = model_joiner_acoustic_projection_weight_to_fp16, x = var_5302_cast_fp16)[name = tensor<string, []>("linear_208_cast_fp16")];
            tensor<int32, [1]> acoustic_broadcast_123_axes_0 = const()[name = tensor<string, []>("acoustic_broadcast_123_axes_0"), val = tensor<int32, [1]>([2])];
            tensor<fp16, [1, 1, 1, 320]> acoustic_broadcast_123_cast_fp16 = expand_dims(axes = acoustic_broadcast_123_axes_0, x = linear_208_cast_fp16)[name = tensor<string, []>("acoustic_broadcast_123_cast_fp16")];
            tensor<fp16, [1, 1, 1, 320]> input_289_cast_fp16 = add(x = acoustic_broadcast_123_cast_fp16, y = linguistic_broadcast_1_cast_fp16)[name = tensor<string, []>("input_289_cast_fp16")];
            tensor<fp16, [1, 1, 1, 320]> input_291_cast_fp16 = tanh(x = input_289_cast_fp16)[name = tensor<string, []>("input_291_cast_fp16")];
            tensor<fp16, [1, 1, 1, 1024]> linear_210_cast_fp16 = linear(bias = model_joiner_vocabulary_projection_bias_to_fp16, weight = model_joiner_vocabulary_projection_weight_to_fp16, x = input_291_cast_fp16)[name = tensor<string, []>("linear_210_cast_fp16")];
            tensor<int32, [3]> var_5335_begin_0 = const()[name = tensor<string, []>("op_5335_begin_0"), val = tensor<int32, [3]>([0, 62, 0])];
            tensor<int32, [3]> var_5335_end_0 = const()[name = tensor<string, []>("op_5335_end_0"), val = tensor<int32, [3]>([1, 63, 256])];
            tensor<bool, [3]> var_5335_end_mask_0 = const()[name = tensor<string, []>("op_5335_end_mask_0"), val = tensor<bool, [3]>([true, false, true])];
            tensor<fp16, [1, 1, 256]> var_5335_cast_fp16 = slice_by_index(begin = var_5335_begin_0, end = var_5335_end_0, end_mask = var_5335_end_mask_0, x = acoustic_encoded_cast_fp16)[name = tensor<string, []>("op_5335_cast_fp16")];
            tensor<fp16, [1, 1, 320]> linear_211_cast_fp16 = linear(bias = model_joiner_acoustic_projection_bias_to_fp16, weight = model_joiner_acoustic_projection_weight_to_fp16, x = var_5335_cast_fp16)[name = tensor<string, []>("linear_211_cast_fp16")];
            tensor<int32, [1]> acoustic_broadcast_125_axes_0 = const()[name = tensor<string, []>("acoustic_broadcast_125_axes_0"), val = tensor<int32, [1]>([2])];
            tensor<fp16, [1, 1, 1, 320]> acoustic_broadcast_125_cast_fp16 = expand_dims(axes = acoustic_broadcast_125_axes_0, x = linear_211_cast_fp16)[name = tensor<string, []>("acoustic_broadcast_125_cast_fp16")];
            tensor<fp16, [1, 1, 1, 320]> input_293_cast_fp16 = add(x = acoustic_broadcast_125_cast_fp16, y = linguistic_broadcast_1_cast_fp16)[name = tensor<string, []>("input_293_cast_fp16")];
            tensor<fp16, [1, 1, 1, 320]> input_295_cast_fp16 = tanh(x = input_293_cast_fp16)[name = tensor<string, []>("input_295_cast_fp16")];
            tensor<fp16, [1, 1, 1, 1024]> linear_213_cast_fp16 = linear(bias = model_joiner_vocabulary_projection_bias_to_fp16, weight = model_joiner_vocabulary_projection_weight_to_fp16, x = input_295_cast_fp16)[name = tensor<string, []>("linear_213_cast_fp16")];
            tensor<int32, [3]> var_5368_begin_0 = const()[name = tensor<string, []>("op_5368_begin_0"), val = tensor<int32, [3]>([0, 63, 0])];
            tensor<int32, [3]> var_5368_end_0 = const()[name = tensor<string, []>("op_5368_end_0"), val = tensor<int32, [3]>([1, 1, 256])];
            tensor<bool, [3]> var_5368_end_mask_0 = const()[name = tensor<string, []>("op_5368_end_mask_0"), val = tensor<bool, [3]>([true, true, true])];
            tensor<fp16, [1, 1, 256]> var_5368_cast_fp16 = slice_by_index(begin = var_5368_begin_0, end = var_5368_end_0, end_mask = var_5368_end_mask_0, x = acoustic_encoded_cast_fp16)[name = tensor<string, []>("op_5368_cast_fp16")];
            tensor<fp16, [1, 1, 320]> linear_214_cast_fp16 = linear(bias = model_joiner_acoustic_projection_bias_to_fp16, weight = model_joiner_acoustic_projection_weight_to_fp16, x = var_5368_cast_fp16)[name = tensor<string, []>("linear_214_cast_fp16")];
            tensor<int32, [1]> acoustic_broadcast_axes_0 = const()[name = tensor<string, []>("acoustic_broadcast_axes_0"), val = tensor<int32, [1]>([2])];
            tensor<fp16, [1, 1, 1, 320]> acoustic_broadcast_cast_fp16 = expand_dims(axes = acoustic_broadcast_axes_0, x = linear_214_cast_fp16)[name = tensor<string, []>("acoustic_broadcast_cast_fp16")];
            tensor<fp16, [1, 1, 1, 320]> input_297_cast_fp16 = add(x = acoustic_broadcast_cast_fp16, y = linguistic_broadcast_1_cast_fp16)[name = tensor<string, []>("input_297_cast_fp16")];
            tensor<fp16, [1, 1, 1, 320]> input_cast_fp16 = tanh(x = input_297_cast_fp16)[name = tensor<string, []>("input_cast_fp16")];
            tensor<fp16, [1, 1, 1, 1024]> linear_216_cast_fp16 = linear(bias = model_joiner_vocabulary_projection_bias_to_fp16, weight = model_joiner_vocabulary_projection_weight_to_fp16, x = input_cast_fp16)[name = tensor<string, []>("linear_216_cast_fp16")];
            tensor<int32, []> var_5393 = const()[name = tensor<string, []>("op_5393"), val = tensor<int32, []>(1)];
            tensor<bool, []> var_5394_interleave_0 = const()[name = tensor<string, []>("op_5394_interleave_0"), val = tensor<bool, []>(false)];
            tensor<fp16, [1, 64, 1, 1024]> logits_time = concat(axis = var_5393, interleave = var_5394_interleave_0, values = (linear_27_cast_fp16, linear_30_cast_fp16, linear_33_cast_fp16, linear_36_cast_fp16, linear_39_cast_fp16, linear_42_cast_fp16, linear_45_cast_fp16, linear_48_cast_fp16, linear_51_cast_fp16, linear_54_cast_fp16, linear_57_cast_fp16, linear_60_cast_fp16, linear_63_cast_fp16, linear_66_cast_fp16, linear_69_cast_fp16, linear_72_cast_fp16, linear_75_cast_fp16, linear_78_cast_fp16, linear_81_cast_fp16, linear_84_cast_fp16, linear_87_cast_fp16, linear_90_cast_fp16, linear_93_cast_fp16, linear_96_cast_fp16, linear_99_cast_fp16, linear_102_cast_fp16, linear_105_cast_fp16, linear_108_cast_fp16, linear_111_cast_fp16, linear_114_cast_fp16, linear_117_cast_fp16, linear_120_cast_fp16, linear_123_cast_fp16, linear_126_cast_fp16, linear_129_cast_fp16, linear_132_cast_fp16, linear_135_cast_fp16, linear_138_cast_fp16, linear_141_cast_fp16, linear_144_cast_fp16, linear_147_cast_fp16, linear_150_cast_fp16, linear_153_cast_fp16, linear_156_cast_fp16, linear_159_cast_fp16, linear_162_cast_fp16, linear_165_cast_fp16, linear_168_cast_fp16, linear_171_cast_fp16, linear_174_cast_fp16, linear_177_cast_fp16, linear_180_cast_fp16, linear_183_cast_fp16, linear_186_cast_fp16, linear_189_cast_fp16, linear_192_cast_fp16, linear_195_cast_fp16, linear_198_cast_fp16, linear_201_cast_fp16, linear_204_cast_fp16, linear_207_cast_fp16, linear_210_cast_fp16, linear_213_cast_fp16, linear_216_cast_fp16))[name = tensor<string, []>("op_5394_cast_fp16")];
        } -> (logits_time, predictor_hidden_out);
}