program(1.0)
[buildInfo = dict<tensor<string, []>, tensor<string, []>>({{"coremlc-component-MIL", "3405.2.1"}, {"coremlc-version", "3404.23.1"}, {"coremltools-component-torch", "2.8.0"}, {"coremltools-source-dialect", "TorchScript"}, {"coremltools-version", "8.3.0"}})]
{
    func main<ios16>(tensor<fp16, [1, 256, 80]> audio_chunk, tensor<fp16, [1, 1, 256]> predictor_hidden_in, tensor<fp16, [1, 1]> token_in) {
            tensor<int32, [3]> input_1_perm_0 = const()[name = tensor<string, []>("input_1_perm_0"), val = tensor<int32, [3]>([0, 2, 1])];
            tensor<string, []> input_3_pad_type_0 = const()[name = tensor<string, []>("input_3_pad_type_0"), val = tensor<string, []>("custom")];
            tensor<int32, [2]> input_3_pad_0 = const()[name = tensor<string, []>("input_3_pad_0"), val = tensor<int32, [2]>([2, 2])];
            tensor<int32, [1]> input_3_strides_0 = const()[name = tensor<string, []>("input_3_strides_0"), val = tensor<int32, [1]>([2])];
            tensor<int32, [1]> input_3_dilations_0 = const()[name = tensor<string, []>("input_3_dilations_0"), val = tensor<int32, [1]>([1])];
            tensor<int32, []> input_3_groups_0 = const()[name = tensor<string, []>("input_3_groups_0"), val = tensor<int32, []>(1)];
            tensor<fp16, [256, 80, 5]> model_frontend_conv_network_0_weight_to_fp16 = const()[name = tensor<string, []>("model_frontend_conv_network_0_weight_to_fp16"), val = tensor<fp16, [256, 80, 5]>(BLOBFILE(path = tensor<string, []>("@model_path/weights/weight.bin"), offset = tensor<uint64, []>(64)))];
            tensor<fp16, [256]> model_frontend_conv_network_0_bias_to_fp16 = const()[name = tensor<string, []>("model_frontend_conv_network_0_bias_to_fp16"), val = tensor<fp16, [256]>(BLOBFILE(path = tensor<string, []>("@model_path/weights/weight.bin"), offset = tensor<uint64, []>(204928)))];
            tensor<fp16, [1, 80, 256]> input_1_cast_fp16 = transpose(perm = input_1_perm_0, x = audio_chunk)[name = tensor<string, []>("transpose_22")];
            tensor<fp16, [1, 256, 128]> input_3_cast_fp16 = conv(bias = model_frontend_conv_network_0_bias_to_fp16, dilations = input_3_dilations_0, groups = input_3_groups_0, pad = input_3_pad_0, pad_type = input_3_pad_type_0, strides = input_3_strides_0, weight = model_frontend_conv_network_0_weight_to_fp16, x = input_1_cast_fp16)[name = tensor<string, []>("input_3_cast_fp16")];
            tensor<string, []> input_5_mode_0 = const()[name = tensor<string, []>("input_5_mode_0"), val = tensor<string, []>("EXACT")];
            tensor<fp16, [1, 256, 128]> input_5_cast_fp16 = gelu(mode = input_5_mode_0, x = input_3_cast_fp16)[name = tensor<string, []>("input_5_cast_fp16")];
            tensor<string, []> input_7_pad_type_0 = const()[name = tensor<string, []>("input_7_pad_type_0"), val = tensor<string, []>("custom")];
            tensor<int32, [2]> input_7_pad_0 = const()[name = tensor<string, []>("input_7_pad_0"), val = tensor<int32, [2]>([2, 2])];
            tensor<int32, [1]> input_7_strides_0 = const()[name = tensor<string, []>("input_7_strides_0"), val = tensor<int32, [1]>([2])];
            tensor<int32, [1]> input_7_dilations_0 = const()[name = tensor<string, []>("input_7_dilations_0"), val = tensor<int32, [1]>([1])];
            tensor<int32, []> input_7_groups_0 = const()[name = tensor<string, []>("input_7_groups_0"), val = tensor<int32, []>(1)];
            tensor<fp16, [256, 256, 5]> model_frontend_conv_network_2_weight_to_fp16 = const()[name = tensor<string, []>("model_frontend_conv_network_2_weight_to_fp16"), val = tensor<fp16, [256, 256, 5]>(BLOBFILE(path = tensor<string, []>("@model_path/weights/weight.bin"), offset = tensor<uint64, []>(205504)))];
            tensor<fp16, [256]> model_frontend_conv_network_2_bias_to_fp16 = const()[name = tensor<string, []>("model_frontend_conv_network_2_bias_to_fp16"), val = tensor<fp16, [256]>(BLOBFILE(path = tensor<string, []>("@model_path/weights/weight.bin"), offset = tensor<uint64, []>(860928)))];
            tensor<fp16, [1, 256, 64]> input_7_cast_fp16 = conv(bias = model_frontend_conv_network_2_bias_to_fp16, dilations = input_7_dilations_0, groups = input_7_groups_0, pad = input_7_pad_0, pad_type = input_7_pad_type_0, strides = input_7_strides_0, weight = model_frontend_conv_network_2_weight_to_fp16, x = input_5_cast_fp16)[name = tensor<string, []>("input_7_cast_fp16")];
            tensor<string, []> input_9_mode_0 = const()[name = tensor<string, []>("input_9_mode_0"), val = tensor<string, []>("EXACT")];
            tensor<fp16, [1, 256, 64]> input_9_cast_fp16 = gelu(mode = input_9_mode_0, x = input_7_cast_fp16)[name = tensor<string, []>("input_9_cast_fp16")];
            tensor<string, []> input_11_pad_type_0 = const()[name = tensor<string, []>("input_11_pad_type_0"), val = tensor<string, []>("custom")];
            tensor<int32, [2]> input_11_pad_0 = const()[name = tensor<string, []>("input_11_pad_0"), val = tensor<int32, [2]>([1, 1])];
            tensor<int32, [1]> input_11_strides_0 = const()[name = tensor<string, []>("input_11_strides_0"), val = tensor<int32, [1]>([1])];
            tensor<int32, [1]> input_11_dilations_0 = const()[name = tensor<string, []>("input_11_dilations_0"), val = tensor<int32, [1]>([1])];
            tensor<int32, []> input_11_groups_0 = const()[name = tensor<string, []>("input_11_groups_0"), val = tensor<int32, []>(1)];
            tensor<fp16, [256, 256, 3]> model_frontend_conv_network_4_weight_to_fp16 = const()[name = tensor<string, []>("model_frontend_conv_network_4_weight_to_fp16"), val = tensor<fp16, [256, 256, 3]>(BLOBFILE(path = tensor<string, []>("@model_path/weights/weight.bin"), offset = tensor<uint64, []>(861504)))];
            tensor<fp16, [256]> model_frontend_conv_network_4_bias_to_fp16 = const()[name = tensor<string, []>("model_frontend_conv_network_4_bias_to_fp16"), val = tensor<fp16, [256]>(BLOBFILE(path = tensor<string, []>("@model_path/weights/weight.bin"), offset = tensor<uint64, []>(1254784)))];
            tensor<fp16, [1, 256, 64]> input_11_cast_fp16 = conv(bias = model_frontend_conv_network_4_bias_to_fp16, dilations = input_11_dilations_0, groups = input_11_groups_0, pad = input_11_pad_0, pad_type = input_11_pad_type_0, strides = input_11_strides_0, weight = model_frontend_conv_network_4_weight_to_fp16, x = input_9_cast_fp16)[name = tensor<string, []>("input_11_cast_fp16")];
            tensor<string, []> conv_output_mode_0 = const()[name = tensor<string, []>("conv_output_mode_0"), val = tensor<string, []>("EXACT")];
            tensor<fp16, [1, 256, 64]> conv_output_cast_fp16 = gelu(mode = conv_output_mode_0, x = input_11_cast_fp16)[name = tensor<string, []>("conv_output_cast_fp16")];
            tensor<int32, [3]> input_13_perm_0 = const()[name = tensor<string, []>("input_13_perm_0"), val = tensor<int32, [3]>([0, 2, 1])];
            tensor<int32, [1]> x_1_axes_0 = const()[name = tensor<string, []>("x_1_axes_0"), val = tensor<int32, [1]>([-1])];
            tensor<fp16, [256]> model_frontend_output_norm_weight_to_fp16 = const()[name = tensor<string, []>("model_frontend_output_norm_weight_to_fp16"), val = tensor<fp16, [256]>(BLOBFILE(path = tensor<string, []>("@model_path/weights/weight.bin"), offset = tensor<uint64, []>(1255360)))];
            tensor<fp16, [256]> model_frontend_output_norm_bias_to_fp16 = const()[name = tensor<string, []>("model_frontend_output_norm_bias_to_fp16"), val = tensor<fp16, [256]>(BLOBFILE(path = tensor<string, []>("@model_path/weights/weight.bin"), offset = tensor<uint64, []>(1255936)))];
            tensor<fp16, []> var_23_to_fp16 = const()[name = tensor<string, []>("op_23_to_fp16"), val = tensor<fp16, []>(0x1.5p-17)];
            tensor<fp16, [1, 64, 256]> input_13_cast_fp16 = transpose(perm = input_13_perm_0, x = conv_output_cast_fp16)[name = tensor<string, []>("transpose_21")];
            tensor<fp16, [1, 64, 256]> x_1_cast_fp16 = layer_norm(axes = x_1_axes_0, beta = model_frontend_output_norm_bias_to_fp16, epsilon = var_23_to_fp16, gamma = model_frontend_output_norm_weight_to_fp16, x = input_13_cast_fp16)[name = tensor<string, []>("x_1_cast_fp16")];
            tensor<fp32, []> var_77 = const()[name = tensor<string, []>("op_77"), val = tensor<fp32, []>(0x1.2a05f2p+33)];
            tensor<fp16, [256, 256]> model_encoder_blocks_0_in_proj_weight_to_fp16 = const()[name = tensor<string, []>("model_encoder_blocks_0_in_proj_weight_to_fp16"), val = tensor<fp16, [256, 256]>(BLOBFILE(path = tensor<string, []>("@model_path/weights/weight.bin"), offset = tensor<uint64, []>(1256512)))];
            tensor<fp16, [256]> model_encoder_blocks_0_in_proj_bias_to_fp16 = const()[name = tensor<string, []>("model_encoder_blocks_0_in_proj_bias_to_fp16"), val = tensor<fp16, [256]>(BLOBFILE(path = tensor<string, []>("@model_path/weights/weight.bin"), offset = tensor<uint64, []>(1387648)))];
            tensor<fp16, [1, 64, 256]> linear_0_cast_fp16 = linear(bias = model_encoder_blocks_0_in_proj_bias_to_fp16, weight = model_encoder_blocks_0_in_proj_weight_to_fp16, x = x_1_cast_fp16)[name = tensor<string, []>("linear_0_cast_fp16")];
            tensor<fp16, [256, 256]> model_encoder_blocks_0_z_proj_weight_to_fp16 = const()[name = tensor<string, []>("model_encoder_blocks_0_z_proj_weight_to_fp16"), val = tensor<fp16, [256, 256]>(BLOBFILE(path = tensor<string, []>("@model_path/weights/weight.bin"), offset = tensor<uint64, []>(1388224)))];
            tensor<fp16, [256]> model_encoder_blocks_0_z_proj_bias_to_fp16 = const()[name = tensor<string, []>("model_encoder_blocks_0_z_proj_bias_to_fp16"), val = tensor<fp16, [256]>(BLOBFILE(path = tensor<string, []>("@model_path/weights/weight.bin"), offset = tensor<uint64, []>(1519360)))];
            tensor<fp16, [1, 64, 256]> linear_1_cast_fp16 = linear(bias = model_encoder_blocks_0_z_proj_bias_to_fp16, weight = model_encoder_blocks_0_z_proj_weight_to_fp16, x = x_1_cast_fp16)[name = tensor<string, []>("linear_1_cast_fp16")];
            tensor<int32, [3]> input_15_perm_0 = const()[name = tensor<string, []>("input_15_perm_0"), val = tensor<int32, [3]>([0, 2, 1])];
            tensor<string, []> var_177_pad_type_0 = const()[name = tensor<string, []>("op_177_pad_type_0"), val = tensor<string, []>("valid")];
            tensor<int32, [1]> var_177_strides_0 = const()[name = tensor<string, []>("op_177_strides_0"), val = tensor<int32, [1]>([1])];
            tensor<int32, [2]> var_177_pad_0 = const()[name = tensor<string, []>("op_177_pad_0"), val = tensor<int32, [2]>([0, 0])];
            tensor<int32, [1]> var_177_dilations_0 = const()[name = tensor<string, []>("op_177_dilations_0"), val = tensor<int32, [1]>([1])];
            tensor<int32, []> var_177_groups_0 = const()[name = tensor<string, []>("op_177_groups_0"), val = tensor<int32, []>(1)];
            tensor<fp16, [16, 256, 1]> model_encoder_blocks_0_B_conv_weight_to_fp16 = const()[name = tensor<string, []>("model_encoder_blocks_0_B_conv_weight_to_fp16"), val = tensor<fp16, [16, 256, 1]>(BLOBFILE(path = tensor<string, []>("@model_path/weights/weight.bin"), offset = tensor<uint64, []>(1519936)))];
            tensor<fp16, [16]> model_encoder_blocks_0_B_conv_bias_to_fp16 = const()[name = tensor<string, []>("model_encoder_blocks_0_B_conv_bias_to_fp16"), val = tensor<fp16, [16]>(BLOBFILE(path = tensor<string, []>("@model_path/weights/weight.bin"), offset = tensor<uint64, []>(1528192)))];
            tensor<fp16, [1, 256, 64]> input_15_cast_fp16 = transpose(perm = input_15_perm_0, x = linear_0_cast_fp16)[name = tensor<string, []>("transpose_20")];
            tensor<fp16, [1, 16, 64]> var_177_cast_fp16 = conv(bias = model_encoder_blocks_0_B_conv_bias_to_fp16, dilations = var_177_dilations_0, groups = var_177_groups_0, pad = var_177_pad_0, pad_type = var_177_pad_type_0, strides = var_177_strides_0, weight = model_encoder_blocks_0_B_conv_weight_to_fp16, x = input_15_cast_fp16)[name = tensor<string, []>("op_177_cast_fp16")];
            tensor<int32, [3]> B_proj_1_perm_0 = const()[name = tensor<string, []>("B_proj_1_perm_0"), val = tensor<int32, [3]>([0, 2, 1])];
            tensor<string, []> var_185_pad_type_0 = const()[name = tensor<string, []>("op_185_pad_type_0"), val = tensor<string, []>("valid")];
            tensor<int32, [1]> var_185_strides_0 = const()[name = tensor<string, []>("op_185_strides_0"), val = tensor<int32, [1]>([1])];
            tensor<int32, [2]> var_185_pad_0 = const()[name = tensor<string, []>("op_185_pad_0"), val = tensor<int32, [2]>([0, 0])];
            tensor<int32, [1]> var_185_dilations_0 = const()[name = tensor<string, []>("op_185_dilations_0"), val = tensor<int32, [1]>([1])];
            tensor<int32, []> var_185_groups_0 = const()[name = tensor<string, []>("op_185_groups_0"), val = tensor<int32, []>(1)];
            tensor<fp16, [16, 256, 1]> model_encoder_blocks_0_C_conv_weight_to_fp16 = const()[name = tensor<string, []>("model_encoder_blocks_0_C_conv_weight_to_fp16"), val = tensor<fp16, [16, 256, 1]>(BLOBFILE(path = tensor<string, []>("@model_path/weights/weight.bin"), offset = tensor<uint64, []>(1528320)))];
            tensor<fp16, [16]> model_encoder_blocks_0_C_conv_bias_to_fp16 = const()[name = tensor<string, []>("model_encoder_blocks_0_C_conv_bias_to_fp16"), val = tensor<fp16, [16]>(BLOBFILE(path = tensor<string, []>("@model_path/weights/weight.bin"), offset = tensor<uint64, []>(1536576)))];
            tensor<fp16, [1, 16, 64]> var_185_cast_fp16 = conv(bias = model_encoder_blocks_0_C_conv_bias_to_fp16, dilations = var_185_dilations_0, groups = var_185_groups_0, pad = var_185_pad_0, pad_type = var_185_pad_type_0, strides = var_185_strides_0, weight = model_encoder_blocks_0_C_conv_weight_to_fp16, x = input_15_cast_fp16)[name = tensor<string, []>("op_185_cast_fp16")];
            tensor<int32, [3]> C_proj_1_perm_0 = const()[name = tensor<string, []>("C_proj_1_perm_0"), val = tensor<int32, [3]>([0, 2, 1])];
            tensor<fp16, [1, 64, 256]> delta_positive_1_cast_fp16 = softplus(x = linear_0_cast_fp16)[name = tensor<string, []>("delta_positive_1_cast_fp16")];
            tensor<fp16, []> var_76_to_fp16 = const()[name = tensor<string, []>("op_76_to_fp16"), val = tensor<fp16, []>(0x1p-24)];
            tensor<fp16, []> const_2_to_fp16 = const()[name = tensor<string, []>("const_2_to_fp16"), val = tensor<fp16, []>(inf)];
            tensor<fp16, [1, 64, 256]> clip_0_cast_fp16 = clip(alpha = var_76_to_fp16, beta = const_2_to_fp16, x = delta_positive_1_cast_fp16)[name = tensor<string, []>("clip_0_cast_fp16")];
            tensor<int32, [1]> var_192_axes_0 = const()[name = tensor<string, []>("op_192_axes_0"), val = tensor<int32, [1]>([-1])];
            tensor<fp16, [1, 64, 256, 1]> var_192_cast_fp16 = expand_dims(axes = var_192_axes_0, x = clip_0_cast_fp16)[name = tensor<string, []>("op_192_cast_fp16")];
            tensor<fp16, [1, 1, 256, 16]> var_196_to_fp16 = const()[name = tensor<string, []>("op_196_to_fp16"), val = tensor<fp16, [1, 1, 256, 16]>(BLOBFILE(path = tensor<string, []>("@model_path/weights/weight.bin"), offset = tensor<uint64, []>(1536704)))];
            tensor<fp16, [1, 64, 256, 16]> var_197_cast_fp16 = mul(x = var_192_cast_fp16, y = var_196_to_fp16)[name = tensor<string, []>("op_197_cast_fp16")];
            tensor<fp16, [1, 64, 256, 16]> delta_A_1_cast_fp16 = exp(x = var_197_cast_fp16)[name = tensor<string, []>("delta_A_1_cast_fp16")];
            tensor<string, []> delta_A_1_cast_fp16_to_fp32_dtype_0 = const()[name = tensor<string, []>("delta_A_1_cast_fp16_to_fp32_dtype_0"), val = tensor<string, []>("fp32")];
            tensor<fp32, []> const_5 = const()[name = tensor<string, []>("const_5"), val = tensor<fp32, []>(-0x1.fffffep+127)];
            tensor<fp32, [1, 64, 256, 16]> delta_A_1_cast_fp16_to_fp32 = cast(dtype = delta_A_1_cast_fp16_to_fp32_dtype_0, x = delta_A_1_cast_fp16)[name = tensor<string, []>("cast_40")];
            tensor<fp32, [1, 64, 256, 16]> clip_1 = clip(alpha = const_5, beta = var_77, x = delta_A_1_cast_fp16_to_fp32)[name = tensor<string, []>("clip_1")];
            tensor<fp16, [1, 64, 256]> delta_u_1_cast_fp16 = mul(x = clip_0_cast_fp16, y = linear_0_cast_fp16)[name = tensor<string, []>("delta_u_1_cast_fp16")];
            tensor<int32, [1]> delta_u_scalar_1_axes_0 = const()[name = tensor<string, []>("delta_u_scalar_1_axes_0"), val = tensor<int32, [1]>([2])];
            tensor<bool, []> delta_u_scalar_1_keep_dims_0 = const()[name = tensor<string, []>("delta_u_scalar_1_keep_dims_0"), val = tensor<bool, []>(true)];
            tensor<fp16, [1, 64, 1]> delta_u_scalar_1_cast_fp16 = reduce_mean(axes = delta_u_scalar_1_axes_0, keep_dims = delta_u_scalar_1_keep_dims_0, x = delta_u_1_cast_fp16)[name = tensor<string, []>("delta_u_scalar_1_cast_fp16")];
            tensor<int32, [1]> var_203_axes_0 = const()[name = tensor<string, []>("op_203_axes_0"), val = tensor<int32, [1]>([-1])];
            tensor<fp16, [1, 64, 1, 1]> var_203_cast_fp16 = expand_dims(axes = var_203_axes_0, x = delta_u_scalar_1_cast_fp16)[name = tensor<string, []>("op_203_cast_fp16")];
            tensor<int32, [1]> var_204_axes_0 = const()[name = tensor<string, []>("op_204_axes_0"), val = tensor<int32, [1]>([2])];
            tensor<fp16, [1, 64, 16]> B_proj_1_cast_fp16 = transpose(perm = B_proj_1_perm_0, x = var_177_cast_fp16)[name = tensor<string, []>("transpose_19")];
            tensor<fp16, [1, 64, 1, 16]> var_204_cast_fp16 = expand_dims(axes = var_204_axes_0, x = B_proj_1_cast_fp16)[name = tensor<string, []>("op_204_cast_fp16")];
            tensor<fp16, [1, 64, 1, 16]> delta_B_u_1_cast_fp16 = mul(x = var_203_cast_fp16, y = var_204_cast_fp16)[name = tensor<string, []>("delta_B_u_1_cast_fp16")];
            tensor<int32, [4]> var_208_begin_0 = const()[name = tensor<string, []>("op_208_begin_0"), val = tensor<int32, [4]>([0, 0, 0, 0])];
            tensor<int32, [4]> var_208_end_0 = const()[name = tensor<string, []>("op_208_end_0"), val = tensor<int32, [4]>([1, 1, 256, 16])];
            tensor<bool, [4]> var_208_end_mask_0 = const()[name = tensor<string, []>("op_208_end_mask_0"), val = tensor<bool, [4]>([true, false, true, true])];
            tensor<bool, [4]> var_208_squeeze_mask_0 = const()[name = tensor<string, []>("op_208_squeeze_mask_0"), val = tensor<bool, [4]>([false, true, false, false])];
            tensor<string, []> clip_1_to_fp16_dtype_0 = const()[name = tensor<string, []>("clip_1_to_fp16_dtype_0"), val = tensor<string, []>("fp16")];
            tensor<fp16, [1, 64, 256, 16]> clip_1_to_fp16 = cast(dtype = clip_1_to_fp16_dtype_0, x = clip_1)[name = tensor<string, []>("cast_39")];
            tensor<fp16, [1, 256, 16]> var_208_cast_fp16 = slice_by_index(begin = var_208_begin_0, end = var_208_end_0, end_mask = var_208_end_mask_0, squeeze_mask = var_208_squeeze_mask_0, x = clip_1_to_fp16)[name = tensor<string, []>("op_208_cast_fp16")];
            tensor<fp16, [1, 256, 16]> h0_1_to_fp16 = const()[name = tensor<string, []>("h0_1_to_fp16"), val = tensor<fp16, [1, 256, 16]>(BLOBFILE(path = tensor<string, []>("@model_path/weights/weight.bin"), offset = tensor<uint64, []>(1544960)))];
            tensor<fp16, [1, 256, 16]> var_209_cast_fp16 = mul(x = var_208_cast_fp16, y = h0_1_to_fp16)[name = tensor<string, []>("op_209_cast_fp16")];
            tensor<int32, [4]> var_211_begin_0 = const()[name = tensor<string, []>("op_211_begin_0"), val = tensor<int32, [4]>([0, 0, 0, 0])];
            tensor<int32, [4]> var_211_end_0 = const()[name = tensor<string, []>("op_211_end_0"), val = tensor<int32, [4]>([1, 1, 1, 16])];
            tensor<bool, [4]> var_211_end_mask_0 = const()[name = tensor<string, []>("op_211_end_mask_0"), val = tensor<bool, [4]>([true, false, true, true])];
            tensor<bool, [4]> var_211_squeeze_mask_0 = const()[name = tensor<string, []>("op_211_squeeze_mask_0"), val = tensor<bool, [4]>([false, true, false, false])];
            tensor<fp16, [1, 1, 16]> var_211_cast_fp16 = slice_by_index(begin = var_211_begin_0, end = var_211_end_0, end_mask = var_211_end_mask_0, squeeze_mask = var_211_squeeze_mask_0, x = delta_B_u_1_cast_fp16)[name = tensor<string, []>("op_211_cast_fp16")];
            tensor<fp16, [1, 256, 16]> hidden_state_3_cast_fp16 = add(x = var_209_cast_fp16, y = var_211_cast_fp16)[name = tensor<string, []>("hidden_state_3_cast_fp16")];
            tensor<int32, [3]> var_214_begin_0 = const()[name = tensor<string, []>("op_214_begin_0"), val = tensor<int32, [3]>([0, 0, 0])];
            tensor<int32, [3]> var_214_end_0 = const()[name = tensor<string, []>("op_214_end_0"), val = tensor<int32, [3]>([1, 1, 16])];
            tensor<bool, [3]> var_214_end_mask_0 = const()[name = tensor<string, []>("op_214_end_mask_0"), val = tensor<bool, [3]>([true, false, true])];
            tensor<bool, [3]> var_214_squeeze_mask_0 = const()[name = tensor<string, []>("op_214_squeeze_mask_0"), val = tensor<bool, [3]>([false, true, false])];
            tensor<fp16, [1, 64, 16]> C_proj_1_cast_fp16 = transpose(perm = C_proj_1_perm_0, x = var_185_cast_fp16)[name = tensor<string, []>("transpose_18")];
            tensor<fp16, [1, 16]> var_214_cast_fp16 = slice_by_index(begin = var_214_begin_0, end = var_214_end_0, end_mask = var_214_end_mask_0, squeeze_mask = var_214_squeeze_mask_0, x = C_proj_1_cast_fp16)[name = tensor<string, []>("op_214_cast_fp16")];
            tensor<int32, [1]> var_216_axes_0 = const()[name = tensor<string, []>("op_216_axes_0"), val = tensor<int32, [1]>([-1])];
            tensor<fp16, [1, 16, 1]> var_216_cast_fp16 = expand_dims(axes = var_216_axes_0, x = var_214_cast_fp16)[name = tensor<string, []>("op_216_cast_fp16")];
            tensor<bool, []> var_217_transpose_x_0 = const()[name = tensor<string, []>("op_217_transpose_x_0"), val = tensor<bool, []>(false)];
            tensor<bool, []> var_217_transpose_y_0 = const()[name = tensor<string, []>("op_217_transpose_y_0"), val = tensor<bool, []>(false)];
            tensor<fp16, [1, 256, 1]> var_217_cast_fp16 = matmul(transpose_x = var_217_transpose_x_0, transpose_y = var_217_transpose_y_0, x = hidden_state_3_cast_fp16, y = var_216_cast_fp16)[name = tensor<string, []>("op_217_cast_fp16")];
            tensor<int32, [1]> var_218_axes_0 = const()[name = tensor<string, []>("op_218_axes_0"), val = tensor<int32, [1]>([-1])];
            tensor<fp16, [1, 256]> var_218_cast_fp16 = squeeze(axes = var_218_axes_0, x = var_217_cast_fp16)[name = tensor<string, []>("op_218_cast_fp16")];
            tensor<int32, [4]> var_220_begin_0 = const()[name = tensor<string, []>("op_220_begin_0"), val = tensor<int32, [4]>([0, 1, 0, 0])];
            tensor<int32, [4]> var_220_end_0 = const()[name = tensor<string, []>("op_220_end_0"), val = tensor<int32, [4]>([1, 2, 256, 16])];
            tensor<bool, [4]> var_220_end_mask_0 = const()[name = tensor<string, []>("op_220_end_mask_0"), val = tensor<bool, [4]>([true, false, true, true])];
            tensor<bool, [4]> var_220_squeeze_mask_0 = const()[name = tensor<string, []>("op_220_squeeze_mask_0"), val = tensor<bool, [4]>([false, true, false, false])];
            tensor<fp16, [1, 256, 16]> var_220_cast_fp16 = slice_by_index(begin = var_220_begin_0, end = var_220_end_0, end_mask = var_220_end_mask_0, squeeze_mask = var_220_squeeze_mask_0, x = clip_1_to_fp16)[name = tensor<string, []>("op_220_cast_fp16")];
            tensor<fp16, [1, 256, 16]> var_221_cast_fp16 = mul(x = var_220_cast_fp16, y = hidden_state_3_cast_fp16)[name = tensor<string, []>("op_221_cast_fp16")];
            tensor<int32, [4]> var_223_begin_0 = const()[name = tensor<string, []>("op_223_begin_0"), val = tensor<int32, [4]>([0, 1, 0, 0])];
            tensor<int32, [4]> var_223_end_0 = const()[name = tensor<string, []>("op_223_end_0"), val = tensor<int32, [4]>([1, 2, 1, 16])];
            tensor<bool, [4]> var_223_end_mask_0 = const()[name = tensor<string, []>("op_223_end_mask_0"), val = tensor<bool, [4]>([true, false, true, true])];
            tensor<bool, [4]> var_223_squeeze_mask_0 = const()[name = tensor<string, []>("op_223_squeeze_mask_0"), val = tensor<bool, [4]>([false, true, false, false])];
            tensor<fp16, [1, 1, 16]> var_223_cast_fp16 = slice_by_index(begin = var_223_begin_0, end = var_223_end_0, end_mask = var_223_end_mask_0, squeeze_mask = var_223_squeeze_mask_0, x = delta_B_u_1_cast_fp16)[name = tensor<string, []>("op_223_cast_fp16")];
            tensor<fp16, [1, 256, 16]> hidden_state_5_cast_fp16 = add(x = var_221_cast_fp16, y = var_223_cast_fp16)[name = tensor<string, []>("hidden_state_5_cast_fp16")];
            tensor<int32, [3]> var_226_begin_0 = const()[name = tensor<string, []>("op_226_begin_0"), val = tensor<int32, [3]>([0, 1, 0])];
            tensor<int32, [3]> var_226_end_0 = const()[name = tensor<string, []>("op_226_end_0"), val = tensor<int32, [3]>([1, 2, 16])];
            tensor<bool, [3]> var_226_end_mask_0 = const()[name = tensor<string, []>("op_226_end_mask_0"), val = tensor<bool, [3]>([true, false, true])];
            tensor<bool, [3]> var_226_squeeze_mask_0 = const()[name = tensor<string, []>("op_226_squeeze_mask_0"), val = tensor<bool, [3]>([false, true, false])];
            tensor<fp16, [1, 16]> var_226_cast_fp16 = slice_by_index(begin = var_226_begin_0, end = var_226_end_0, end_mask = var_226_end_mask_0, squeeze_mask = var_226_squeeze_mask_0, x = C_proj_1_cast_fp16)[name = tensor<string, []>("op_226_cast_fp16")];
            tensor<int32, [1]> var_228_axes_0 = const()[name = tensor<string, []>("op_228_axes_0"), val = tensor<int32, [1]>([-1])];
            tensor<fp16, [1, 16, 1]> var_228_cast_fp16 = expand_dims(axes = var_228_axes_0, x = var_226_cast_fp16)[name = tensor<string, []>("op_228_cast_fp16")];
            tensor<bool, []> var_229_transpose_x_0 = const()[name = tensor<string, []>("op_229_transpose_x_0"), val = tensor<bool, []>(false)];
            tensor<bool, []> var_229_transpose_y_0 = const()[name = tensor<string, []>("op_229_transpose_y_0"), val = tensor<bool, []>(false)];
            tensor<fp16, [1, 256, 1]> var_229_cast_fp16 = matmul(transpose_x = var_229_transpose_x_0, transpose_y = var_229_transpose_y_0, x = hidden_state_5_cast_fp16, y = var_228_cast_fp16)[name = tensor<string, []>("op_229_cast_fp16")];
            tensor<int32, [1]> var_230_axes_0 = const()[name = tensor<string, []>("op_230_axes_0"), val = tensor<int32, [1]>([-1])];
            tensor<fp16, [1, 256]> var_230_cast_fp16 = squeeze(axes = var_230_axes_0, x = var_229_cast_fp16)[name = tensor<string, []>("op_230_cast_fp16")];
            tensor<int32, [4]> var_232_begin_0 = const()[name = tensor<string, []>("op_232_begin_0"), val = tensor<int32, [4]>([0, 2, 0, 0])];
            tensor<int32, [4]> var_232_end_0 = const()[name = tensor<string, []>("op_232_end_0"), val = tensor<int32, [4]>([1, 3, 256, 16])];
            tensor<bool, [4]> var_232_end_mask_0 = const()[name = tensor<string, []>("op_232_end_mask_0"), val = tensor<bool, [4]>([true, false, true, true])];
            tensor<bool, [4]> var_232_squeeze_mask_0 = const()[name = tensor<string, []>("op_232_squeeze_mask_0"), val = tensor<bool, [4]>([false, true, false, false])];
            tensor<fp16, [1, 256, 16]> var_232_cast_fp16 = slice_by_index(begin = var_232_begin_0, end = var_232_end_0, end_mask = var_232_end_mask_0, squeeze_mask = var_232_squeeze_mask_0, x = clip_1_to_fp16)[name = tensor<string, []>("op_232_cast_fp16")];
            tensor<fp16, [1, 256, 16]> var_233_cast_fp16 = mul(x = var_232_cast_fp16, y = hidden_state_5_cast_fp16)[name = tensor<string, []>("op_233_cast_fp16")];
            tensor<int32, [4]> var_235_begin_0 = const()[name = tensor<string, []>("op_235_begin_0"), val = tensor<int32, [4]>([0, 2, 0, 0])];
            tensor<int32, [4]> var_235_end_0 = const()[name = tensor<string, []>("op_235_end_0"), val = tensor<int32, [4]>([1, 3, 1, 16])];
            tensor<bool, [4]> var_235_end_mask_0 = const()[name = tensor<string, []>("op_235_end_mask_0"), val = tensor<bool, [4]>([true, false, true, true])];
            tensor<bool, [4]> var_235_squeeze_mask_0 = const()[name = tensor<string, []>("op_235_squeeze_mask_0"), val = tensor<bool, [4]>([false, true, false, false])];
            tensor<fp16, [1, 1, 16]> var_235_cast_fp16 = slice_by_index(begin = var_235_begin_0, end = var_235_end_0, end_mask = var_235_end_mask_0, squeeze_mask = var_235_squeeze_mask_0, x = delta_B_u_1_cast_fp16)[name = tensor<string, []>("op_235_cast_fp16")];
            tensor<fp16, [1, 256, 16]> hidden_state_7_cast_fp16 = add(x = var_233_cast_fp16, y = var_235_cast_fp16)[name = tensor<string, []>("hidden_state_7_cast_fp16")];
            tensor<int32, [3]> var_238_begin_0 = const()[name = tensor<string, []>("op_238_begin_0"), val = tensor<int32, [3]>([0, 2, 0])];
            tensor<int32, [3]> var_238_end_0 = const()[name = tensor<string, []>("op_238_end_0"), val = tensor<int32, [3]>([1, 3, 16])];
            tensor<bool, [3]> var_238_end_mask_0 = const()[name = tensor<string, []>("op_238_end_mask_0"), val = tensor<bool, [3]>([true, false, true])];
            tensor<bool, [3]> var_238_squeeze_mask_0 = const()[name = tensor<string, []>("op_238_squeeze_mask_0"), val = tensor<bool, [3]>([false, true, false])];
            tensor<fp16, [1, 16]> var_238_cast_fp16 = slice_by_index(begin = var_238_begin_0, end = var_238_end_0, end_mask = var_238_end_mask_0, squeeze_mask = var_238_squeeze_mask_0, x = C_proj_1_cast_fp16)[name = tensor<string, []>("op_238_cast_fp16")];
            tensor<int32, [1]> var_240_axes_0 = const()[name = tensor<string, []>("op_240_axes_0"), val = tensor<int32, [1]>([-1])];
            tensor<fp16, [1, 16, 1]> var_240_cast_fp16 = expand_dims(axes = var_240_axes_0, x = var_238_cast_fp16)[name = tensor<string, []>("op_240_cast_fp16")];
            tensor<bool, []> var_241_transpose_x_0 = const()[name = tensor<string, []>("op_241_transpose_x_0"), val = tensor<bool, []>(false)];
            tensor<bool, []> var_241_transpose_y_0 = const()[name = tensor<string, []>("op_241_transpose_y_0"), val = tensor<bool, []>(false)];
            tensor<fp16, [1, 256, 1]> var_241_cast_fp16 = matmul(transpose_x = var_241_transpose_x_0, transpose_y = var_241_transpose_y_0, x = hidden_state_7_cast_fp16, y = var_240_cast_fp16)[name = tensor<string, []>("op_241_cast_fp16")];
            tensor<int32, [1]> var_242_axes_0 = const()[name = tensor<string, []>("op_242_axes_0"), val = tensor<int32, [1]>([-1])];
            tensor<fp16, [1, 256]> var_242_cast_fp16 = squeeze(axes = var_242_axes_0, x = var_241_cast_fp16)[name = tensor<string, []>("op_242_cast_fp16")];
            tensor<int32, [4]> var_244_begin_0 = const()[name = tensor<string, []>("op_244_begin_0"), val = tensor<int32, [4]>([0, 3, 0, 0])];
            tensor<int32, [4]> var_244_end_0 = const()[name = tensor<string, []>("op_244_end_0"), val = tensor<int32, [4]>([1, 4, 256, 16])];
            tensor<bool, [4]> var_244_end_mask_0 = const()[name = tensor<string, []>("op_244_end_mask_0"), val = tensor<bool, [4]>([true, false, true, true])];
            tensor<bool, [4]> var_244_squeeze_mask_0 = const()[name = tensor<string, []>("op_244_squeeze_mask_0"), val = tensor<bool, [4]>([false, true, false, false])];
            tensor<fp16, [1, 256, 16]> var_244_cast_fp16 = slice_by_index(begin = var_244_begin_0, end = var_244_end_0, end_mask = var_244_end_mask_0, squeeze_mask = var_244_squeeze_mask_0, x = clip_1_to_fp16)[name = tensor<string, []>("op_244_cast_fp16")];
            tensor<fp16, [1, 256, 16]> var_245_cast_fp16 = mul(x = var_244_cast_fp16, y = hidden_state_7_cast_fp16)[name = tensor<string, []>("op_245_cast_fp16")];
            tensor<int32, [4]> var_247_begin_0 = const()[name = tensor<string, []>("op_247_begin_0"), val = tensor<int32, [4]>([0, 3, 0, 0])];
            tensor<int32, [4]> var_247_end_0 = const()[name = tensor<string, []>("op_247_end_0"), val = tensor<int32, [4]>([1, 4, 1, 16])];
            tensor<bool, [4]> var_247_end_mask_0 = const()[name = tensor<string, []>("op_247_end_mask_0"), val = tensor<bool, [4]>([true, false, true, true])];
            tensor<bool, [4]> var_247_squeeze_mask_0 = const()[name = tensor<string, []>("op_247_squeeze_mask_0"), val = tensor<bool, [4]>([false, true, false, false])];
            tensor<fp16, [1, 1, 16]> var_247_cast_fp16 = slice_by_index(begin = var_247_begin_0, end = var_247_end_0, end_mask = var_247_end_mask_0, squeeze_mask = var_247_squeeze_mask_0, x = delta_B_u_1_cast_fp16)[name = tensor<string, []>("op_247_cast_fp16")];
            tensor<fp16, [1, 256, 16]> hidden_state_9_cast_fp16 = add(x = var_245_cast_fp16, y = var_247_cast_fp16)[name = tensor<string, []>("hidden_state_9_cast_fp16")];
            tensor<int32, [3]> var_250_begin_0 = const()[name = tensor<string, []>("op_250_begin_0"), val = tensor<int32, [3]>([0, 3, 0])];
            tensor<int32, [3]> var_250_end_0 = const()[name = tensor<string, []>("op_250_end_0"), val = tensor<int32, [3]>([1, 4, 16])];
            tensor<bool, [3]> var_250_end_mask_0 = const()[name = tensor<string, []>("op_250_end_mask_0"), val = tensor<bool, [3]>([true, false, true])];
            tensor<bool, [3]> var_250_squeeze_mask_0 = const()[name = tensor<string, []>("op_250_squeeze_mask_0"), val = tensor<bool, [3]>([false, true, false])];
            tensor<fp16, [1, 16]> var_250_cast_fp16 = slice_by_index(begin = var_250_begin_0, end = var_250_end_0, end_mask = var_250_end_mask_0, squeeze_mask = var_250_squeeze_mask_0, x = C_proj_1_cast_fp16)[name = tensor<string, []>("op_250_cast_fp16")];
            tensor<int32, [1]> var_252_axes_0 = const()[name = tensor<string, []>("op_252_axes_0"), val = tensor<int32, [1]>([-1])];
            tensor<fp16, [1, 16, 1]> var_252_cast_fp16 = expand_dims(axes = var_252_axes_0, x = var_250_cast_fp16)[name = tensor<string, []>("op_252_cast_fp16")];
            tensor<bool, []> var_253_transpose_x_0 = const()[name = tensor<string, []>("op_253_transpose_x_0"), val = tensor<bool, []>(false)];
            tensor<bool, []> var_253_transpose_y_0 = const()[name = tensor<string, []>("op_253_transpose_y_0"), val = tensor<bool, []>(false)];
            tensor<fp16, [1, 256, 1]> var_253_cast_fp16 = matmul(transpose_x = var_253_transpose_x_0, transpose_y = var_253_transpose_y_0, x = hidden_state_9_cast_fp16, y = var_252_cast_fp16)[name = tensor<string, []>("op_253_cast_fp16")];
            tensor<int32, [1]> var_254_axes_0 = const()[name = tensor<string, []>("op_254_axes_0"), val = tensor<int32, [1]>([-1])];
            tensor<fp16, [1, 256]> var_254_cast_fp16 = squeeze(axes = var_254_axes_0, x = var_253_cast_fp16)[name = tensor<string, []>("op_254_cast_fp16")];
            tensor<int32, [4]> var_256_begin_0 = const()[name = tensor<string, []>("op_256_begin_0"), val = tensor<int32, [4]>([0, 4, 0, 0])];
            tensor<int32, [4]> var_256_end_0 = const()[name = tensor<string, []>("op_256_end_0"), val = tensor<int32, [4]>([1, 5, 256, 16])];
            tensor<bool, [4]> var_256_end_mask_0 = const()[name = tensor<string, []>("op_256_end_mask_0"), val = tensor<bool, [4]>([true, false, true, true])];
            tensor<bool, [4]> var_256_squeeze_mask_0 = const()[name = tensor<string, []>("op_256_squeeze_mask_0"), val = tensor<bool, [4]>([false, true, false, false])];
            tensor<fp16, [1, 256, 16]> var_256_cast_fp16 = slice_by_index(begin = var_256_begin_0, end = var_256_end_0, end_mask = var_256_end_mask_0, squeeze_mask = var_256_squeeze_mask_0, x = clip_1_to_fp16)[name = tensor<string, []>("op_256_cast_fp16")];
            tensor<fp16, [1, 256, 16]> var_257_cast_fp16 = mul(x = var_256_cast_fp16, y = hidden_state_9_cast_fp16)[name = tensor<string, []>("op_257_cast_fp16")];
            tensor<int32, [4]> var_259_begin_0 = const()[name = tensor<string, []>("op_259_begin_0"), val = tensor<int32, [4]>([0, 4, 0, 0])];
            tensor<int32, [4]> var_259_end_0 = const()[name = tensor<string, []>("op_259_end_0"), val = tensor<int32, [4]>([1, 5, 1, 16])];
            tensor<bool, [4]> var_259_end_mask_0 = const()[name = tensor<string, []>("op_259_end_mask_0"), val = tensor<bool, [4]>([true, false, true, true])];
            tensor<bool, [4]> var_259_squeeze_mask_0 = const()[name = tensor<string, []>("op_259_squeeze_mask_0"), val = tensor<bool, [4]>([false, true, false, false])];
            tensor<fp16, [1, 1, 16]> var_259_cast_fp16 = slice_by_index(begin = var_259_begin_0, end = var_259_end_0, end_mask = var_259_end_mask_0, squeeze_mask = var_259_squeeze_mask_0, x = delta_B_u_1_cast_fp16)[name = tensor<string, []>("op_259_cast_fp16")];
            tensor<fp16, [1, 256, 16]> hidden_state_11_cast_fp16 = add(x = var_257_cast_fp16, y = var_259_cast_fp16)[name = tensor<string, []>("hidden_state_11_cast_fp16")];
            tensor<int32, [3]> var_262_begin_0 = const()[name = tensor<string, []>("op_262_begin_0"), val = tensor<int32, [3]>([0, 4, 0])];
            tensor<int32, [3]> var_262_end_0 = const()[name = tensor<string, []>("op_262_end_0"), val = tensor<int32, [3]>([1, 5, 16])];
            tensor<bool, [3]> var_262_end_mask_0 = const()[name = tensor<string, []>("op_262_end_mask_0"), val = tensor<bool, [3]>([true, false, true])];
            tensor<bool, [3]> var_262_squeeze_mask_0 = const()[name = tensor<string, []>("op_262_squeeze_mask_0"), val = tensor<bool, [3]>([false, true, false])];
            tensor<fp16, [1, 16]> var_262_cast_fp16 = slice_by_index(begin = var_262_begin_0, end = var_262_end_0, end_mask = var_262_end_mask_0, squeeze_mask = var_262_squeeze_mask_0, x = C_proj_1_cast_fp16)[name = tensor<string, []>("op_262_cast_fp16")];
            tensor<int32, [1]> var_264_axes_0 = const()[name = tensor<string, []>("op_264_axes_0"), val = tensor<int32, [1]>([-1])];
            tensor<fp16, [1, 16, 1]> var_264_cast_fp16 = expand_dims(axes = var_264_axes_0, x = var_262_cast_fp16)[name = tensor<string, []>("op_264_cast_fp16")];
            tensor<bool, []> var_265_transpose_x_0 = const()[name = tensor<string, []>("op_265_transpose_x_0"), val = tensor<bool, []>(false)];
            tensor<bool, []> var_265_transpose_y_0 = const()[name = tensor<string, []>("op_265_transpose_y_0"), val = tensor<bool, []>(false)];
            tensor<fp16, [1, 256, 1]> var_265_cast_fp16 = matmul(transpose_x = var_265_transpose_x_0, transpose_y = var_265_transpose_y_0, x = hidden_state_11_cast_fp16, y = var_264_cast_fp16)[name = tensor<string, []>("op_265_cast_fp16")];
            tensor<int32, [1]> var_266_axes_0 = const()[name = tensor<string, []>("op_266_axes_0"), val = tensor<int32, [1]>([-1])];
            tensor<fp16, [1, 256]> var_266_cast_fp16 = squeeze(axes = var_266_axes_0, x = var_265_cast_fp16)[name = tensor<string, []>("op_266_cast_fp16")];
            tensor<int32, [4]> var_268_begin_0 = const()[name = tensor<string, []>("op_268_begin_0"), val = tensor<int32, [4]>([0, 5, 0, 0])];
            tensor<int32, [4]> var_268_end_0 = const()[name = tensor<string, []>("op_268_end_0"), val = tensor<int32, [4]>([1, 6, 256, 16])];
            tensor<bool, [4]> var_268_end_mask_0 = const()[name = tensor<string, []>("op_268_end_mask_0"), val = tensor<bool, [4]>([true, false, true, true])];
            tensor<bool, [4]> var_268_squeeze_mask_0 = const()[name = tensor<string, []>("op_268_squeeze_mask_0"), val = tensor<bool, [4]>([false, true, false, false])];
            tensor<fp16, [1, 256, 16]> var_268_cast_fp16 = slice_by_index(begin = var_268_begin_0, end = var_268_end_0, end_mask = var_268_end_mask_0, squeeze_mask = var_268_squeeze_mask_0, x = clip_1_to_fp16)[name = tensor<string, []>("op_268_cast_fp16")];
            tensor<fp16, [1, 256, 16]> var_269_cast_fp16 = mul(x = var_268_cast_fp16, y = hidden_state_11_cast_fp16)[name = tensor<string, []>("op_269_cast_fp16")];
            tensor<int32, [4]> var_271_begin_0 = const()[name = tensor<string, []>("op_271_begin_0"), val = tensor<int32, [4]>([0, 5, 0, 0])];
            tensor<int32, [4]> var_271_end_0 = const()[name = tensor<string, []>("op_271_end_0"), val = tensor<int32, [4]>([1, 6, 1, 16])];
            tensor<bool, [4]> var_271_end_mask_0 = const()[name = tensor<string, []>("op_271_end_mask_0"), val = tensor<bool, [4]>([true, false, true, true])];
            tensor<bool, [4]> var_271_squeeze_mask_0 = const()[name = tensor<string, []>("op_271_squeeze_mask_0"), val = tensor<bool, [4]>([false, true, false, false])];
            tensor<fp16, [1, 1, 16]> var_271_cast_fp16 = slice_by_index(begin = var_271_begin_0, end = var_271_end_0, end_mask = var_271_end_mask_0, squeeze_mask = var_271_squeeze_mask_0, x = delta_B_u_1_cast_fp16)[name = tensor<string, []>("op_271_cast_fp16")];
            tensor<fp16, [1, 256, 16]> hidden_state_13_cast_fp16 = add(x = var_269_cast_fp16, y = var_271_cast_fp16)[name = tensor<string, []>("hidden_state_13_cast_fp16")];
            tensor<int32, [3]> var_274_begin_0 = const()[name = tensor<string, []>("op_274_begin_0"), val = tensor<int32, [3]>([0, 5, 0])];
            tensor<int32, [3]> var_274_end_0 = const()[name = tensor<string, []>("op_274_end_0"), val = tensor<int32, [3]>([1, 6, 16])];
            tensor<bool, [3]> var_274_end_mask_0 = const()[name = tensor<string, []>("op_274_end_mask_0"), val = tensor<bool, [3]>([true, false, true])];
            tensor<bool, [3]> var_274_squeeze_mask_0 = const()[name = tensor<string, []>("op_274_squeeze_mask_0"), val = tensor<bool, [3]>([false, true, false])];
            tensor<fp16, [1, 16]> var_274_cast_fp16 = slice_by_index(begin = var_274_begin_0, end = var_274_end_0, end_mask = var_274_end_mask_0, squeeze_mask = var_274_squeeze_mask_0, x = C_proj_1_cast_fp16)[name = tensor<string, []>("op_274_cast_fp16")];
            tensor<int32, [1]> var_276_axes_0 = const()[name = tensor<string, []>("op_276_axes_0"), val = tensor<int32, [1]>([-1])];
            tensor<fp16, [1, 16, 1]> var_276_cast_fp16 = expand_dims(axes = var_276_axes_0, x = var_274_cast_fp16)[name = tensor<string, []>("op_276_cast_fp16")];
            tensor<bool, []> var_277_transpose_x_0 = const()[name = tensor<string, []>("op_277_transpose_x_0"), val = tensor<bool, []>(false)];
            tensor<bool, []> var_277_transpose_y_0 = const()[name = tensor<string, []>("op_277_transpose_y_0"), val = tensor<bool, []>(false)];
            tensor<fp16, [1, 256, 1]> var_277_cast_fp16 = matmul(transpose_x = var_277_transpose_x_0, transpose_y = var_277_transpose_y_0, x = hidden_state_13_cast_fp16, y = var_276_cast_fp16)[name = tensor<string, []>("op_277_cast_fp16")];
            tensor<int32, [1]> var_278_axes_0 = const()[name = tensor<string, []>("op_278_axes_0"), val = tensor<int32, [1]>([-1])];
            tensor<fp16, [1, 256]> var_278_cast_fp16 = squeeze(axes = var_278_axes_0, x = var_277_cast_fp16)[name = tensor<string, []>("op_278_cast_fp16")];
            tensor<int32, [4]> var_280_begin_0 = const()[name = tensor<string, []>("op_280_begin_0"), val = tensor<int32, [4]>([0, 6, 0, 0])];
            tensor<int32, [4]> var_280_end_0 = const()[name = tensor<string, []>("op_280_end_0"), val = tensor<int32, [4]>([1, 7, 256, 16])];
            tensor<bool, [4]> var_280_end_mask_0 = const()[name = tensor<string, []>("op_280_end_mask_0"), val = tensor<bool, [4]>([true, false, true, true])];
            tensor<bool, [4]> var_280_squeeze_mask_0 = const()[name = tensor<string, []>("op_280_squeeze_mask_0"), val = tensor<bool, [4]>([false, true, false, false])];
            tensor<fp16, [1, 256, 16]> var_280_cast_fp16 = slice_by_index(begin = var_280_begin_0, end = var_280_end_0, end_mask = var_280_end_mask_0, squeeze_mask = var_280_squeeze_mask_0, x = clip_1_to_fp16)[name = tensor<string, []>("op_280_cast_fp16")];
            tensor<fp16, [1, 256, 16]> var_281_cast_fp16 = mul(x = var_280_cast_fp16, y = hidden_state_13_cast_fp16)[name = tensor<string, []>("op_281_cast_fp16")];
            tensor<int32, [4]> var_283_begin_0 = const()[name = tensor<string, []>("op_283_begin_0"), val = tensor<int32, [4]>([0, 6, 0, 0])];
            tensor<int32, [4]> var_283_end_0 = const()[name = tensor<string, []>("op_283_end_0"), val = tensor<int32, [4]>([1, 7, 1, 16])];
            tensor<bool, [4]> var_283_end_mask_0 = const()[name = tensor<string, []>("op_283_end_mask_0"), val = tensor<bool, [4]>([true, false, true, true])];
            tensor<bool, [4]> var_283_squeeze_mask_0 = const()[name = tensor<string, []>("op_283_squeeze_mask_0"), val = tensor<bool, [4]>([false, true, false, false])];
            tensor<fp16, [1, 1, 16]> var_283_cast_fp16 = slice_by_index(begin = var_283_begin_0, end = var_283_end_0, end_mask = var_283_end_mask_0, squeeze_mask = var_283_squeeze_mask_0, x = delta_B_u_1_cast_fp16)[name = tensor<string, []>("op_283_cast_fp16")];
            tensor<fp16, [1, 256, 16]> hidden_state_15_cast_fp16 = add(x = var_281_cast_fp16, y = var_283_cast_fp16)[name = tensor<string, []>("hidden_state_15_cast_fp16")];
            tensor<int32, [3]> var_286_begin_0 = const()[name = tensor<string, []>("op_286_begin_0"), val = tensor<int32, [3]>([0, 6, 0])];
            tensor<int32, [3]> var_286_end_0 = const()[name = tensor<string, []>("op_286_end_0"), val = tensor<int32, [3]>([1, 7, 16])];
            tensor<bool, [3]> var_286_end_mask_0 = const()[name = tensor<string, []>("op_286_end_mask_0"), val = tensor<bool, [3]>([true, false, true])];
            tensor<bool, [3]> var_286_squeeze_mask_0 = const()[name = tensor<string, []>("op_286_squeeze_mask_0"), val = tensor<bool, [3]>([false, true, false])];
            tensor<fp16, [1, 16]> var_286_cast_fp16 = slice_by_index(begin = var_286_begin_0, end = var_286_end_0, end_mask = var_286_end_mask_0, squeeze_mask = var_286_squeeze_mask_0, x = C_proj_1_cast_fp16)[name = tensor<string, []>("op_286_cast_fp16")];
            tensor<int32, [1]> var_288_axes_0 = const()[name = tensor<string, []>("op_288_axes_0"), val = tensor<int32, [1]>([-1])];
            tensor<fp16, [1, 16, 1]> var_288_cast_fp16 = expand_dims(axes = var_288_axes_0, x = var_286_cast_fp16)[name = tensor<string, []>("op_288_cast_fp16")];
            tensor<bool, []> var_289_transpose_x_0 = const()[name = tensor<string, []>("op_289_transpose_x_0"), val = tensor<bool, []>(false)];
            tensor<bool, []> var_289_transpose_y_0 = const()[name = tensor<string, []>("op_289_transpose_y_0"), val = tensor<bool, []>(false)];
            tensor<fp16, [1, 256, 1]> var_289_cast_fp16 = matmul(transpose_x = var_289_transpose_x_0, transpose_y = var_289_transpose_y_0, x = hidden_state_15_cast_fp16, y = var_288_cast_fp16)[name = tensor<string, []>("op_289_cast_fp16")];
            tensor<int32, [1]> var_290_axes_0 = const()[name = tensor<string, []>("op_290_axes_0"), val = tensor<int32, [1]>([-1])];
            tensor<fp16, [1, 256]> var_290_cast_fp16 = squeeze(axes = var_290_axes_0, x = var_289_cast_fp16)[name = tensor<string, []>("op_290_cast_fp16")];
            tensor<int32, [4]> var_292_begin_0 = const()[name = tensor<string, []>("op_292_begin_0"), val = tensor<int32, [4]>([0, 7, 0, 0])];
            tensor<int32, [4]> var_292_end_0 = const()[name = tensor<string, []>("op_292_end_0"), val = tensor<int32, [4]>([1, 8, 256, 16])];
            tensor<bool, [4]> var_292_end_mask_0 = const()[name = tensor<string, []>("op_292_end_mask_0"), val = tensor<bool, [4]>([true, false, true, true])];
            tensor<bool, [4]> var_292_squeeze_mask_0 = const()[name = tensor<string, []>("op_292_squeeze_mask_0"), val = tensor<bool, [4]>([false, true, false, false])];
            tensor<fp16, [1, 256, 16]> var_292_cast_fp16 = slice_by_index(begin = var_292_begin_0, end = var_292_end_0, end_mask = var_292_end_mask_0, squeeze_mask = var_292_squeeze_mask_0, x = clip_1_to_fp16)[name = tensor<string, []>("op_292_cast_fp16")];
            tensor<fp16, [1, 256, 16]> var_293_cast_fp16 = mul(x = var_292_cast_fp16, y = hidden_state_15_cast_fp16)[name = tensor<string, []>("op_293_cast_fp16")];
            tensor<int32, [4]> var_295_begin_0 = const()[name = tensor<string, []>("op_295_begin_0"), val = tensor<int32, [4]>([0, 7, 0, 0])];
            tensor<int32, [4]> var_295_end_0 = const()[name = tensor<string, []>("op_295_end_0"), val = tensor<int32, [4]>([1, 8, 1, 16])];
            tensor<bool, [4]> var_295_end_mask_0 = const()[name = tensor<string, []>("op_295_end_mask_0"), val = tensor<bool, [4]>([true, false, true, true])];
            tensor<bool, [4]> var_295_squeeze_mask_0 = const()[name = tensor<string, []>("op_295_squeeze_mask_0"), val = tensor<bool, [4]>([false, true, false, false])];
            tensor<fp16, [1, 1, 16]> var_295_cast_fp16 = slice_by_index(begin = var_295_begin_0, end = var_295_end_0, end_mask = var_295_end_mask_0, squeeze_mask = var_295_squeeze_mask_0, x = delta_B_u_1_cast_fp16)[name = tensor<string, []>("op_295_cast_fp16")];
            tensor<fp16, [1, 256, 16]> hidden_state_17_cast_fp16 = add(x = var_293_cast_fp16, y = var_295_cast_fp16)[name = tensor<string, []>("hidden_state_17_cast_fp16")];
            tensor<int32, [3]> var_298_begin_0 = const()[name = tensor<string, []>("op_298_begin_0"), val = tensor<int32, [3]>([0, 7, 0])];
            tensor<int32, [3]> var_298_end_0 = const()[name = tensor<string, []>("op_298_end_0"), val = tensor<int32, [3]>([1, 8, 16])];
            tensor<bool, [3]> var_298_end_mask_0 = const()[name = tensor<string, []>("op_298_end_mask_0"), val = tensor<bool, [3]>([true, false, true])];
            tensor<bool, [3]> var_298_squeeze_mask_0 = const()[name = tensor<string, []>("op_298_squeeze_mask_0"), val = tensor<bool, [3]>([false, true, false])];
            tensor<fp16, [1, 16]> var_298_cast_fp16 = slice_by_index(begin = var_298_begin_0, end = var_298_end_0, end_mask = var_298_end_mask_0, squeeze_mask = var_298_squeeze_mask_0, x = C_proj_1_cast_fp16)[name = tensor<string, []>("op_298_cast_fp16")];
            tensor<int32, [1]> var_300_axes_0 = const()[name = tensor<string, []>("op_300_axes_0"), val = tensor<int32, [1]>([-1])];
            tensor<fp16, [1, 16, 1]> var_300_cast_fp16 = expand_dims(axes = var_300_axes_0, x = var_298_cast_fp16)[name = tensor<string, []>("op_300_cast_fp16")];
            tensor<bool, []> var_301_transpose_x_0 = const()[name = tensor<string, []>("op_301_transpose_x_0"), val = tensor<bool, []>(false)];
            tensor<bool, []> var_301_transpose_y_0 = const()[name = tensor<string, []>("op_301_transpose_y_0"), val = tensor<bool, []>(false)];
            tensor<fp16, [1, 256, 1]> var_301_cast_fp16 = matmul(transpose_x = var_301_transpose_x_0, transpose_y = var_301_transpose_y_0, x = hidden_state_17_cast_fp16, y = var_300_cast_fp16)[name = tensor<string, []>("op_301_cast_fp16")];
            tensor<int32, [1]> var_302_axes_0 = const()[name = tensor<string, []>("op_302_axes_0"), val = tensor<int32, [1]>([-1])];
            tensor<fp16, [1, 256]> var_302_cast_fp16 = squeeze(axes = var_302_axes_0, x = var_301_cast_fp16)[name = tensor<string, []>("op_302_cast_fp16")];
            tensor<int32, [4]> var_304_begin_0 = const()[name = tensor<string, []>("op_304_begin_0"), val = tensor<int32, [4]>([0, 8, 0, 0])];
            tensor<int32, [4]> var_304_end_0 = const()[name = tensor<string, []>("op_304_end_0"), val = tensor<int32, [4]>([1, 9, 256, 16])];
            tensor<bool, [4]> var_304_end_mask_0 = const()[name = tensor<string, []>("op_304_end_mask_0"), val = tensor<bool, [4]>([true, false, true, true])];
            tensor<bool, [4]> var_304_squeeze_mask_0 = const()[name = tensor<string, []>("op_304_squeeze_mask_0"), val = tensor<bool, [4]>([false, true, false, false])];
            tensor<fp16, [1, 256, 16]> var_304_cast_fp16 = slice_by_index(begin = var_304_begin_0, end = var_304_end_0, end_mask = var_304_end_mask_0, squeeze_mask = var_304_squeeze_mask_0, x = clip_1_to_fp16)[name = tensor<string, []>("op_304_cast_fp16")];
            tensor<fp16, [1, 256, 16]> var_305_cast_fp16 = mul(x = var_304_cast_fp16, y = hidden_state_17_cast_fp16)[name = tensor<string, []>("op_305_cast_fp16")];
            tensor<int32, [4]> var_307_begin_0 = const()[name = tensor<string, []>("op_307_begin_0"), val = tensor<int32, [4]>([0, 8, 0, 0])];
            tensor<int32, [4]> var_307_end_0 = const()[name = tensor<string, []>("op_307_end_0"), val = tensor<int32, [4]>([1, 9, 1, 16])];
            tensor<bool, [4]> var_307_end_mask_0 = const()[name = tensor<string, []>("op_307_end_mask_0"), val = tensor<bool, [4]>([true, false, true, true])];
            tensor<bool, [4]> var_307_squeeze_mask_0 = const()[name = tensor<string, []>("op_307_squeeze_mask_0"), val = tensor<bool, [4]>([false, true, false, false])];
            tensor<fp16, [1, 1, 16]> var_307_cast_fp16 = slice_by_index(begin = var_307_begin_0, end = var_307_end_0, end_mask = var_307_end_mask_0, squeeze_mask = var_307_squeeze_mask_0, x = delta_B_u_1_cast_fp16)[name = tensor<string, []>("op_307_cast_fp16")];
            tensor<fp16, [1, 256, 16]> hidden_state_19_cast_fp16 = add(x = var_305_cast_fp16, y = var_307_cast_fp16)[name = tensor<string, []>("hidden_state_19_cast_fp16")];
            tensor<int32, [3]> var_310_begin_0 = const()[name = tensor<string, []>("op_310_begin_0"), val = tensor<int32, [3]>([0, 8, 0])];
            tensor<int32, [3]> var_310_end_0 = const()[name = tensor<string, []>("op_310_end_0"), val = tensor<int32, [3]>([1, 9, 16])];
            tensor<bool, [3]> var_310_end_mask_0 = const()[name = tensor<string, []>("op_310_end_mask_0"), val = tensor<bool, [3]>([true, false, true])];
            tensor<bool, [3]> var_310_squeeze_mask_0 = const()[name = tensor<string, []>("op_310_squeeze_mask_0"), val = tensor<bool, [3]>([false, true, false])];
            tensor<fp16, [1, 16]> var_310_cast_fp16 = slice_by_index(begin = var_310_begin_0, end = var_310_end_0, end_mask = var_310_end_mask_0, squeeze_mask = var_310_squeeze_mask_0, x = C_proj_1_cast_fp16)[name = tensor<string, []>("op_310_cast_fp16")];
            tensor<int32, [1]> var_312_axes_0 = const()[name = tensor<string, []>("op_312_axes_0"), val = tensor<int32, [1]>([-1])];
            tensor<fp16, [1, 16, 1]> var_312_cast_fp16 = expand_dims(axes = var_312_axes_0, x = var_310_cast_fp16)[name = tensor<string, []>("op_312_cast_fp16")];
            tensor<bool, []> var_313_transpose_x_0 = const()[name = tensor<string, []>("op_313_transpose_x_0"), val = tensor<bool, []>(false)];
            tensor<bool, []> var_313_transpose_y_0 = const()[name = tensor<string, []>("op_313_transpose_y_0"), val = tensor<bool, []>(false)];
            tensor<fp16, [1, 256, 1]> var_313_cast_fp16 = matmul(transpose_x = var_313_transpose_x_0, transpose_y = var_313_transpose_y_0, x = hidden_state_19_cast_fp16, y = var_312_cast_fp16)[name = tensor<string, []>("op_313_cast_fp16")];
            tensor<int32, [1]> var_314_axes_0 = const()[name = tensor<string, []>("op_314_axes_0"), val = tensor<int32, [1]>([-1])];
            tensor<fp16, [1, 256]> var_314_cast_fp16 = squeeze(axes = var_314_axes_0, x = var_313_cast_fp16)[name = tensor<string, []>("op_314_cast_fp16")];
            tensor<int32, [4]> var_316_begin_0 = const()[name = tensor<string, []>("op_316_begin_0"), val = tensor<int32, [4]>([0, 9, 0, 0])];
            tensor<int32, [4]> var_316_end_0 = const()[name = tensor<string, []>("op_316_end_0"), val = tensor<int32, [4]>([1, 10, 256, 16])];
            tensor<bool, [4]> var_316_end_mask_0 = const()[name = tensor<string, []>("op_316_end_mask_0"), val = tensor<bool, [4]>([true, false, true, true])];
            tensor<bool, [4]> var_316_squeeze_mask_0 = const()[name = tensor<string, []>("op_316_squeeze_mask_0"), val = tensor<bool, [4]>([false, true, false, false])];
            tensor<fp16, [1, 256, 16]> var_316_cast_fp16 = slice_by_index(begin = var_316_begin_0, end = var_316_end_0, end_mask = var_316_end_mask_0, squeeze_mask = var_316_squeeze_mask_0, x = clip_1_to_fp16)[name = tensor<string, []>("op_316_cast_fp16")];
            tensor<fp16, [1, 256, 16]> var_317_cast_fp16 = mul(x = var_316_cast_fp16, y = hidden_state_19_cast_fp16)[name = tensor<string, []>("op_317_cast_fp16")];
            tensor<int32, [4]> var_319_begin_0 = const()[name = tensor<string, []>("op_319_begin_0"), val = tensor<int32, [4]>([0, 9, 0, 0])];
            tensor<int32, [4]> var_319_end_0 = const()[name = tensor<string, []>("op_319_end_0"), val = tensor<int32, [4]>([1, 10, 1, 16])];
            tensor<bool, [4]> var_319_end_mask_0 = const()[name = tensor<string, []>("op_319_end_mask_0"), val = tensor<bool, [4]>([true, false, true, true])];
            tensor<bool, [4]> var_319_squeeze_mask_0 = const()[name = tensor<string, []>("op_319_squeeze_mask_0"), val = tensor<bool, [4]>([false, true, false, false])];
            tensor<fp16, [1, 1, 16]> var_319_cast_fp16 = slice_by_index(begin = var_319_begin_0, end = var_319_end_0, end_mask = var_319_end_mask_0, squeeze_mask = var_319_squeeze_mask_0, x = delta_B_u_1_cast_fp16)[name = tensor<string, []>("op_319_cast_fp16")];
            tensor<fp16, [1, 256, 16]> hidden_state_21_cast_fp16 = add(x = var_317_cast_fp16, y = var_319_cast_fp16)[name = tensor<string, []>("hidden_state_21_cast_fp16")];
            tensor<int32, [3]> var_322_begin_0 = const()[name = tensor<string, []>("op_322_begin_0"), val = tensor<int32, [3]>([0, 9, 0])];
            tensor<int32, [3]> var_322_end_0 = const()[name = tensor<string, []>("op_322_end_0"), val = tensor<int32, [3]>([1, 10, 16])];
            tensor<bool, [3]> var_322_end_mask_0 = const()[name = tensor<string, []>("op_322_end_mask_0"), val = tensor<bool, [3]>([true, false, true])];
            tensor<bool, [3]> var_322_squeeze_mask_0 = const()[name = tensor<string, []>("op_322_squeeze_mask_0"), val = tensor<bool, [3]>([false, true, false])];
            tensor<fp16, [1, 16]> var_322_cast_fp16 = slice_by_index(begin = var_322_begin_0, end = var_322_end_0, end_mask = var_322_end_mask_0, squeeze_mask = var_322_squeeze_mask_0, x = C_proj_1_cast_fp16)[name = tensor<string, []>("op_322_cast_fp16")];
            tensor<int32, [1]> var_324_axes_0 = const()[name = tensor<string, []>("op_324_axes_0"), val = tensor<int32, [1]>([-1])];
            tensor<fp16, [1, 16, 1]> var_324_cast_fp16 = expand_dims(axes = var_324_axes_0, x = var_322_cast_fp16)[name = tensor<string, []>("op_324_cast_fp16")];
            tensor<bool, []> var_325_transpose_x_0 = const()[name = tensor<string, []>("op_325_transpose_x_0"), val = tensor<bool, []>(false)];
            tensor<bool, []> var_325_transpose_y_0 = const()[name = tensor<string, []>("op_325_transpose_y_0"), val = tensor<bool, []>(false)];
            tensor<fp16, [1, 256, 1]> var_325_cast_fp16 = matmul(transpose_x = var_325_transpose_x_0, transpose_y = var_325_transpose_y_0, x = hidden_state_21_cast_fp16, y = var_324_cast_fp16)[name = tensor<string, []>("op_325_cast_fp16")];
            tensor<int32, [1]> var_326_axes_0 = const()[name = tensor<string, []>("op_326_axes_0"), val = tensor<int32, [1]>([-1])];
            tensor<fp16, [1, 256]> var_326_cast_fp16 = squeeze(axes = var_326_axes_0, x = var_325_cast_fp16)[name = tensor<string, []>("op_326_cast_fp16")];
            tensor<int32, [4]> var_328_begin_0 = const()[name = tensor<string, []>("op_328_begin_0"), val = tensor<int32, [4]>([0, 10, 0, 0])];
            tensor<int32, [4]> var_328_end_0 = const()[name = tensor<string, []>("op_328_end_0"), val = tensor<int32, [4]>([1, 11, 256, 16])];
            tensor<bool, [4]> var_328_end_mask_0 = const()[name = tensor<string, []>("op_328_end_mask_0"), val = tensor<bool, [4]>([true, false, true, true])];
            tensor<bool, [4]> var_328_squeeze_mask_0 = const()[name = tensor<string, []>("op_328_squeeze_mask_0"), val = tensor<bool, [4]>([false, true, false, false])];
            tensor<fp16, [1, 256, 16]> var_328_cast_fp16 = slice_by_index(begin = var_328_begin_0, end = var_328_end_0, end_mask = var_328_end_mask_0, squeeze_mask = var_328_squeeze_mask_0, x = clip_1_to_fp16)[name = tensor<string, []>("op_328_cast_fp16")];
            tensor<fp16, [1, 256, 16]> var_329_cast_fp16 = mul(x = var_328_cast_fp16, y = hidden_state_21_cast_fp16)[name = tensor<string, []>("op_329_cast_fp16")];
            tensor<int32, [4]> var_331_begin_0 = const()[name = tensor<string, []>("op_331_begin_0"), val = tensor<int32, [4]>([0, 10, 0, 0])];
            tensor<int32, [4]> var_331_end_0 = const()[name = tensor<string, []>("op_331_end_0"), val = tensor<int32, [4]>([1, 11, 1, 16])];
            tensor<bool, [4]> var_331_end_mask_0 = const()[name = tensor<string, []>("op_331_end_mask_0"), val = tensor<bool, [4]>([true, false, true, true])];
            tensor<bool, [4]> var_331_squeeze_mask_0 = const()[name = tensor<string, []>("op_331_squeeze_mask_0"), val = tensor<bool, [4]>([false, true, false, false])];
            tensor<fp16, [1, 1, 16]> var_331_cast_fp16 = slice_by_index(begin = var_331_begin_0, end = var_331_end_0, end_mask = var_331_end_mask_0, squeeze_mask = var_331_squeeze_mask_0, x = delta_B_u_1_cast_fp16)[name = tensor<string, []>("op_331_cast_fp16")];
            tensor<fp16, [1, 256, 16]> hidden_state_23_cast_fp16 = add(x = var_329_cast_fp16, y = var_331_cast_fp16)[name = tensor<string, []>("hidden_state_23_cast_fp16")];
            tensor<int32, [3]> var_334_begin_0 = const()[name = tensor<string, []>("op_334_begin_0"), val = tensor<int32, [3]>([0, 10, 0])];
            tensor<int32, [3]> var_334_end_0 = const()[name = tensor<string, []>("op_334_end_0"), val = tensor<int32, [3]>([1, 11, 16])];
            tensor<bool, [3]> var_334_end_mask_0 = const()[name = tensor<string, []>("op_334_end_mask_0"), val = tensor<bool, [3]>([true, false, true])];
            tensor<bool, [3]> var_334_squeeze_mask_0 = const()[name = tensor<string, []>("op_334_squeeze_mask_0"), val = tensor<bool, [3]>([false, true, false])];
            tensor<fp16, [1, 16]> var_334_cast_fp16 = slice_by_index(begin = var_334_begin_0, end = var_334_end_0, end_mask = var_334_end_mask_0, squeeze_mask = var_334_squeeze_mask_0, x = C_proj_1_cast_fp16)[name = tensor<string, []>("op_334_cast_fp16")];
            tensor<int32, [1]> var_336_axes_0 = const()[name = tensor<string, []>("op_336_axes_0"), val = tensor<int32, [1]>([-1])];
            tensor<fp16, [1, 16, 1]> var_336_cast_fp16 = expand_dims(axes = var_336_axes_0, x = var_334_cast_fp16)[name = tensor<string, []>("op_336_cast_fp16")];
            tensor<bool, []> var_337_transpose_x_0 = const()[name = tensor<string, []>("op_337_transpose_x_0"), val = tensor<bool, []>(false)];
            tensor<bool, []> var_337_transpose_y_0 = const()[name = tensor<string, []>("op_337_transpose_y_0"), val = tensor<bool, []>(false)];
            tensor<fp16, [1, 256, 1]> var_337_cast_fp16 = matmul(transpose_x = var_337_transpose_x_0, transpose_y = var_337_transpose_y_0, x = hidden_state_23_cast_fp16, y = var_336_cast_fp16)[name = tensor<string, []>("op_337_cast_fp16")];
            tensor<int32, [1]> var_338_axes_0 = const()[name = tensor<string, []>("op_338_axes_0"), val = tensor<int32, [1]>([-1])];
            tensor<fp16, [1, 256]> var_338_cast_fp16 = squeeze(axes = var_338_axes_0, x = var_337_cast_fp16)[name = tensor<string, []>("op_338_cast_fp16")];
            tensor<int32, [4]> var_340_begin_0 = const()[name = tensor<string, []>("op_340_begin_0"), val = tensor<int32, [4]>([0, 11, 0, 0])];
            tensor<int32, [4]> var_340_end_0 = const()[name = tensor<string, []>("op_340_end_0"), val = tensor<int32, [4]>([1, 12, 256, 16])];
            tensor<bool, [4]> var_340_end_mask_0 = const()[name = tensor<string, []>("op_340_end_mask_0"), val = tensor<bool, [4]>([true, false, true, true])];
            tensor<bool, [4]> var_340_squeeze_mask_0 = const()[name = tensor<string, []>("op_340_squeeze_mask_0"), val = tensor<bool, [4]>([false, true, false, false])];
            tensor<fp16, [1, 256, 16]> var_340_cast_fp16 = slice_by_index(begin = var_340_begin_0, end = var_340_end_0, end_mask = var_340_end_mask_0, squeeze_mask = var_340_squeeze_mask_0, x = clip_1_to_fp16)[name = tensor<string, []>("op_340_cast_fp16")];
            tensor<fp16, [1, 256, 16]> var_341_cast_fp16 = mul(x = var_340_cast_fp16, y = hidden_state_23_cast_fp16)[name = tensor<string, []>("op_341_cast_fp16")];
            tensor<int32, [4]> var_343_begin_0 = const()[name = tensor<string, []>("op_343_begin_0"), val = tensor<int32, [4]>([0, 11, 0, 0])];
            tensor<int32, [4]> var_343_end_0 = const()[name = tensor<string, []>("op_343_end_0"), val = tensor<int32, [4]>([1, 12, 1, 16])];
            tensor<bool, [4]> var_343_end_mask_0 = const()[name = tensor<string, []>("op_343_end_mask_0"), val = tensor<bool, [4]>([true, false, true, true])];
            tensor<bool, [4]> var_343_squeeze_mask_0 = const()[name = tensor<string, []>("op_343_squeeze_mask_0"), val = tensor<bool, [4]>([false, true, false, false])];
            tensor<fp16, [1, 1, 16]> var_343_cast_fp16 = slice_by_index(begin = var_343_begin_0, end = var_343_end_0, end_mask = var_343_end_mask_0, squeeze_mask = var_343_squeeze_mask_0, x = delta_B_u_1_cast_fp16)[name = tensor<string, []>("op_343_cast_fp16")];
            tensor<fp16, [1, 256, 16]> hidden_state_25_cast_fp16 = add(x = var_341_cast_fp16, y = var_343_cast_fp16)[name = tensor<string, []>("hidden_state_25_cast_fp16")];
            tensor<int32, [3]> var_346_begin_0 = const()[name = tensor<string, []>("op_346_begin_0"), val = tensor<int32, [3]>([0, 11, 0])];
            tensor<int32, [3]> var_346_end_0 = const()[name = tensor<string, []>("op_346_end_0"), val = tensor<int32, [3]>([1, 12, 16])];
            tensor<bool, [3]> var_346_end_mask_0 = const()[name = tensor<string, []>("op_346_end_mask_0"), val = tensor<bool, [3]>([true, false, true])];
            tensor<bool, [3]> var_346_squeeze_mask_0 = const()[name = tensor<string, []>("op_346_squeeze_mask_0"), val = tensor<bool, [3]>([false, true, false])];
            tensor<fp16, [1, 16]> var_346_cast_fp16 = slice_by_index(begin = var_346_begin_0, end = var_346_end_0, end_mask = var_346_end_mask_0, squeeze_mask = var_346_squeeze_mask_0, x = C_proj_1_cast_fp16)[name = tensor<string, []>("op_346_cast_fp16")];
            tensor<int32, [1]> var_348_axes_0 = const()[name = tensor<string, []>("op_348_axes_0"), val = tensor<int32, [1]>([-1])];
            tensor<fp16, [1, 16, 1]> var_348_cast_fp16 = expand_dims(axes = var_348_axes_0, x = var_346_cast_fp16)[name = tensor<string, []>("op_348_cast_fp16")];
            tensor<bool, []> var_349_transpose_x_0 = const()[name = tensor<string, []>("op_349_transpose_x_0"), val = tensor<bool, []>(false)];
            tensor<bool, []> var_349_transpose_y_0 = const()[name = tensor<string, []>("op_349_transpose_y_0"), val = tensor<bool, []>(false)];
            tensor<fp16, [1, 256, 1]> var_349_cast_fp16 = matmul(transpose_x = var_349_transpose_x_0, transpose_y = var_349_transpose_y_0, x = hidden_state_25_cast_fp16, y = var_348_cast_fp16)[name = tensor<string, []>("op_349_cast_fp16")];
            tensor<int32, [1]> var_350_axes_0 = const()[name = tensor<string, []>("op_350_axes_0"), val = tensor<int32, [1]>([-1])];
            tensor<fp16, [1, 256]> var_350_cast_fp16 = squeeze(axes = var_350_axes_0, x = var_349_cast_fp16)[name = tensor<string, []>("op_350_cast_fp16")];
            tensor<int32, [4]> var_352_begin_0 = const()[name = tensor<string, []>("op_352_begin_0"), val = tensor<int32, [4]>([0, 12, 0, 0])];
            tensor<int32, [4]> var_352_end_0 = const()[name = tensor<string, []>("op_352_end_0"), val = tensor<int32, [4]>([1, 13, 256, 16])];
            tensor<bool, [4]> var_352_end_mask_0 = const()[name = tensor<string, []>("op_352_end_mask_0"), val = tensor<bool, [4]>([true, false, true, true])];
            tensor<bool, [4]> var_352_squeeze_mask_0 = const()[name = tensor<string, []>("op_352_squeeze_mask_0"), val = tensor<bool, [4]>([false, true, false, false])];
            tensor<fp16, [1, 256, 16]> var_352_cast_fp16 = slice_by_index(begin = var_352_begin_0, end = var_352_end_0, end_mask = var_352_end_mask_0, squeeze_mask = var_352_squeeze_mask_0, x = clip_1_to_fp16)[name = tensor<string, []>("op_352_cast_fp16")];
            tensor<fp16, [1, 256, 16]> var_353_cast_fp16 = mul(x = var_352_cast_fp16, y = hidden_state_25_cast_fp16)[name = tensor<string, []>("op_353_cast_fp16")];
            tensor<int32, [4]> var_355_begin_0 = const()[name = tensor<string, []>("op_355_begin_0"), val = tensor<int32, [4]>([0, 12, 0, 0])];
            tensor<int32, [4]> var_355_end_0 = const()[name = tensor<string, []>("op_355_end_0"), val = tensor<int32, [4]>([1, 13, 1, 16])];
            tensor<bool, [4]> var_355_end_mask_0 = const()[name = tensor<string, []>("op_355_end_mask_0"), val = tensor<bool, [4]>([true, false, true, true])];
            tensor<bool, [4]> var_355_squeeze_mask_0 = const()[name = tensor<string, []>("op_355_squeeze_mask_0"), val = tensor<bool, [4]>([false, true, false, false])];
            tensor<fp16, [1, 1, 16]> var_355_cast_fp16 = slice_by_index(begin = var_355_begin_0, end = var_355_end_0, end_mask = var_355_end_mask_0, squeeze_mask = var_355_squeeze_mask_0, x = delta_B_u_1_cast_fp16)[name = tensor<string, []>("op_355_cast_fp16")];
            tensor<fp16, [1, 256, 16]> hidden_state_27_cast_fp16 = add(x = var_353_cast_fp16, y = var_355_cast_fp16)[name = tensor<string, []>("hidden_state_27_cast_fp16")];
            tensor<int32, [3]> var_358_begin_0 = const()[name = tensor<string, []>("op_358_begin_0"), val = tensor<int32, [3]>([0, 12, 0])];
            tensor<int32, [3]> var_358_end_0 = const()[name = tensor<string, []>("op_358_end_0"), val = tensor<int32, [3]>([1, 13, 16])];
            tensor<bool, [3]> var_358_end_mask_0 = const()[name = tensor<string, []>("op_358_end_mask_0"), val = tensor<bool, [3]>([true, false, true])];
            tensor<bool, [3]> var_358_squeeze_mask_0 = const()[name = tensor<string, []>("op_358_squeeze_mask_0"), val = tensor<bool, [3]>([false, true, false])];
            tensor<fp16, [1, 16]> var_358_cast_fp16 = slice_by_index(begin = var_358_begin_0, end = var_358_end_0, end_mask = var_358_end_mask_0, squeeze_mask = var_358_squeeze_mask_0, x = C_proj_1_cast_fp16)[name = tensor<string, []>("op_358_cast_fp16")];
            tensor<int32, [1]> var_360_axes_0 = const()[name = tensor<string, []>("op_360_axes_0"), val = tensor<int32, [1]>([-1])];
            tensor<fp16, [1, 16, 1]> var_360_cast_fp16 = expand_dims(axes = var_360_axes_0, x = var_358_cast_fp16)[name = tensor<string, []>("op_360_cast_fp16")];
            tensor<bool, []> var_361_transpose_x_0 = const()[name = tensor<string, []>("op_361_transpose_x_0"), val = tensor<bool, []>(false)];
            tensor<bool, []> var_361_transpose_y_0 = const()[name = tensor<string, []>("op_361_transpose_y_0"), val = tensor<bool, []>(false)];
            tensor<fp16, [1, 256, 1]> var_361_cast_fp16 = matmul(transpose_x = var_361_transpose_x_0, transpose_y = var_361_transpose_y_0, x = hidden_state_27_cast_fp16, y = var_360_cast_fp16)[name = tensor<string, []>("op_361_cast_fp16")];
            tensor<int32, [1]> var_362_axes_0 = const()[name = tensor<string, []>("op_362_axes_0"), val = tensor<int32, [1]>([-1])];
            tensor<fp16, [1, 256]> var_362_cast_fp16 = squeeze(axes = var_362_axes_0, x = var_361_cast_fp16)[name = tensor<string, []>("op_362_cast_fp16")];
            tensor<int32, [4]> var_364_begin_0 = const()[name = tensor<string, []>("op_364_begin_0"), val = tensor<int32, [4]>([0, 13, 0, 0])];
            tensor<int32, [4]> var_364_end_0 = const()[name = tensor<string, []>("op_364_end_0"), val = tensor<int32, [4]>([1, 14, 256, 16])];
            tensor<bool, [4]> var_364_end_mask_0 = const()[name = tensor<string, []>("op_364_end_mask_0"), val = tensor<bool, [4]>([true, false, true, true])];
            tensor<bool, [4]> var_364_squeeze_mask_0 = const()[name = tensor<string, []>("op_364_squeeze_mask_0"), val = tensor<bool, [4]>([false, true, false, false])];
            tensor<fp16, [1, 256, 16]> var_364_cast_fp16 = slice_by_index(begin = var_364_begin_0, end = var_364_end_0, end_mask = var_364_end_mask_0, squeeze_mask = var_364_squeeze_mask_0, x = clip_1_to_fp16)[name = tensor<string, []>("op_364_cast_fp16")];
            tensor<fp16, [1, 256, 16]> var_365_cast_fp16 = mul(x = var_364_cast_fp16, y = hidden_state_27_cast_fp16)[name = tensor<string, []>("op_365_cast_fp16")];
            tensor<int32, [4]> var_367_begin_0 = const()[name = tensor<string, []>("op_367_begin_0"), val = tensor<int32, [4]>([0, 13, 0, 0])];
            tensor<int32, [4]> var_367_end_0 = const()[name = tensor<string, []>("op_367_end_0"), val = tensor<int32, [4]>([1, 14, 1, 16])];
            tensor<bool, [4]> var_367_end_mask_0 = const()[name = tensor<string, []>("op_367_end_mask_0"), val = tensor<bool, [4]>([true, false, true, true])];
            tensor<bool, [4]> var_367_squeeze_mask_0 = const()[name = tensor<string, []>("op_367_squeeze_mask_0"), val = tensor<bool, [4]>([false, true, false, false])];
            tensor<fp16, [1, 1, 16]> var_367_cast_fp16 = slice_by_index(begin = var_367_begin_0, end = var_367_end_0, end_mask = var_367_end_mask_0, squeeze_mask = var_367_squeeze_mask_0, x = delta_B_u_1_cast_fp16)[name = tensor<string, []>("op_367_cast_fp16")];
            tensor<fp16, [1, 256, 16]> hidden_state_29_cast_fp16 = add(x = var_365_cast_fp16, y = var_367_cast_fp16)[name = tensor<string, []>("hidden_state_29_cast_fp16")];
            tensor<int32, [3]> var_370_begin_0 = const()[name = tensor<string, []>("op_370_begin_0"), val = tensor<int32, [3]>([0, 13, 0])];
            tensor<int32, [3]> var_370_end_0 = const()[name = tensor<string, []>("op_370_end_0"), val = tensor<int32, [3]>([1, 14, 16])];
            tensor<bool, [3]> var_370_end_mask_0 = const()[name = tensor<string, []>("op_370_end_mask_0"), val = tensor<bool, [3]>([true, false, true])];
            tensor<bool, [3]> var_370_squeeze_mask_0 = const()[name = tensor<string, []>("op_370_squeeze_mask_0"), val = tensor<bool, [3]>([false, true, false])];
            tensor<fp16, [1, 16]> var_370_cast_fp16 = slice_by_index(begin = var_370_begin_0, end = var_370_end_0, end_mask = var_370_end_mask_0, squeeze_mask = var_370_squeeze_mask_0, x = C_proj_1_cast_fp16)[name = tensor<string, []>("op_370_cast_fp16")];
            tensor<int32, [1]> var_372_axes_0 = const()[name = tensor<string, []>("op_372_axes_0"), val = tensor<int32, [1]>([-1])];
            tensor<fp16, [1, 16, 1]> var_372_cast_fp16 = expand_dims(axes = var_372_axes_0, x = var_370_cast_fp16)[name = tensor<string, []>("op_372_cast_fp16")];
            tensor<bool, []> var_373_transpose_x_0 = const()[name = tensor<string, []>("op_373_transpose_x_0"), val = tensor<bool, []>(false)];
            tensor<bool, []> var_373_transpose_y_0 = const()[name = tensor<string, []>("op_373_transpose_y_0"), val = tensor<bool, []>(false)];
            tensor<fp16, [1, 256, 1]> var_373_cast_fp16 = matmul(transpose_x = var_373_transpose_x_0, transpose_y = var_373_transpose_y_0, x = hidden_state_29_cast_fp16, y = var_372_cast_fp16)[name = tensor<string, []>("op_373_cast_fp16")];
            tensor<int32, [1]> var_374_axes_0 = const()[name = tensor<string, []>("op_374_axes_0"), val = tensor<int32, [1]>([-1])];
            tensor<fp16, [1, 256]> var_374_cast_fp16 = squeeze(axes = var_374_axes_0, x = var_373_cast_fp16)[name = tensor<string, []>("op_374_cast_fp16")];
            tensor<int32, [4]> var_376_begin_0 = const()[name = tensor<string, []>("op_376_begin_0"), val = tensor<int32, [4]>([0, 14, 0, 0])];
            tensor<int32, [4]> var_376_end_0 = const()[name = tensor<string, []>("op_376_end_0"), val = tensor<int32, [4]>([1, 15, 256, 16])];
            tensor<bool, [4]> var_376_end_mask_0 = const()[name = tensor<string, []>("op_376_end_mask_0"), val = tensor<bool, [4]>([true, false, true, true])];
            tensor<bool, [4]> var_376_squeeze_mask_0 = const()[name = tensor<string, []>("op_376_squeeze_mask_0"), val = tensor<bool, [4]>([false, true, false, false])];
            tensor<fp16, [1, 256, 16]> var_376_cast_fp16 = slice_by_index(begin = var_376_begin_0, end = var_376_end_0, end_mask = var_376_end_mask_0, squeeze_mask = var_376_squeeze_mask_0, x = clip_1_to_fp16)[name = tensor<string, []>("op_376_cast_fp16")];
            tensor<fp16, [1, 256, 16]> var_377_cast_fp16 = mul(x = var_376_cast_fp16, y = hidden_state_29_cast_fp16)[name = tensor<string, []>("op_377_cast_fp16")];
            tensor<int32, [4]> var_379_begin_0 = const()[name = tensor<string, []>("op_379_begin_0"), val = tensor<int32, [4]>([0, 14, 0, 0])];
            tensor<int32, [4]> var_379_end_0 = const()[name = tensor<string, []>("op_379_end_0"), val = tensor<int32, [4]>([1, 15, 1, 16])];
            tensor<bool, [4]> var_379_end_mask_0 = const()[name = tensor<string, []>("op_379_end_mask_0"), val = tensor<bool, [4]>([true, false, true, true])];
            tensor<bool, [4]> var_379_squeeze_mask_0 = const()[name = tensor<string, []>("op_379_squeeze_mask_0"), val = tensor<bool, [4]>([false, true, false, false])];
            tensor<fp16, [1, 1, 16]> var_379_cast_fp16 = slice_by_index(begin = var_379_begin_0, end = var_379_end_0, end_mask = var_379_end_mask_0, squeeze_mask = var_379_squeeze_mask_0, x = delta_B_u_1_cast_fp16)[name = tensor<string, []>("op_379_cast_fp16")];
            tensor<fp16, [1, 256, 16]> hidden_state_31_cast_fp16 = add(x = var_377_cast_fp16, y = var_379_cast_fp16)[name = tensor<string, []>("hidden_state_31_cast_fp16")];
            tensor<int32, [3]> var_382_begin_0 = const()[name = tensor<string, []>("op_382_begin_0"), val = tensor<int32, [3]>([0, 14, 0])];
            tensor<int32, [3]> var_382_end_0 = const()[name = tensor<string, []>("op_382_end_0"), val = tensor<int32, [3]>([1, 15, 16])];
            tensor<bool, [3]> var_382_end_mask_0 = const()[name = tensor<string, []>("op_382_end_mask_0"), val = tensor<bool, [3]>([true, false, true])];
            tensor<bool, [3]> var_382_squeeze_mask_0 = const()[name = tensor<string, []>("op_382_squeeze_mask_0"), val = tensor<bool, [3]>([false, true, false])];
            tensor<fp16, [1, 16]> var_382_cast_fp16 = slice_by_index(begin = var_382_begin_0, end = var_382_end_0, end_mask = var_382_end_mask_0, squeeze_mask = var_382_squeeze_mask_0, x = C_proj_1_cast_fp16)[name = tensor<string, []>("op_382_cast_fp16")];
            tensor<int32, [1]> var_384_axes_0 = const()[name = tensor<string, []>("op_384_axes_0"), val = tensor<int32, [1]>([-1])];
            tensor<fp16, [1, 16, 1]> var_384_cast_fp16 = expand_dims(axes = var_384_axes_0, x = var_382_cast_fp16)[name = tensor<string, []>("op_384_cast_fp16")];
            tensor<bool, []> var_385_transpose_x_0 = const()[name = tensor<string, []>("op_385_transpose_x_0"), val = tensor<bool, []>(false)];
            tensor<bool, []> var_385_transpose_y_0 = const()[name = tensor<string, []>("op_385_transpose_y_0"), val = tensor<bool, []>(false)];
            tensor<fp16, [1, 256, 1]> var_385_cast_fp16 = matmul(transpose_x = var_385_transpose_x_0, transpose_y = var_385_transpose_y_0, x = hidden_state_31_cast_fp16, y = var_384_cast_fp16)[name = tensor<string, []>("op_385_cast_fp16")];
            tensor<int32, [1]> var_386_axes_0 = const()[name = tensor<string, []>("op_386_axes_0"), val = tensor<int32, [1]>([-1])];
            tensor<fp16, [1, 256]> var_386_cast_fp16 = squeeze(axes = var_386_axes_0, x = var_385_cast_fp16)[name = tensor<string, []>("op_386_cast_fp16")];
            tensor<int32, [4]> var_388_begin_0 = const()[name = tensor<string, []>("op_388_begin_0"), val = tensor<int32, [4]>([0, 15, 0, 0])];
            tensor<int32, [4]> var_388_end_0 = const()[name = tensor<string, []>("op_388_end_0"), val = tensor<int32, [4]>([1, 16, 256, 16])];
            tensor<bool, [4]> var_388_end_mask_0 = const()[name = tensor<string, []>("op_388_end_mask_0"), val = tensor<bool, [4]>([true, false, true, true])];
            tensor<bool, [4]> var_388_squeeze_mask_0 = const()[name = tensor<string, []>("op_388_squeeze_mask_0"), val = tensor<bool, [4]>([false, true, false, false])];
            tensor<fp16, [1, 256, 16]> var_388_cast_fp16 = slice_by_index(begin = var_388_begin_0, end = var_388_end_0, end_mask = var_388_end_mask_0, squeeze_mask = var_388_squeeze_mask_0, x = clip_1_to_fp16)[name = tensor<string, []>("op_388_cast_fp16")];
            tensor<fp16, [1, 256, 16]> var_389_cast_fp16 = mul(x = var_388_cast_fp16, y = hidden_state_31_cast_fp16)[name = tensor<string, []>("op_389_cast_fp16")];
            tensor<int32, [4]> var_391_begin_0 = const()[name = tensor<string, []>("op_391_begin_0"), val = tensor<int32, [4]>([0, 15, 0, 0])];
            tensor<int32, [4]> var_391_end_0 = const()[name = tensor<string, []>("op_391_end_0"), val = tensor<int32, [4]>([1, 16, 1, 16])];
            tensor<bool, [4]> var_391_end_mask_0 = const()[name = tensor<string, []>("op_391_end_mask_0"), val = tensor<bool, [4]>([true, false, true, true])];
            tensor<bool, [4]> var_391_squeeze_mask_0 = const()[name = tensor<string, []>("op_391_squeeze_mask_0"), val = tensor<bool, [4]>([false, true, false, false])];
            tensor<fp16, [1, 1, 16]> var_391_cast_fp16 = slice_by_index(begin = var_391_begin_0, end = var_391_end_0, end_mask = var_391_end_mask_0, squeeze_mask = var_391_squeeze_mask_0, x = delta_B_u_1_cast_fp16)[name = tensor<string, []>("op_391_cast_fp16")];
            tensor<fp16, [1, 256, 16]> hidden_state_33_cast_fp16 = add(x = var_389_cast_fp16, y = var_391_cast_fp16)[name = tensor<string, []>("hidden_state_33_cast_fp16")];
            tensor<int32, [3]> var_394_begin_0 = const()[name = tensor<string, []>("op_394_begin_0"), val = tensor<int32, [3]>([0, 15, 0])];
            tensor<int32, [3]> var_394_end_0 = const()[name = tensor<string, []>("op_394_end_0"), val = tensor<int32, [3]>([1, 16, 16])];
            tensor<bool, [3]> var_394_end_mask_0 = const()[name = tensor<string, []>("op_394_end_mask_0"), val = tensor<bool, [3]>([true, false, true])];
            tensor<bool, [3]> var_394_squeeze_mask_0 = const()[name = tensor<string, []>("op_394_squeeze_mask_0"), val = tensor<bool, [3]>([false, true, false])];
            tensor<fp16, [1, 16]> var_394_cast_fp16 = slice_by_index(begin = var_394_begin_0, end = var_394_end_0, end_mask = var_394_end_mask_0, squeeze_mask = var_394_squeeze_mask_0, x = C_proj_1_cast_fp16)[name = tensor<string, []>("op_394_cast_fp16")];
            tensor<int32, [1]> var_396_axes_0 = const()[name = tensor<string, []>("op_396_axes_0"), val = tensor<int32, [1]>([-1])];
            tensor<fp16, [1, 16, 1]> var_396_cast_fp16 = expand_dims(axes = var_396_axes_0, x = var_394_cast_fp16)[name = tensor<string, []>("op_396_cast_fp16")];
            tensor<bool, []> var_397_transpose_x_0 = const()[name = tensor<string, []>("op_397_transpose_x_0"), val = tensor<bool, []>(false)];
            tensor<bool, []> var_397_transpose_y_0 = const()[name = tensor<string, []>("op_397_transpose_y_0"), val = tensor<bool, []>(false)];
            tensor<fp16, [1, 256, 1]> var_397_cast_fp16 = matmul(transpose_x = var_397_transpose_x_0, transpose_y = var_397_transpose_y_0, x = hidden_state_33_cast_fp16, y = var_396_cast_fp16)[name = tensor<string, []>("op_397_cast_fp16")];
            tensor<int32, [1]> var_398_axes_0 = const()[name = tensor<string, []>("op_398_axes_0"), val = tensor<int32, [1]>([-1])];
            tensor<fp16, [1, 256]> var_398_cast_fp16 = squeeze(axes = var_398_axes_0, x = var_397_cast_fp16)[name = tensor<string, []>("op_398_cast_fp16")];
            tensor<int32, [4]> var_400_begin_0 = const()[name = tensor<string, []>("op_400_begin_0"), val = tensor<int32, [4]>([0, 16, 0, 0])];
            tensor<int32, [4]> var_400_end_0 = const()[name = tensor<string, []>("op_400_end_0"), val = tensor<int32, [4]>([1, 17, 256, 16])];
            tensor<bool, [4]> var_400_end_mask_0 = const()[name = tensor<string, []>("op_400_end_mask_0"), val = tensor<bool, [4]>([true, false, true, true])];
            tensor<bool, [4]> var_400_squeeze_mask_0 = const()[name = tensor<string, []>("op_400_squeeze_mask_0"), val = tensor<bool, [4]>([false, true, false, false])];
            tensor<fp16, [1, 256, 16]> var_400_cast_fp16 = slice_by_index(begin = var_400_begin_0, end = var_400_end_0, end_mask = var_400_end_mask_0, squeeze_mask = var_400_squeeze_mask_0, x = clip_1_to_fp16)[name = tensor<string, []>("op_400_cast_fp16")];
            tensor<fp16, [1, 256, 16]> var_401_cast_fp16 = mul(x = var_400_cast_fp16, y = hidden_state_33_cast_fp16)[name = tensor<string, []>("op_401_cast_fp16")];
            tensor<int32, [4]> var_403_begin_0 = const()[name = tensor<string, []>("op_403_begin_0"), val = tensor<int32, [4]>([0, 16, 0, 0])];
            tensor<int32, [4]> var_403_end_0 = const()[name = tensor<string, []>("op_403_end_0"), val = tensor<int32, [4]>([1, 17, 1, 16])];
            tensor<bool, [4]> var_403_end_mask_0 = const()[name = tensor<string, []>("op_403_end_mask_0"), val = tensor<bool, [4]>([true, false, true, true])];
            tensor<bool, [4]> var_403_squeeze_mask_0 = const()[name = tensor<string, []>("op_403_squeeze_mask_0"), val = tensor<bool, [4]>([false, true, false, false])];
            tensor<fp16, [1, 1, 16]> var_403_cast_fp16 = slice_by_index(begin = var_403_begin_0, end = var_403_end_0, end_mask = var_403_end_mask_0, squeeze_mask = var_403_squeeze_mask_0, x = delta_B_u_1_cast_fp16)[name = tensor<string, []>("op_403_cast_fp16")];
            tensor<fp16, [1, 256, 16]> hidden_state_35_cast_fp16 = add(x = var_401_cast_fp16, y = var_403_cast_fp16)[name = tensor<string, []>("hidden_state_35_cast_fp16")];
            tensor<int32, [3]> var_406_begin_0 = const()[name = tensor<string, []>("op_406_begin_0"), val = tensor<int32, [3]>([0, 16, 0])];
            tensor<int32, [3]> var_406_end_0 = const()[name = tensor<string, []>("op_406_end_0"), val = tensor<int32, [3]>([1, 17, 16])];
            tensor<bool, [3]> var_406_end_mask_0 = const()[name = tensor<string, []>("op_406_end_mask_0"), val = tensor<bool, [3]>([true, false, true])];
            tensor<bool, [3]> var_406_squeeze_mask_0 = const()[name = tensor<string, []>("op_406_squeeze_mask_0"), val = tensor<bool, [3]>([false, true, false])];
            tensor<fp16, [1, 16]> var_406_cast_fp16 = slice_by_index(begin = var_406_begin_0, end = var_406_end_0, end_mask = var_406_end_mask_0, squeeze_mask = var_406_squeeze_mask_0, x = C_proj_1_cast_fp16)[name = tensor<string, []>("op_406_cast_fp16")];
            tensor<int32, [1]> var_408_axes_0 = const()[name = tensor<string, []>("op_408_axes_0"), val = tensor<int32, [1]>([-1])];
            tensor<fp16, [1, 16, 1]> var_408_cast_fp16 = expand_dims(axes = var_408_axes_0, x = var_406_cast_fp16)[name = tensor<string, []>("op_408_cast_fp16")];
            tensor<bool, []> var_409_transpose_x_0 = const()[name = tensor<string, []>("op_409_transpose_x_0"), val = tensor<bool, []>(false)];
            tensor<bool, []> var_409_transpose_y_0 = const()[name = tensor<string, []>("op_409_transpose_y_0"), val = tensor<bool, []>(false)];
            tensor<fp16, [1, 256, 1]> var_409_cast_fp16 = matmul(transpose_x = var_409_transpose_x_0, transpose_y = var_409_transpose_y_0, x = hidden_state_35_cast_fp16, y = var_408_cast_fp16)[name = tensor<string, []>("op_409_cast_fp16")];
            tensor<int32, [1]> var_410_axes_0 = const()[name = tensor<string, []>("op_410_axes_0"), val = tensor<int32, [1]>([-1])];
            tensor<fp16, [1, 256]> var_410_cast_fp16 = squeeze(axes = var_410_axes_0, x = var_409_cast_fp16)[name = tensor<string, []>("op_410_cast_fp16")];
            tensor<int32, [4]> var_412_begin_0 = const()[name = tensor<string, []>("op_412_begin_0"), val = tensor<int32, [4]>([0, 17, 0, 0])];
            tensor<int32, [4]> var_412_end_0 = const()[name = tensor<string, []>("op_412_end_0"), val = tensor<int32, [4]>([1, 18, 256, 16])];
            tensor<bool, [4]> var_412_end_mask_0 = const()[name = tensor<string, []>("op_412_end_mask_0"), val = tensor<bool, [4]>([true, false, true, true])];
            tensor<bool, [4]> var_412_squeeze_mask_0 = const()[name = tensor<string, []>("op_412_squeeze_mask_0"), val = tensor<bool, [4]>([false, true, false, false])];
            tensor<fp16, [1, 256, 16]> var_412_cast_fp16 = slice_by_index(begin = var_412_begin_0, end = var_412_end_0, end_mask = var_412_end_mask_0, squeeze_mask = var_412_squeeze_mask_0, x = clip_1_to_fp16)[name = tensor<string, []>("op_412_cast_fp16")];
            tensor<fp16, [1, 256, 16]> var_413_cast_fp16 = mul(x = var_412_cast_fp16, y = hidden_state_35_cast_fp16)[name = tensor<string, []>("op_413_cast_fp16")];
            tensor<int32, [4]> var_415_begin_0 = const()[name = tensor<string, []>("op_415_begin_0"), val = tensor<int32, [4]>([0, 17, 0, 0])];
            tensor<int32, [4]> var_415_end_0 = const()[name = tensor<string, []>("op_415_end_0"), val = tensor<int32, [4]>([1, 18, 1, 16])];
            tensor<bool, [4]> var_415_end_mask_0 = const()[name = tensor<string, []>("op_415_end_mask_0"), val = tensor<bool, [4]>([true, false, true, true])];
            tensor<bool, [4]> var_415_squeeze_mask_0 = const()[name = tensor<string, []>("op_415_squeeze_mask_0"), val = tensor<bool, [4]>([false, true, false, false])];
            tensor<fp16, [1, 1, 16]> var_415_cast_fp16 = slice_by_index(begin = var_415_begin_0, end = var_415_end_0, end_mask = var_415_end_mask_0, squeeze_mask = var_415_squeeze_mask_0, x = delta_B_u_1_cast_fp16)[name = tensor<string, []>("op_415_cast_fp16")];
            tensor<fp16, [1, 256, 16]> hidden_state_37_cast_fp16 = add(x = var_413_cast_fp16, y = var_415_cast_fp16)[name = tensor<string, []>("hidden_state_37_cast_fp16")];
            tensor<int32, [3]> var_418_begin_0 = const()[name = tensor<string, []>("op_418_begin_0"), val = tensor<int32, [3]>([0, 17, 0])];
            tensor<int32, [3]> var_418_end_0 = const()[name = tensor<string, []>("op_418_end_0"), val = tensor<int32, [3]>([1, 18, 16])];
            tensor<bool, [3]> var_418_end_mask_0 = const()[name = tensor<string, []>("op_418_end_mask_0"), val = tensor<bool, [3]>([true, false, true])];
            tensor<bool, [3]> var_418_squeeze_mask_0 = const()[name = tensor<string, []>("op_418_squeeze_mask_0"), val = tensor<bool, [3]>([false, true, false])];
            tensor<fp16, [1, 16]> var_418_cast_fp16 = slice_by_index(begin = var_418_begin_0, end = var_418_end_0, end_mask = var_418_end_mask_0, squeeze_mask = var_418_squeeze_mask_0, x = C_proj_1_cast_fp16)[name = tensor<string, []>("op_418_cast_fp16")];
            tensor<int32, [1]> var_420_axes_0 = const()[name = tensor<string, []>("op_420_axes_0"), val = tensor<int32, [1]>([-1])];
            tensor<fp16, [1, 16, 1]> var_420_cast_fp16 = expand_dims(axes = var_420_axes_0, x = var_418_cast_fp16)[name = tensor<string, []>("op_420_cast_fp16")];
            tensor<bool, []> var_421_transpose_x_0 = const()[name = tensor<string, []>("op_421_transpose_x_0"), val = tensor<bool, []>(false)];
            tensor<bool, []> var_421_transpose_y_0 = const()[name = tensor<string, []>("op_421_transpose_y_0"), val = tensor<bool, []>(false)];
            tensor<fp16, [1, 256, 1]> var_421_cast_fp16 = matmul(transpose_x = var_421_transpose_x_0, transpose_y = var_421_transpose_y_0, x = hidden_state_37_cast_fp16, y = var_420_cast_fp16)[name = tensor<string, []>("op_421_cast_fp16")];
            tensor<int32, [1]> var_422_axes_0 = const()[name = tensor<string, []>("op_422_axes_0"), val = tensor<int32, [1]>([-1])];
            tensor<fp16, [1, 256]> var_422_cast_fp16 = squeeze(axes = var_422_axes_0, x = var_421_cast_fp16)[name = tensor<string, []>("op_422_cast_fp16")];
            tensor<int32, [4]> var_424_begin_0 = const()[name = tensor<string, []>("op_424_begin_0"), val = tensor<int32, [4]>([0, 18, 0, 0])];
            tensor<int32, [4]> var_424_end_0 = const()[name = tensor<string, []>("op_424_end_0"), val = tensor<int32, [4]>([1, 19, 256, 16])];
            tensor<bool, [4]> var_424_end_mask_0 = const()[name = tensor<string, []>("op_424_end_mask_0"), val = tensor<bool, [4]>([true, false, true, true])];
            tensor<bool, [4]> var_424_squeeze_mask_0 = const()[name = tensor<string, []>("op_424_squeeze_mask_0"), val = tensor<bool, [4]>([false, true, false, false])];
            tensor<fp16, [1, 256, 16]> var_424_cast_fp16 = slice_by_index(begin = var_424_begin_0, end = var_424_end_0, end_mask = var_424_end_mask_0, squeeze_mask = var_424_squeeze_mask_0, x = clip_1_to_fp16)[name = tensor<string, []>("op_424_cast_fp16")];
            tensor<fp16, [1, 256, 16]> var_425_cast_fp16 = mul(x = var_424_cast_fp16, y = hidden_state_37_cast_fp16)[name = tensor<string, []>("op_425_cast_fp16")];
            tensor<int32, [4]> var_427_begin_0 = const()[name = tensor<string, []>("op_427_begin_0"), val = tensor<int32, [4]>([0, 18, 0, 0])];
            tensor<int32, [4]> var_427_end_0 = const()[name = tensor<string, []>("op_427_end_0"), val = tensor<int32, [4]>([1, 19, 1, 16])];
            tensor<bool, [4]> var_427_end_mask_0 = const()[name = tensor<string, []>("op_427_end_mask_0"), val = tensor<bool, [4]>([true, false, true, true])];
            tensor<bool, [4]> var_427_squeeze_mask_0 = const()[name = tensor<string, []>("op_427_squeeze_mask_0"), val = tensor<bool, [4]>([false, true, false, false])];
            tensor<fp16, [1, 1, 16]> var_427_cast_fp16 = slice_by_index(begin = var_427_begin_0, end = var_427_end_0, end_mask = var_427_end_mask_0, squeeze_mask = var_427_squeeze_mask_0, x = delta_B_u_1_cast_fp16)[name = tensor<string, []>("op_427_cast_fp16")];
            tensor<fp16, [1, 256, 16]> hidden_state_39_cast_fp16 = add(x = var_425_cast_fp16, y = var_427_cast_fp16)[name = tensor<string, []>("hidden_state_39_cast_fp16")];
            tensor<int32, [3]> var_430_begin_0 = const()[name = tensor<string, []>("op_430_begin_0"), val = tensor<int32, [3]>([0, 18, 0])];
            tensor<int32, [3]> var_430_end_0 = const()[name = tensor<string, []>("op_430_end_0"), val = tensor<int32, [3]>([1, 19, 16])];
            tensor<bool, [3]> var_430_end_mask_0 = const()[name = tensor<string, []>("op_430_end_mask_0"), val = tensor<bool, [3]>([true, false, true])];
            tensor<bool, [3]> var_430_squeeze_mask_0 = const()[name = tensor<string, []>("op_430_squeeze_mask_0"), val = tensor<bool, [3]>([false, true, false])];
            tensor<fp16, [1, 16]> var_430_cast_fp16 = slice_by_index(begin = var_430_begin_0, end = var_430_end_0, end_mask = var_430_end_mask_0, squeeze_mask = var_430_squeeze_mask_0, x = C_proj_1_cast_fp16)[name = tensor<string, []>("op_430_cast_fp16")];
            tensor<int32, [1]> var_432_axes_0 = const()[name = tensor<string, []>("op_432_axes_0"), val = tensor<int32, [1]>([-1])];
            tensor<fp16, [1, 16, 1]> var_432_cast_fp16 = expand_dims(axes = var_432_axes_0, x = var_430_cast_fp16)[name = tensor<string, []>("op_432_cast_fp16")];
            tensor<bool, []> var_433_transpose_x_0 = const()[name = tensor<string, []>("op_433_transpose_x_0"), val = tensor<bool, []>(false)];
            tensor<bool, []> var_433_transpose_y_0 = const()[name = tensor<string, []>("op_433_transpose_y_0"), val = tensor<bool, []>(false)];
            tensor<fp16, [1, 256, 1]> var_433_cast_fp16 = matmul(transpose_x = var_433_transpose_x_0, transpose_y = var_433_transpose_y_0, x = hidden_state_39_cast_fp16, y = var_432_cast_fp16)[name = tensor<string, []>("op_433_cast_fp16")];
            tensor<int32, [1]> var_434_axes_0 = const()[name = tensor<string, []>("op_434_axes_0"), val = tensor<int32, [1]>([-1])];
            tensor<fp16, [1, 256]> var_434_cast_fp16 = squeeze(axes = var_434_axes_0, x = var_433_cast_fp16)[name = tensor<string, []>("op_434_cast_fp16")];
            tensor<int32, [4]> var_436_begin_0 = const()[name = tensor<string, []>("op_436_begin_0"), val = tensor<int32, [4]>([0, 19, 0, 0])];
            tensor<int32, [4]> var_436_end_0 = const()[name = tensor<string, []>("op_436_end_0"), val = tensor<int32, [4]>([1, 20, 256, 16])];
            tensor<bool, [4]> var_436_end_mask_0 = const()[name = tensor<string, []>("op_436_end_mask_0"), val = tensor<bool, [4]>([true, false, true, true])];
            tensor<bool, [4]> var_436_squeeze_mask_0 = const()[name = tensor<string, []>("op_436_squeeze_mask_0"), val = tensor<bool, [4]>([false, true, false, false])];
            tensor<fp16, [1, 256, 16]> var_436_cast_fp16 = slice_by_index(begin = var_436_begin_0, end = var_436_end_0, end_mask = var_436_end_mask_0, squeeze_mask = var_436_squeeze_mask_0, x = clip_1_to_fp16)[name = tensor<string, []>("op_436_cast_fp16")];
            tensor<fp16, [1, 256, 16]> var_437_cast_fp16 = mul(x = var_436_cast_fp16, y = hidden_state_39_cast_fp16)[name = tensor<string, []>("op_437_cast_fp16")];
            tensor<int32, [4]> var_439_begin_0 = const()[name = tensor<string, []>("op_439_begin_0"), val = tensor<int32, [4]>([0, 19, 0, 0])];
            tensor<int32, [4]> var_439_end_0 = const()[name = tensor<string, []>("op_439_end_0"), val = tensor<int32, [4]>([1, 20, 1, 16])];
            tensor<bool, [4]> var_439_end_mask_0 = const()[name = tensor<string, []>("op_439_end_mask_0"), val = tensor<bool, [4]>([true, false, true, true])];
            tensor<bool, [4]> var_439_squeeze_mask_0 = const()[name = tensor<string, []>("op_439_squeeze_mask_0"), val = tensor<bool, [4]>([false, true, false, false])];
            tensor<fp16, [1, 1, 16]> var_439_cast_fp16 = slice_by_index(begin = var_439_begin_0, end = var_439_end_0, end_mask = var_439_end_mask_0, squeeze_mask = var_439_squeeze_mask_0, x = delta_B_u_1_cast_fp16)[name = tensor<string, []>("op_439_cast_fp16")];
            tensor<fp16, [1, 256, 16]> hidden_state_41_cast_fp16 = add(x = var_437_cast_fp16, y = var_439_cast_fp16)[name = tensor<string, []>("hidden_state_41_cast_fp16")];
            tensor<int32, [3]> var_442_begin_0 = const()[name = tensor<string, []>("op_442_begin_0"), val = tensor<int32, [3]>([0, 19, 0])];
            tensor<int32, [3]> var_442_end_0 = const()[name = tensor<string, []>("op_442_end_0"), val = tensor<int32, [3]>([1, 20, 16])];
            tensor<bool, [3]> var_442_end_mask_0 = const()[name = tensor<string, []>("op_442_end_mask_0"), val = tensor<bool, [3]>([true, false, true])];
            tensor<bool, [3]> var_442_squeeze_mask_0 = const()[name = tensor<string, []>("op_442_squeeze_mask_0"), val = tensor<bool, [3]>([false, true, false])];
            tensor<fp16, [1, 16]> var_442_cast_fp16 = slice_by_index(begin = var_442_begin_0, end = var_442_end_0, end_mask = var_442_end_mask_0, squeeze_mask = var_442_squeeze_mask_0, x = C_proj_1_cast_fp16)[name = tensor<string, []>("op_442_cast_fp16")];
            tensor<int32, [1]> var_444_axes_0 = const()[name = tensor<string, []>("op_444_axes_0"), val = tensor<int32, [1]>([-1])];
            tensor<fp16, [1, 16, 1]> var_444_cast_fp16 = expand_dims(axes = var_444_axes_0, x = var_442_cast_fp16)[name = tensor<string, []>("op_444_cast_fp16")];
            tensor<bool, []> var_445_transpose_x_0 = const()[name = tensor<string, []>("op_445_transpose_x_0"), val = tensor<bool, []>(false)];
            tensor<bool, []> var_445_transpose_y_0 = const()[name = tensor<string, []>("op_445_transpose_y_0"), val = tensor<bool, []>(false)];
            tensor<fp16, [1, 256, 1]> var_445_cast_fp16 = matmul(transpose_x = var_445_transpose_x_0, transpose_y = var_445_transpose_y_0, x = hidden_state_41_cast_fp16, y = var_444_cast_fp16)[name = tensor<string, []>("op_445_cast_fp16")];
            tensor<int32, [1]> var_446_axes_0 = const()[name = tensor<string, []>("op_446_axes_0"), val = tensor<int32, [1]>([-1])];
            tensor<fp16, [1, 256]> var_446_cast_fp16 = squeeze(axes = var_446_axes_0, x = var_445_cast_fp16)[name = tensor<string, []>("op_446_cast_fp16")];
            tensor<int32, [4]> var_448_begin_0 = const()[name = tensor<string, []>("op_448_begin_0"), val = tensor<int32, [4]>([0, 20, 0, 0])];
            tensor<int32, [4]> var_448_end_0 = const()[name = tensor<string, []>("op_448_end_0"), val = tensor<int32, [4]>([1, 21, 256, 16])];
            tensor<bool, [4]> var_448_end_mask_0 = const()[name = tensor<string, []>("op_448_end_mask_0"), val = tensor<bool, [4]>([true, false, true, true])];
            tensor<bool, [4]> var_448_squeeze_mask_0 = const()[name = tensor<string, []>("op_448_squeeze_mask_0"), val = tensor<bool, [4]>([false, true, false, false])];
            tensor<fp16, [1, 256, 16]> var_448_cast_fp16 = slice_by_index(begin = var_448_begin_0, end = var_448_end_0, end_mask = var_448_end_mask_0, squeeze_mask = var_448_squeeze_mask_0, x = clip_1_to_fp16)[name = tensor<string, []>("op_448_cast_fp16")];
            tensor<fp16, [1, 256, 16]> var_449_cast_fp16 = mul(x = var_448_cast_fp16, y = hidden_state_41_cast_fp16)[name = tensor<string, []>("op_449_cast_fp16")];
            tensor<int32, [4]> var_451_begin_0 = const()[name = tensor<string, []>("op_451_begin_0"), val = tensor<int32, [4]>([0, 20, 0, 0])];
            tensor<int32, [4]> var_451_end_0 = const()[name = tensor<string, []>("op_451_end_0"), val = tensor<int32, [4]>([1, 21, 1, 16])];
            tensor<bool, [4]> var_451_end_mask_0 = const()[name = tensor<string, []>("op_451_end_mask_0"), val = tensor<bool, [4]>([true, false, true, true])];
            tensor<bool, [4]> var_451_squeeze_mask_0 = const()[name = tensor<string, []>("op_451_squeeze_mask_0"), val = tensor<bool, [4]>([false, true, false, false])];
            tensor<fp16, [1, 1, 16]> var_451_cast_fp16 = slice_by_index(begin = var_451_begin_0, end = var_451_end_0, end_mask = var_451_end_mask_0, squeeze_mask = var_451_squeeze_mask_0, x = delta_B_u_1_cast_fp16)[name = tensor<string, []>("op_451_cast_fp16")];
            tensor<fp16, [1, 256, 16]> hidden_state_43_cast_fp16 = add(x = var_449_cast_fp16, y = var_451_cast_fp16)[name = tensor<string, []>("hidden_state_43_cast_fp16")];
            tensor<int32, [3]> var_454_begin_0 = const()[name = tensor<string, []>("op_454_begin_0"), val = tensor<int32, [3]>([0, 20, 0])];
            tensor<int32, [3]> var_454_end_0 = const()[name = tensor<string, []>("op_454_end_0"), val = tensor<int32, [3]>([1, 21, 16])];
            tensor<bool, [3]> var_454_end_mask_0 = const()[name = tensor<string, []>("op_454_end_mask_0"), val = tensor<bool, [3]>([true, false, true])];
            tensor<bool, [3]> var_454_squeeze_mask_0 = const()[name = tensor<string, []>("op_454_squeeze_mask_0"), val = tensor<bool, [3]>([false, true, false])];
            tensor<fp16, [1, 16]> var_454_cast_fp16 = slice_by_index(begin = var_454_begin_0, end = var_454_end_0, end_mask = var_454_end_mask_0, squeeze_mask = var_454_squeeze_mask_0, x = C_proj_1_cast_fp16)[name = tensor<string, []>("op_454_cast_fp16")];
            tensor<int32, [1]> var_456_axes_0 = const()[name = tensor<string, []>("op_456_axes_0"), val = tensor<int32, [1]>([-1])];
            tensor<fp16, [1, 16, 1]> var_456_cast_fp16 = expand_dims(axes = var_456_axes_0, x = var_454_cast_fp16)[name = tensor<string, []>("op_456_cast_fp16")];
            tensor<bool, []> var_457_transpose_x_0 = const()[name = tensor<string, []>("op_457_transpose_x_0"), val = tensor<bool, []>(false)];
            tensor<bool, []> var_457_transpose_y_0 = const()[name = tensor<string, []>("op_457_transpose_y_0"), val = tensor<bool, []>(false)];
            tensor<fp16, [1, 256, 1]> var_457_cast_fp16 = matmul(transpose_x = var_457_transpose_x_0, transpose_y = var_457_transpose_y_0, x = hidden_state_43_cast_fp16, y = var_456_cast_fp16)[name = tensor<string, []>("op_457_cast_fp16")];
            tensor<int32, [1]> var_458_axes_0 = const()[name = tensor<string, []>("op_458_axes_0"), val = tensor<int32, [1]>([-1])];
            tensor<fp16, [1, 256]> var_458_cast_fp16 = squeeze(axes = var_458_axes_0, x = var_457_cast_fp16)[name = tensor<string, []>("op_458_cast_fp16")];
            tensor<int32, [4]> var_460_begin_0 = const()[name = tensor<string, []>("op_460_begin_0"), val = tensor<int32, [4]>([0, 21, 0, 0])];
            tensor<int32, [4]> var_460_end_0 = const()[name = tensor<string, []>("op_460_end_0"), val = tensor<int32, [4]>([1, 22, 256, 16])];
            tensor<bool, [4]> var_460_end_mask_0 = const()[name = tensor<string, []>("op_460_end_mask_0"), val = tensor<bool, [4]>([true, false, true, true])];
            tensor<bool, [4]> var_460_squeeze_mask_0 = const()[name = tensor<string, []>("op_460_squeeze_mask_0"), val = tensor<bool, [4]>([false, true, false, false])];
            tensor<fp16, [1, 256, 16]> var_460_cast_fp16 = slice_by_index(begin = var_460_begin_0, end = var_460_end_0, end_mask = var_460_end_mask_0, squeeze_mask = var_460_squeeze_mask_0, x = clip_1_to_fp16)[name = tensor<string, []>("op_460_cast_fp16")];
            tensor<fp16, [1, 256, 16]> var_461_cast_fp16 = mul(x = var_460_cast_fp16, y = hidden_state_43_cast_fp16)[name = tensor<string, []>("op_461_cast_fp16")];
            tensor<int32, [4]> var_463_begin_0 = const()[name = tensor<string, []>("op_463_begin_0"), val = tensor<int32, [4]>([0, 21, 0, 0])];
            tensor<int32, [4]> var_463_end_0 = const()[name = tensor<string, []>("op_463_end_0"), val = tensor<int32, [4]>([1, 22, 1, 16])];
            tensor<bool, [4]> var_463_end_mask_0 = const()[name = tensor<string, []>("op_463_end_mask_0"), val = tensor<bool, [4]>([true, false, true, true])];
            tensor<bool, [4]> var_463_squeeze_mask_0 = const()[name = tensor<string, []>("op_463_squeeze_mask_0"), val = tensor<bool, [4]>([false, true, false, false])];
            tensor<fp16, [1, 1, 16]> var_463_cast_fp16 = slice_by_index(begin = var_463_begin_0, end = var_463_end_0, end_mask = var_463_end_mask_0, squeeze_mask = var_463_squeeze_mask_0, x = delta_B_u_1_cast_fp16)[name = tensor<string, []>("op_463_cast_fp16")];
            tensor<fp16, [1, 256, 16]> hidden_state_45_cast_fp16 = add(x = var_461_cast_fp16, y = var_463_cast_fp16)[name = tensor<string, []>("hidden_state_45_cast_fp16")];
            tensor<int32, [3]> var_466_begin_0 = const()[name = tensor<string, []>("op_466_begin_0"), val = tensor<int32, [3]>([0, 21, 0])];
            tensor<int32, [3]> var_466_end_0 = const()[name = tensor<string, []>("op_466_end_0"), val = tensor<int32, [3]>([1, 22, 16])];
            tensor<bool, [3]> var_466_end_mask_0 = const()[name = tensor<string, []>("op_466_end_mask_0"), val = tensor<bool, [3]>([true, false, true])];
            tensor<bool, [3]> var_466_squeeze_mask_0 = const()[name = tensor<string, []>("op_466_squeeze_mask_0"), val = tensor<bool, [3]>([false, true, false])];
            tensor<fp16, [1, 16]> var_466_cast_fp16 = slice_by_index(begin = var_466_begin_0, end = var_466_end_0, end_mask = var_466_end_mask_0, squeeze_mask = var_466_squeeze_mask_0, x = C_proj_1_cast_fp16)[name = tensor<string, []>("op_466_cast_fp16")];
            tensor<int32, [1]> var_468_axes_0 = const()[name = tensor<string, []>("op_468_axes_0"), val = tensor<int32, [1]>([-1])];
            tensor<fp16, [1, 16, 1]> var_468_cast_fp16 = expand_dims(axes = var_468_axes_0, x = var_466_cast_fp16)[name = tensor<string, []>("op_468_cast_fp16")];
            tensor<bool, []> var_469_transpose_x_0 = const()[name = tensor<string, []>("op_469_transpose_x_0"), val = tensor<bool, []>(false)];
            tensor<bool, []> var_469_transpose_y_0 = const()[name = tensor<string, []>("op_469_transpose_y_0"), val = tensor<bool, []>(false)];
            tensor<fp16, [1, 256, 1]> var_469_cast_fp16 = matmul(transpose_x = var_469_transpose_x_0, transpose_y = var_469_transpose_y_0, x = hidden_state_45_cast_fp16, y = var_468_cast_fp16)[name = tensor<string, []>("op_469_cast_fp16")];
            tensor<int32, [1]> var_470_axes_0 = const()[name = tensor<string, []>("op_470_axes_0"), val = tensor<int32, [1]>([-1])];
            tensor<fp16, [1, 256]> var_470_cast_fp16 = squeeze(axes = var_470_axes_0, x = var_469_cast_fp16)[name = tensor<string, []>("op_470_cast_fp16")];
            tensor<int32, [4]> var_472_begin_0 = const()[name = tensor<string, []>("op_472_begin_0"), val = tensor<int32, [4]>([0, 22, 0, 0])];
            tensor<int32, [4]> var_472_end_0 = const()[name = tensor<string, []>("op_472_end_0"), val = tensor<int32, [4]>([1, 23, 256, 16])];
            tensor<bool, [4]> var_472_end_mask_0 = const()[name = tensor<string, []>("op_472_end_mask_0"), val = tensor<bool, [4]>([true, false, true, true])];
            tensor<bool, [4]> var_472_squeeze_mask_0 = const()[name = tensor<string, []>("op_472_squeeze_mask_0"), val = tensor<bool, [4]>([false, true, false, false])];
            tensor<fp16, [1, 256, 16]> var_472_cast_fp16 = slice_by_index(begin = var_472_begin_0, end = var_472_end_0, end_mask = var_472_end_mask_0, squeeze_mask = var_472_squeeze_mask_0, x = clip_1_to_fp16)[name = tensor<string, []>("op_472_cast_fp16")];
            tensor<fp16, [1, 256, 16]> var_473_cast_fp16 = mul(x = var_472_cast_fp16, y = hidden_state_45_cast_fp16)[name = tensor<string, []>("op_473_cast_fp16")];
            tensor<int32, [4]> var_475_begin_0 = const()[name = tensor<string, []>("op_475_begin_0"), val = tensor<int32, [4]>([0, 22, 0, 0])];
            tensor<int32, [4]> var_475_end_0 = const()[name = tensor<string, []>("op_475_end_0"), val = tensor<int32, [4]>([1, 23, 1, 16])];
            tensor<bool, [4]> var_475_end_mask_0 = const()[name = tensor<string, []>("op_475_end_mask_0"), val = tensor<bool, [4]>([true, false, true, true])];
            tensor<bool, [4]> var_475_squeeze_mask_0 = const()[name = tensor<string, []>("op_475_squeeze_mask_0"), val = tensor<bool, [4]>([false, true, false, false])];
            tensor<fp16, [1, 1, 16]> var_475_cast_fp16 = slice_by_index(begin = var_475_begin_0, end = var_475_end_0, end_mask = var_475_end_mask_0, squeeze_mask = var_475_squeeze_mask_0, x = delta_B_u_1_cast_fp16)[name = tensor<string, []>("op_475_cast_fp16")];
            tensor<fp16, [1, 256, 16]> hidden_state_47_cast_fp16 = add(x = var_473_cast_fp16, y = var_475_cast_fp16)[name = tensor<string, []>("hidden_state_47_cast_fp16")];
            tensor<int32, [3]> var_478_begin_0 = const()[name = tensor<string, []>("op_478_begin_0"), val = tensor<int32, [3]>([0, 22, 0])];
            tensor<int32, [3]> var_478_end_0 = const()[name = tensor<string, []>("op_478_end_0"), val = tensor<int32, [3]>([1, 23, 16])];
            tensor<bool, [3]> var_478_end_mask_0 = const()[name = tensor<string, []>("op_478_end_mask_0"), val = tensor<bool, [3]>([true, false, true])];
            tensor<bool, [3]> var_478_squeeze_mask_0 = const()[name = tensor<string, []>("op_478_squeeze_mask_0"), val = tensor<bool, [3]>([false, true, false])];
            tensor<fp16, [1, 16]> var_478_cast_fp16 = slice_by_index(begin = var_478_begin_0, end = var_478_end_0, end_mask = var_478_end_mask_0, squeeze_mask = var_478_squeeze_mask_0, x = C_proj_1_cast_fp16)[name = tensor<string, []>("op_478_cast_fp16")];
            tensor<int32, [1]> var_480_axes_0 = const()[name = tensor<string, []>("op_480_axes_0"), val = tensor<int32, [1]>([-1])];
            tensor<fp16, [1, 16, 1]> var_480_cast_fp16 = expand_dims(axes = var_480_axes_0, x = var_478_cast_fp16)[name = tensor<string, []>("op_480_cast_fp16")];
            tensor<bool, []> var_481_transpose_x_0 = const()[name = tensor<string, []>("op_481_transpose_x_0"), val = tensor<bool, []>(false)];
            tensor<bool, []> var_481_transpose_y_0 = const()[name = tensor<string, []>("op_481_transpose_y_0"), val = tensor<bool, []>(false)];
            tensor<fp16, [1, 256, 1]> var_481_cast_fp16 = matmul(transpose_x = var_481_transpose_x_0, transpose_y = var_481_transpose_y_0, x = hidden_state_47_cast_fp16, y = var_480_cast_fp16)[name = tensor<string, []>("op_481_cast_fp16")];
            tensor<int32, [1]> var_482_axes_0 = const()[name = tensor<string, []>("op_482_axes_0"), val = tensor<int32, [1]>([-1])];
            tensor<fp16, [1, 256]> var_482_cast_fp16 = squeeze(axes = var_482_axes_0, x = var_481_cast_fp16)[name = tensor<string, []>("op_482_cast_fp16")];
            tensor<int32, [4]> var_484_begin_0 = const()[name = tensor<string, []>("op_484_begin_0"), val = tensor<int32, [4]>([0, 23, 0, 0])];
            tensor<int32, [4]> var_484_end_0 = const()[name = tensor<string, []>("op_484_end_0"), val = tensor<int32, [4]>([1, 24, 256, 16])];
            tensor<bool, [4]> var_484_end_mask_0 = const()[name = tensor<string, []>("op_484_end_mask_0"), val = tensor<bool, [4]>([true, false, true, true])];
            tensor<bool, [4]> var_484_squeeze_mask_0 = const()[name = tensor<string, []>("op_484_squeeze_mask_0"), val = tensor<bool, [4]>([false, true, false, false])];
            tensor<fp16, [1, 256, 16]> var_484_cast_fp16 = slice_by_index(begin = var_484_begin_0, end = var_484_end_0, end_mask = var_484_end_mask_0, squeeze_mask = var_484_squeeze_mask_0, x = clip_1_to_fp16)[name = tensor<string, []>("op_484_cast_fp16")];
            tensor<fp16, [1, 256, 16]> var_485_cast_fp16 = mul(x = var_484_cast_fp16, y = hidden_state_47_cast_fp16)[name = tensor<string, []>("op_485_cast_fp16")];
            tensor<int32, [4]> var_487_begin_0 = const()[name = tensor<string, []>("op_487_begin_0"), val = tensor<int32, [4]>([0, 23, 0, 0])];
            tensor<int32, [4]> var_487_end_0 = const()[name = tensor<string, []>("op_487_end_0"), val = tensor<int32, [4]>([1, 24, 1, 16])];
            tensor<bool, [4]> var_487_end_mask_0 = const()[name = tensor<string, []>("op_487_end_mask_0"), val = tensor<bool, [4]>([true, false, true, true])];
            tensor<bool, [4]> var_487_squeeze_mask_0 = const()[name = tensor<string, []>("op_487_squeeze_mask_0"), val = tensor<bool, [4]>([false, true, false, false])];
            tensor<fp16, [1, 1, 16]> var_487_cast_fp16 = slice_by_index(begin = var_487_begin_0, end = var_487_end_0, end_mask = var_487_end_mask_0, squeeze_mask = var_487_squeeze_mask_0, x = delta_B_u_1_cast_fp16)[name = tensor<string, []>("op_487_cast_fp16")];
            tensor<fp16, [1, 256, 16]> hidden_state_49_cast_fp16 = add(x = var_485_cast_fp16, y = var_487_cast_fp16)[name = tensor<string, []>("hidden_state_49_cast_fp16")];
            tensor<int32, [3]> var_490_begin_0 = const()[name = tensor<string, []>("op_490_begin_0"), val = tensor<int32, [3]>([0, 23, 0])];
            tensor<int32, [3]> var_490_end_0 = const()[name = tensor<string, []>("op_490_end_0"), val = tensor<int32, [3]>([1, 24, 16])];
            tensor<bool, [3]> var_490_end_mask_0 = const()[name = tensor<string, []>("op_490_end_mask_0"), val = tensor<bool, [3]>([true, false, true])];
            tensor<bool, [3]> var_490_squeeze_mask_0 = const()[name = tensor<string, []>("op_490_squeeze_mask_0"), val = tensor<bool, [3]>([false, true, false])];
            tensor<fp16, [1, 16]> var_490_cast_fp16 = slice_by_index(begin = var_490_begin_0, end = var_490_end_0, end_mask = var_490_end_mask_0, squeeze_mask = var_490_squeeze_mask_0, x = C_proj_1_cast_fp16)[name = tensor<string, []>("op_490_cast_fp16")];
            tensor<int32, [1]> var_492_axes_0 = const()[name = tensor<string, []>("op_492_axes_0"), val = tensor<int32, [1]>([-1])];
            tensor<fp16, [1, 16, 1]> var_492_cast_fp16 = expand_dims(axes = var_492_axes_0, x = var_490_cast_fp16)[name = tensor<string, []>("op_492_cast_fp16")];
            tensor<bool, []> var_493_transpose_x_0 = const()[name = tensor<string, []>("op_493_transpose_x_0"), val = tensor<bool, []>(false)];
            tensor<bool, []> var_493_transpose_y_0 = const()[name = tensor<string, []>("op_493_transpose_y_0"), val = tensor<bool, []>(false)];
            tensor<fp16, [1, 256, 1]> var_493_cast_fp16 = matmul(transpose_x = var_493_transpose_x_0, transpose_y = var_493_transpose_y_0, x = hidden_state_49_cast_fp16, y = var_492_cast_fp16)[name = tensor<string, []>("op_493_cast_fp16")];
            tensor<int32, [1]> var_494_axes_0 = const()[name = tensor<string, []>("op_494_axes_0"), val = tensor<int32, [1]>([-1])];
            tensor<fp16, [1, 256]> var_494_cast_fp16 = squeeze(axes = var_494_axes_0, x = var_493_cast_fp16)[name = tensor<string, []>("op_494_cast_fp16")];
            tensor<int32, [4]> var_496_begin_0 = const()[name = tensor<string, []>("op_496_begin_0"), val = tensor<int32, [4]>([0, 24, 0, 0])];
            tensor<int32, [4]> var_496_end_0 = const()[name = tensor<string, []>("op_496_end_0"), val = tensor<int32, [4]>([1, 25, 256, 16])];
            tensor<bool, [4]> var_496_end_mask_0 = const()[name = tensor<string, []>("op_496_end_mask_0"), val = tensor<bool, [4]>([true, false, true, true])];
            tensor<bool, [4]> var_496_squeeze_mask_0 = const()[name = tensor<string, []>("op_496_squeeze_mask_0"), val = tensor<bool, [4]>([false, true, false, false])];
            tensor<fp16, [1, 256, 16]> var_496_cast_fp16 = slice_by_index(begin = var_496_begin_0, end = var_496_end_0, end_mask = var_496_end_mask_0, squeeze_mask = var_496_squeeze_mask_0, x = clip_1_to_fp16)[name = tensor<string, []>("op_496_cast_fp16")];
            tensor<fp16, [1, 256, 16]> var_497_cast_fp16 = mul(x = var_496_cast_fp16, y = hidden_state_49_cast_fp16)[name = tensor<string, []>("op_497_cast_fp16")];
            tensor<int32, [4]> var_499_begin_0 = const()[name = tensor<string, []>("op_499_begin_0"), val = tensor<int32, [4]>([0, 24, 0, 0])];
            tensor<int32, [4]> var_499_end_0 = const()[name = tensor<string, []>("op_499_end_0"), val = tensor<int32, [4]>([1, 25, 1, 16])];
            tensor<bool, [4]> var_499_end_mask_0 = const()[name = tensor<string, []>("op_499_end_mask_0"), val = tensor<bool, [4]>([true, false, true, true])];
            tensor<bool, [4]> var_499_squeeze_mask_0 = const()[name = tensor<string, []>("op_499_squeeze_mask_0"), val = tensor<bool, [4]>([false, true, false, false])];
            tensor<fp16, [1, 1, 16]> var_499_cast_fp16 = slice_by_index(begin = var_499_begin_0, end = var_499_end_0, end_mask = var_499_end_mask_0, squeeze_mask = var_499_squeeze_mask_0, x = delta_B_u_1_cast_fp16)[name = tensor<string, []>("op_499_cast_fp16")];
            tensor<fp16, [1, 256, 16]> hidden_state_51_cast_fp16 = add(x = var_497_cast_fp16, y = var_499_cast_fp16)[name = tensor<string, []>("hidden_state_51_cast_fp16")];
            tensor<int32, [3]> var_502_begin_0 = const()[name = tensor<string, []>("op_502_begin_0"), val = tensor<int32, [3]>([0, 24, 0])];
            tensor<int32, [3]> var_502_end_0 = const()[name = tensor<string, []>("op_502_end_0"), val = tensor<int32, [3]>([1, 25, 16])];
            tensor<bool, [3]> var_502_end_mask_0 = const()[name = tensor<string, []>("op_502_end_mask_0"), val = tensor<bool, [3]>([true, false, true])];
            tensor<bool, [3]> var_502_squeeze_mask_0 = const()[name = tensor<string, []>("op_502_squeeze_mask_0"), val = tensor<bool, [3]>([false, true, false])];
            tensor<fp16, [1, 16]> var_502_cast_fp16 = slice_by_index(begin = var_502_begin_0, end = var_502_end_0, end_mask = var_502_end_mask_0, squeeze_mask = var_502_squeeze_mask_0, x = C_proj_1_cast_fp16)[name = tensor<string, []>("op_502_cast_fp16")];
            tensor<int32, [1]> var_504_axes_0 = const()[name = tensor<string, []>("op_504_axes_0"), val = tensor<int32, [1]>([-1])];
            tensor<fp16, [1, 16, 1]> var_504_cast_fp16 = expand_dims(axes = var_504_axes_0, x = var_502_cast_fp16)[name = tensor<string, []>("op_504_cast_fp16")];
            tensor<bool, []> var_505_transpose_x_0 = const()[name = tensor<string, []>("op_505_transpose_x_0"), val = tensor<bool, []>(false)];
            tensor<bool, []> var_505_transpose_y_0 = const()[name = tensor<string, []>("op_505_transpose_y_0"), val = tensor<bool, []>(false)];
            tensor<fp16, [1, 256, 1]> var_505_cast_fp16 = matmul(transpose_x = var_505_transpose_x_0, transpose_y = var_505_transpose_y_0, x = hidden_state_51_cast_fp16, y = var_504_cast_fp16)[name = tensor<string, []>("op_505_cast_fp16")];
            tensor<int32, [1]> var_506_axes_0 = const()[name = tensor<string, []>("op_506_axes_0"), val = tensor<int32, [1]>([-1])];
            tensor<fp16, [1, 256]> var_506_cast_fp16 = squeeze(axes = var_506_axes_0, x = var_505_cast_fp16)[name = tensor<string, []>("op_506_cast_fp16")];
            tensor<int32, [4]> var_508_begin_0 = const()[name = tensor<string, []>("op_508_begin_0"), val = tensor<int32, [4]>([0, 25, 0, 0])];
            tensor<int32, [4]> var_508_end_0 = const()[name = tensor<string, []>("op_508_end_0"), val = tensor<int32, [4]>([1, 26, 256, 16])];
            tensor<bool, [4]> var_508_end_mask_0 = const()[name = tensor<string, []>("op_508_end_mask_0"), val = tensor<bool, [4]>([true, false, true, true])];
            tensor<bool, [4]> var_508_squeeze_mask_0 = const()[name = tensor<string, []>("op_508_squeeze_mask_0"), val = tensor<bool, [4]>([false, true, false, false])];
            tensor<fp16, [1, 256, 16]> var_508_cast_fp16 = slice_by_index(begin = var_508_begin_0, end = var_508_end_0, end_mask = var_508_end_mask_0, squeeze_mask = var_508_squeeze_mask_0, x = clip_1_to_fp16)[name = tensor<string, []>("op_508_cast_fp16")];
            tensor<fp16, [1, 256, 16]> var_509_cast_fp16 = mul(x = var_508_cast_fp16, y = hidden_state_51_cast_fp16)[name = tensor<string, []>("op_509_cast_fp16")];
            tensor<int32, [4]> var_511_begin_0 = const()[name = tensor<string, []>("op_511_begin_0"), val = tensor<int32, [4]>([0, 25, 0, 0])];
            tensor<int32, [4]> var_511_end_0 = const()[name = tensor<string, []>("op_511_end_0"), val = tensor<int32, [4]>([1, 26, 1, 16])];
            tensor<bool, [4]> var_511_end_mask_0 = const()[name = tensor<string, []>("op_511_end_mask_0"), val = tensor<bool, [4]>([true, false, true, true])];
            tensor<bool, [4]> var_511_squeeze_mask_0 = const()[name = tensor<string, []>("op_511_squeeze_mask_0"), val = tensor<bool, [4]>([false, true, false, false])];
            tensor<fp16, [1, 1, 16]> var_511_cast_fp16 = slice_by_index(begin = var_511_begin_0, end = var_511_end_0, end_mask = var_511_end_mask_0, squeeze_mask = var_511_squeeze_mask_0, x = delta_B_u_1_cast_fp16)[name = tensor<string, []>("op_511_cast_fp16")];
            tensor<fp16, [1, 256, 16]> hidden_state_53_cast_fp16 = add(x = var_509_cast_fp16, y = var_511_cast_fp16)[name = tensor<string, []>("hidden_state_53_cast_fp16")];
            tensor<int32, [3]> var_514_begin_0 = const()[name = tensor<string, []>("op_514_begin_0"), val = tensor<int32, [3]>([0, 25, 0])];
            tensor<int32, [3]> var_514_end_0 = const()[name = tensor<string, []>("op_514_end_0"), val = tensor<int32, [3]>([1, 26, 16])];
            tensor<bool, [3]> var_514_end_mask_0 = const()[name = tensor<string, []>("op_514_end_mask_0"), val = tensor<bool, [3]>([true, false, true])];
            tensor<bool, [3]> var_514_squeeze_mask_0 = const()[name = tensor<string, []>("op_514_squeeze_mask_0"), val = tensor<bool, [3]>([false, true, false])];
            tensor<fp16, [1, 16]> var_514_cast_fp16 = slice_by_index(begin = var_514_begin_0, end = var_514_end_0, end_mask = var_514_end_mask_0, squeeze_mask = var_514_squeeze_mask_0, x = C_proj_1_cast_fp16)[name = tensor<string, []>("op_514_cast_fp16")];
            tensor<int32, [1]> var_516_axes_0 = const()[name = tensor<string, []>("op_516_axes_0"), val = tensor<int32, [1]>([-1])];
            tensor<fp16, [1, 16, 1]> var_516_cast_fp16 = expand_dims(axes = var_516_axes_0, x = var_514_cast_fp16)[name = tensor<string, []>("op_516_cast_fp16")];
            tensor<bool, []> var_517_transpose_x_0 = const()[name = tensor<string, []>("op_517_transpose_x_0"), val = tensor<bool, []>(false)];
            tensor<bool, []> var_517_transpose_y_0 = const()[name = tensor<string, []>("op_517_transpose_y_0"), val = tensor<bool, []>(false)];
            tensor<fp16, [1, 256, 1]> var_517_cast_fp16 = matmul(transpose_x = var_517_transpose_x_0, transpose_y = var_517_transpose_y_0, x = hidden_state_53_cast_fp16, y = var_516_cast_fp16)[name = tensor<string, []>("op_517_cast_fp16")];
            tensor<int32, [1]> var_518_axes_0 = const()[name = tensor<string, []>("op_518_axes_0"), val = tensor<int32, [1]>([-1])];
            tensor<fp16, [1, 256]> var_518_cast_fp16 = squeeze(axes = var_518_axes_0, x = var_517_cast_fp16)[name = tensor<string, []>("op_518_cast_fp16")];
            tensor<int32, [4]> var_520_begin_0 = const()[name = tensor<string, []>("op_520_begin_0"), val = tensor<int32, [4]>([0, 26, 0, 0])];
            tensor<int32, [4]> var_520_end_0 = const()[name = tensor<string, []>("op_520_end_0"), val = tensor<int32, [4]>([1, 27, 256, 16])];
            tensor<bool, [4]> var_520_end_mask_0 = const()[name = tensor<string, []>("op_520_end_mask_0"), val = tensor<bool, [4]>([true, false, true, true])];
            tensor<bool, [4]> var_520_squeeze_mask_0 = const()[name = tensor<string, []>("op_520_squeeze_mask_0"), val = tensor<bool, [4]>([false, true, false, false])];
            tensor<fp16, [1, 256, 16]> var_520_cast_fp16 = slice_by_index(begin = var_520_begin_0, end = var_520_end_0, end_mask = var_520_end_mask_0, squeeze_mask = var_520_squeeze_mask_0, x = clip_1_to_fp16)[name = tensor<string, []>("op_520_cast_fp16")];
            tensor<fp16, [1, 256, 16]> var_521_cast_fp16 = mul(x = var_520_cast_fp16, y = hidden_state_53_cast_fp16)[name = tensor<string, []>("op_521_cast_fp16")];
            tensor<int32, [4]> var_523_begin_0 = const()[name = tensor<string, []>("op_523_begin_0"), val = tensor<int32, [4]>([0, 26, 0, 0])];
            tensor<int32, [4]> var_523_end_0 = const()[name = tensor<string, []>("op_523_end_0"), val = tensor<int32, [4]>([1, 27, 1, 16])];
            tensor<bool, [4]> var_523_end_mask_0 = const()[name = tensor<string, []>("op_523_end_mask_0"), val = tensor<bool, [4]>([true, false, true, true])];
            tensor<bool, [4]> var_523_squeeze_mask_0 = const()[name = tensor<string, []>("op_523_squeeze_mask_0"), val = tensor<bool, [4]>([false, true, false, false])];
            tensor<fp16, [1, 1, 16]> var_523_cast_fp16 = slice_by_index(begin = var_523_begin_0, end = var_523_end_0, end_mask = var_523_end_mask_0, squeeze_mask = var_523_squeeze_mask_0, x = delta_B_u_1_cast_fp16)[name = tensor<string, []>("op_523_cast_fp16")];
            tensor<fp16, [1, 256, 16]> hidden_state_55_cast_fp16 = add(x = var_521_cast_fp16, y = var_523_cast_fp16)[name = tensor<string, []>("hidden_state_55_cast_fp16")];
            tensor<int32, [3]> var_526_begin_0 = const()[name = tensor<string, []>("op_526_begin_0"), val = tensor<int32, [3]>([0, 26, 0])];
            tensor<int32, [3]> var_526_end_0 = const()[name = tensor<string, []>("op_526_end_0"), val = tensor<int32, [3]>([1, 27, 16])];
            tensor<bool, [3]> var_526_end_mask_0 = const()[name = tensor<string, []>("op_526_end_mask_0"), val = tensor<bool, [3]>([true, false, true])];
            tensor<bool, [3]> var_526_squeeze_mask_0 = const()[name = tensor<string, []>("op_526_squeeze_mask_0"), val = tensor<bool, [3]>([false, true, false])];
            tensor<fp16, [1, 16]> var_526_cast_fp16 = slice_by_index(begin = var_526_begin_0, end = var_526_end_0, end_mask = var_526_end_mask_0, squeeze_mask = var_526_squeeze_mask_0, x = C_proj_1_cast_fp16)[name = tensor<string, []>("op_526_cast_fp16")];
            tensor<int32, [1]> var_528_axes_0 = const()[name = tensor<string, []>("op_528_axes_0"), val = tensor<int32, [1]>([-1])];
            tensor<fp16, [1, 16, 1]> var_528_cast_fp16 = expand_dims(axes = var_528_axes_0, x = var_526_cast_fp16)[name = tensor<string, []>("op_528_cast_fp16")];
            tensor<bool, []> var_529_transpose_x_0 = const()[name = tensor<string, []>("op_529_transpose_x_0"), val = tensor<bool, []>(false)];
            tensor<bool, []> var_529_transpose_y_0 = const()[name = tensor<string, []>("op_529_transpose_y_0"), val = tensor<bool, []>(false)];
            tensor<fp16, [1, 256, 1]> var_529_cast_fp16 = matmul(transpose_x = var_529_transpose_x_0, transpose_y = var_529_transpose_y_0, x = hidden_state_55_cast_fp16, y = var_528_cast_fp16)[name = tensor<string, []>("op_529_cast_fp16")];
            tensor<int32, [1]> var_530_axes_0 = const()[name = tensor<string, []>("op_530_axes_0"), val = tensor<int32, [1]>([-1])];
            tensor<fp16, [1, 256]> var_530_cast_fp16 = squeeze(axes = var_530_axes_0, x = var_529_cast_fp16)[name = tensor<string, []>("op_530_cast_fp16")];
            tensor<int32, [4]> var_532_begin_0 = const()[name = tensor<string, []>("op_532_begin_0"), val = tensor<int32, [4]>([0, 27, 0, 0])];
            tensor<int32, [4]> var_532_end_0 = const()[name = tensor<string, []>("op_532_end_0"), val = tensor<int32, [4]>([1, 28, 256, 16])];
            tensor<bool, [4]> var_532_end_mask_0 = const()[name = tensor<string, []>("op_532_end_mask_0"), val = tensor<bool, [4]>([true, false, true, true])];
            tensor<bool, [4]> var_532_squeeze_mask_0 = const()[name = tensor<string, []>("op_532_squeeze_mask_0"), val = tensor<bool, [4]>([false, true, false, false])];
            tensor<fp16, [1, 256, 16]> var_532_cast_fp16 = slice_by_index(begin = var_532_begin_0, end = var_532_end_0, end_mask = var_532_end_mask_0, squeeze_mask = var_532_squeeze_mask_0, x = clip_1_to_fp16)[name = tensor<string, []>("op_532_cast_fp16")];
            tensor<fp16, [1, 256, 16]> var_533_cast_fp16 = mul(x = var_532_cast_fp16, y = hidden_state_55_cast_fp16)[name = tensor<string, []>("op_533_cast_fp16")];
            tensor<int32, [4]> var_535_begin_0 = const()[name = tensor<string, []>("op_535_begin_0"), val = tensor<int32, [4]>([0, 27, 0, 0])];
            tensor<int32, [4]> var_535_end_0 = const()[name = tensor<string, []>("op_535_end_0"), val = tensor<int32, [4]>([1, 28, 1, 16])];
            tensor<bool, [4]> var_535_end_mask_0 = const()[name = tensor<string, []>("op_535_end_mask_0"), val = tensor<bool, [4]>([true, false, true, true])];
            tensor<bool, [4]> var_535_squeeze_mask_0 = const()[name = tensor<string, []>("op_535_squeeze_mask_0"), val = tensor<bool, [4]>([false, true, false, false])];
            tensor<fp16, [1, 1, 16]> var_535_cast_fp16 = slice_by_index(begin = var_535_begin_0, end = var_535_end_0, end_mask = var_535_end_mask_0, squeeze_mask = var_535_squeeze_mask_0, x = delta_B_u_1_cast_fp16)[name = tensor<string, []>("op_535_cast_fp16")];
            tensor<fp16, [1, 256, 16]> hidden_state_57_cast_fp16 = add(x = var_533_cast_fp16, y = var_535_cast_fp16)[name = tensor<string, []>("hidden_state_57_cast_fp16")];
            tensor<int32, [3]> var_538_begin_0 = const()[name = tensor<string, []>("op_538_begin_0"), val = tensor<int32, [3]>([0, 27, 0])];
            tensor<int32, [3]> var_538_end_0 = const()[name = tensor<string, []>("op_538_end_0"), val = tensor<int32, [3]>([1, 28, 16])];
            tensor<bool, [3]> var_538_end_mask_0 = const()[name = tensor<string, []>("op_538_end_mask_0"), val = tensor<bool, [3]>([true, false, true])];
            tensor<bool, [3]> var_538_squeeze_mask_0 = const()[name = tensor<string, []>("op_538_squeeze_mask_0"), val = tensor<bool, [3]>([false, true, false])];
            tensor<fp16, [1, 16]> var_538_cast_fp16 = slice_by_index(begin = var_538_begin_0, end = var_538_end_0, end_mask = var_538_end_mask_0, squeeze_mask = var_538_squeeze_mask_0, x = C_proj_1_cast_fp16)[name = tensor<string, []>("op_538_cast_fp16")];
            tensor<int32, [1]> var_540_axes_0 = const()[name = tensor<string, []>("op_540_axes_0"), val = tensor<int32, [1]>([-1])];
            tensor<fp16, [1, 16, 1]> var_540_cast_fp16 = expand_dims(axes = var_540_axes_0, x = var_538_cast_fp16)[name = tensor<string, []>("op_540_cast_fp16")];
            tensor<bool, []> var_541_transpose_x_0 = const()[name = tensor<string, []>("op_541_transpose_x_0"), val = tensor<bool, []>(false)];
            tensor<bool, []> var_541_transpose_y_0 = const()[name = tensor<string, []>("op_541_transpose_y_0"), val = tensor<bool, []>(false)];
            tensor<fp16, [1, 256, 1]> var_541_cast_fp16 = matmul(transpose_x = var_541_transpose_x_0, transpose_y = var_541_transpose_y_0, x = hidden_state_57_cast_fp16, y = var_540_cast_fp16)[name = tensor<string, []>("op_541_cast_fp16")];
            tensor<int32, [1]> var_542_axes_0 = const()[name = tensor<string, []>("op_542_axes_0"), val = tensor<int32, [1]>([-1])];
            tensor<fp16, [1, 256]> var_542_cast_fp16 = squeeze(axes = var_542_axes_0, x = var_541_cast_fp16)[name = tensor<string, []>("op_542_cast_fp16")];
            tensor<int32, [4]> var_544_begin_0 = const()[name = tensor<string, []>("op_544_begin_0"), val = tensor<int32, [4]>([0, 28, 0, 0])];
            tensor<int32, [4]> var_544_end_0 = const()[name = tensor<string, []>("op_544_end_0"), val = tensor<int32, [4]>([1, 29, 256, 16])];
            tensor<bool, [4]> var_544_end_mask_0 = const()[name = tensor<string, []>("op_544_end_mask_0"), val = tensor<bool, [4]>([true, false, true, true])];
            tensor<bool, [4]> var_544_squeeze_mask_0 = const()[name = tensor<string, []>("op_544_squeeze_mask_0"), val = tensor<bool, [4]>([false, true, false, false])];
            tensor<fp16, [1, 256, 16]> var_544_cast_fp16 = slice_by_index(begin = var_544_begin_0, end = var_544_end_0, end_mask = var_544_end_mask_0, squeeze_mask = var_544_squeeze_mask_0, x = clip_1_to_fp16)[name = tensor<string, []>("op_544_cast_fp16")];
            tensor<fp16, [1, 256, 16]> var_545_cast_fp16 = mul(x = var_544_cast_fp16, y = hidden_state_57_cast_fp16)[name = tensor<string, []>("op_545_cast_fp16")];
            tensor<int32, [4]> var_547_begin_0 = const()[name = tensor<string, []>("op_547_begin_0"), val = tensor<int32, [4]>([0, 28, 0, 0])];
            tensor<int32, [4]> var_547_end_0 = const()[name = tensor<string, []>("op_547_end_0"), val = tensor<int32, [4]>([1, 29, 1, 16])];
            tensor<bool, [4]> var_547_end_mask_0 = const()[name = tensor<string, []>("op_547_end_mask_0"), val = tensor<bool, [4]>([true, false, true, true])];
            tensor<bool, [4]> var_547_squeeze_mask_0 = const()[name = tensor<string, []>("op_547_squeeze_mask_0"), val = tensor<bool, [4]>([false, true, false, false])];
            tensor<fp16, [1, 1, 16]> var_547_cast_fp16 = slice_by_index(begin = var_547_begin_0, end = var_547_end_0, end_mask = var_547_end_mask_0, squeeze_mask = var_547_squeeze_mask_0, x = delta_B_u_1_cast_fp16)[name = tensor<string, []>("op_547_cast_fp16")];
            tensor<fp16, [1, 256, 16]> hidden_state_59_cast_fp16 = add(x = var_545_cast_fp16, y = var_547_cast_fp16)[name = tensor<string, []>("hidden_state_59_cast_fp16")];
            tensor<int32, [3]> var_550_begin_0 = const()[name = tensor<string, []>("op_550_begin_0"), val = tensor<int32, [3]>([0, 28, 0])];
            tensor<int32, [3]> var_550_end_0 = const()[name = tensor<string, []>("op_550_end_0"), val = tensor<int32, [3]>([1, 29, 16])];
            tensor<bool, [3]> var_550_end_mask_0 = const()[name = tensor<string, []>("op_550_end_mask_0"), val = tensor<bool, [3]>([true, false, true])];
            tensor<bool, [3]> var_550_squeeze_mask_0 = const()[name = tensor<string, []>("op_550_squeeze_mask_0"), val = tensor<bool, [3]>([false, true, false])];
            tensor<fp16, [1, 16]> var_550_cast_fp16 = slice_by_index(begin = var_550_begin_0, end = var_550_end_0, end_mask = var_550_end_mask_0, squeeze_mask = var_550_squeeze_mask_0, x = C_proj_1_cast_fp16)[name = tensor<string, []>("op_550_cast_fp16")];
            tensor<int32, [1]> var_552_axes_0 = const()[name = tensor<string, []>("op_552_axes_0"), val = tensor<int32, [1]>([-1])];
            tensor<fp16, [1, 16, 1]> var_552_cast_fp16 = expand_dims(axes = var_552_axes_0, x = var_550_cast_fp16)[name = tensor<string, []>("op_552_cast_fp16")];
            tensor<bool, []> var_553_transpose_x_0 = const()[name = tensor<string, []>("op_553_transpose_x_0"), val = tensor<bool, []>(false)];
            tensor<bool, []> var_553_transpose_y_0 = const()[name = tensor<string, []>("op_553_transpose_y_0"), val = tensor<bool, []>(false)];
            tensor<fp16, [1, 256, 1]> var_553_cast_fp16 = matmul(transpose_x = var_553_transpose_x_0, transpose_y = var_553_transpose_y_0, x = hidden_state_59_cast_fp16, y = var_552_cast_fp16)[name = tensor<string, []>("op_553_cast_fp16")];
            tensor<int32, [1]> var_554_axes_0 = const()[name = tensor<string, []>("op_554_axes_0"), val = tensor<int32, [1]>([-1])];
            tensor<fp16, [1, 256]> var_554_cast_fp16 = squeeze(axes = var_554_axes_0, x = var_553_cast_fp16)[name = tensor<string, []>("op_554_cast_fp16")];
            tensor<int32, [4]> var_556_begin_0 = const()[name = tensor<string, []>("op_556_begin_0"), val = tensor<int32, [4]>([0, 29, 0, 0])];
            tensor<int32, [4]> var_556_end_0 = const()[name = tensor<string, []>("op_556_end_0"), val = tensor<int32, [4]>([1, 30, 256, 16])];
            tensor<bool, [4]> var_556_end_mask_0 = const()[name = tensor<string, []>("op_556_end_mask_0"), val = tensor<bool, [4]>([true, false, true, true])];
            tensor<bool, [4]> var_556_squeeze_mask_0 = const()[name = tensor<string, []>("op_556_squeeze_mask_0"), val = tensor<bool, [4]>([false, true, false, false])];
            tensor<fp16, [1, 256, 16]> var_556_cast_fp16 = slice_by_index(begin = var_556_begin_0, end = var_556_end_0, end_mask = var_556_end_mask_0, squeeze_mask = var_556_squeeze_mask_0, x = clip_1_to_fp16)[name = tensor<string, []>("op_556_cast_fp16")];
            tensor<fp16, [1, 256, 16]> var_557_cast_fp16 = mul(x = var_556_cast_fp16, y = hidden_state_59_cast_fp16)[name = tensor<string, []>("op_557_cast_fp16")];
            tensor<int32, [4]> var_559_begin_0 = const()[name = tensor<string, []>("op_559_begin_0"), val = tensor<int32, [4]>([0, 29, 0, 0])];
            tensor<int32, [4]> var_559_end_0 = const()[name = tensor<string, []>("op_559_end_0"), val = tensor<int32, [4]>([1, 30, 1, 16])];
            tensor<bool, [4]> var_559_end_mask_0 = const()[name = tensor<string, []>("op_559_end_mask_0"), val = tensor<bool, [4]>([true, false, true, true])];
            tensor<bool, [4]> var_559_squeeze_mask_0 = const()[name = tensor<string, []>("op_559_squeeze_mask_0"), val = tensor<bool, [4]>([false, true, false, false])];
            tensor<fp16, [1, 1, 16]> var_559_cast_fp16 = slice_by_index(begin = var_559_begin_0, end = var_559_end_0, end_mask = var_559_end_mask_0, squeeze_mask = var_559_squeeze_mask_0, x = delta_B_u_1_cast_fp16)[name = tensor<string, []>("op_559_cast_fp16")];
            tensor<fp16, [1, 256, 16]> hidden_state_61_cast_fp16 = add(x = var_557_cast_fp16, y = var_559_cast_fp16)[name = tensor<string, []>("hidden_state_61_cast_fp16")];
            tensor<int32, [3]> var_562_begin_0 = const()[name = tensor<string, []>("op_562_begin_0"), val = tensor<int32, [3]>([0, 29, 0])];
            tensor<int32, [3]> var_562_end_0 = const()[name = tensor<string, []>("op_562_end_0"), val = tensor<int32, [3]>([1, 30, 16])];
            tensor<bool, [3]> var_562_end_mask_0 = const()[name = tensor<string, []>("op_562_end_mask_0"), val = tensor<bool, [3]>([true, false, true])];
            tensor<bool, [3]> var_562_squeeze_mask_0 = const()[name = tensor<string, []>("op_562_squeeze_mask_0"), val = tensor<bool, [3]>([false, true, false])];
            tensor<fp16, [1, 16]> var_562_cast_fp16 = slice_by_index(begin = var_562_begin_0, end = var_562_end_0, end_mask = var_562_end_mask_0, squeeze_mask = var_562_squeeze_mask_0, x = C_proj_1_cast_fp16)[name = tensor<string, []>("op_562_cast_fp16")];
            tensor<int32, [1]> var_564_axes_0 = const()[name = tensor<string, []>("op_564_axes_0"), val = tensor<int32, [1]>([-1])];
            tensor<fp16, [1, 16, 1]> var_564_cast_fp16 = expand_dims(axes = var_564_axes_0, x = var_562_cast_fp16)[name = tensor<string, []>("op_564_cast_fp16")];
            tensor<bool, []> var_565_transpose_x_0 = const()[name = tensor<string, []>("op_565_transpose_x_0"), val = tensor<bool, []>(false)];
            tensor<bool, []> var_565_transpose_y_0 = const()[name = tensor<string, []>("op_565_transpose_y_0"), val = tensor<bool, []>(false)];
            tensor<fp16, [1, 256, 1]> var_565_cast_fp16 = matmul(transpose_x = var_565_transpose_x_0, transpose_y = var_565_transpose_y_0, x = hidden_state_61_cast_fp16, y = var_564_cast_fp16)[name = tensor<string, []>("op_565_cast_fp16")];
            tensor<int32, [1]> var_566_axes_0 = const()[name = tensor<string, []>("op_566_axes_0"), val = tensor<int32, [1]>([-1])];
            tensor<fp16, [1, 256]> var_566_cast_fp16 = squeeze(axes = var_566_axes_0, x = var_565_cast_fp16)[name = tensor<string, []>("op_566_cast_fp16")];
            tensor<int32, [4]> var_568_begin_0 = const()[name = tensor<string, []>("op_568_begin_0"), val = tensor<int32, [4]>([0, 30, 0, 0])];
            tensor<int32, [4]> var_568_end_0 = const()[name = tensor<string, []>("op_568_end_0"), val = tensor<int32, [4]>([1, 31, 256, 16])];
            tensor<bool, [4]> var_568_end_mask_0 = const()[name = tensor<string, []>("op_568_end_mask_0"), val = tensor<bool, [4]>([true, false, true, true])];
            tensor<bool, [4]> var_568_squeeze_mask_0 = const()[name = tensor<string, []>("op_568_squeeze_mask_0"), val = tensor<bool, [4]>([false, true, false, false])];
            tensor<fp16, [1, 256, 16]> var_568_cast_fp16 = slice_by_index(begin = var_568_begin_0, end = var_568_end_0, end_mask = var_568_end_mask_0, squeeze_mask = var_568_squeeze_mask_0, x = clip_1_to_fp16)[name = tensor<string, []>("op_568_cast_fp16")];
            tensor<fp16, [1, 256, 16]> var_569_cast_fp16 = mul(x = var_568_cast_fp16, y = hidden_state_61_cast_fp16)[name = tensor<string, []>("op_569_cast_fp16")];
            tensor<int32, [4]> var_571_begin_0 = const()[name = tensor<string, []>("op_571_begin_0"), val = tensor<int32, [4]>([0, 30, 0, 0])];
            tensor<int32, [4]> var_571_end_0 = const()[name = tensor<string, []>("op_571_end_0"), val = tensor<int32, [4]>([1, 31, 1, 16])];
            tensor<bool, [4]> var_571_end_mask_0 = const()[name = tensor<string, []>("op_571_end_mask_0"), val = tensor<bool, [4]>([true, false, true, true])];
            tensor<bool, [4]> var_571_squeeze_mask_0 = const()[name = tensor<string, []>("op_571_squeeze_mask_0"), val = tensor<bool, [4]>([false, true, false, false])];
            tensor<fp16, [1, 1, 16]> var_571_cast_fp16 = slice_by_index(begin = var_571_begin_0, end = var_571_end_0, end_mask = var_571_end_mask_0, squeeze_mask = var_571_squeeze_mask_0, x = delta_B_u_1_cast_fp16)[name = tensor<string, []>("op_571_cast_fp16")];
            tensor<fp16, [1, 256, 16]> hidden_state_63_cast_fp16 = add(x = var_569_cast_fp16, y = var_571_cast_fp16)[name = tensor<string, []>("hidden_state_63_cast_fp16")];
            tensor<int32, [3]> var_574_begin_0 = const()[name = tensor<string, []>("op_574_begin_0"), val = tensor<int32, [3]>([0, 30, 0])];
            tensor<int32, [3]> var_574_end_0 = const()[name = tensor<string, []>("op_574_end_0"), val = tensor<int32, [3]>([1, 31, 16])];
            tensor<bool, [3]> var_574_end_mask_0 = const()[name = tensor<string, []>("op_574_end_mask_0"), val = tensor<bool, [3]>([true, false, true])];
            tensor<bool, [3]> var_574_squeeze_mask_0 = const()[name = tensor<string, []>("op_574_squeeze_mask_0"), val = tensor<bool, [3]>([false, true, false])];
            tensor<fp16, [1, 16]> var_574_cast_fp16 = slice_by_index(begin = var_574_begin_0, end = var_574_end_0, end_mask = var_574_end_mask_0, squeeze_mask = var_574_squeeze_mask_0, x = C_proj_1_cast_fp16)[name = tensor<string, []>("op_574_cast_fp16")];
            tensor<int32, [1]> var_576_axes_0 = const()[name = tensor<string, []>("op_576_axes_0"), val = tensor<int32, [1]>([-1])];
            tensor<fp16, [1, 16, 1]> var_576_cast_fp16 = expand_dims(axes = var_576_axes_0, x = var_574_cast_fp16)[name = tensor<string, []>("op_576_cast_fp16")];
            tensor<bool, []> var_577_transpose_x_0 = const()[name = tensor<string, []>("op_577_transpose_x_0"), val = tensor<bool, []>(false)];
            tensor<bool, []> var_577_transpose_y_0 = const()[name = tensor<string, []>("op_577_transpose_y_0"), val = tensor<bool, []>(false)];
            tensor<fp16, [1, 256, 1]> var_577_cast_fp16 = matmul(transpose_x = var_577_transpose_x_0, transpose_y = var_577_transpose_y_0, x = hidden_state_63_cast_fp16, y = var_576_cast_fp16)[name = tensor<string, []>("op_577_cast_fp16")];
            tensor<int32, [1]> var_578_axes_0 = const()[name = tensor<string, []>("op_578_axes_0"), val = tensor<int32, [1]>([-1])];
            tensor<fp16, [1, 256]> var_578_cast_fp16 = squeeze(axes = var_578_axes_0, x = var_577_cast_fp16)[name = tensor<string, []>("op_578_cast_fp16")];
            tensor<int32, [4]> var_580_begin_0 = const()[name = tensor<string, []>("op_580_begin_0"), val = tensor<int32, [4]>([0, 31, 0, 0])];
            tensor<int32, [4]> var_580_end_0 = const()[name = tensor<string, []>("op_580_end_0"), val = tensor<int32, [4]>([1, 32, 256, 16])];
            tensor<bool, [4]> var_580_end_mask_0 = const()[name = tensor<string, []>("op_580_end_mask_0"), val = tensor<bool, [4]>([true, false, true, true])];
            tensor<bool, [4]> var_580_squeeze_mask_0 = const()[name = tensor<string, []>("op_580_squeeze_mask_0"), val = tensor<bool, [4]>([false, true, false, false])];
            tensor<fp16, [1, 256, 16]> var_580_cast_fp16 = slice_by_index(begin = var_580_begin_0, end = var_580_end_0, end_mask = var_580_end_mask_0, squeeze_mask = var_580_squeeze_mask_0, x = clip_1_to_fp16)[name = tensor<string, []>("op_580_cast_fp16")];
            tensor<fp16, [1, 256, 16]> var_581_cast_fp16 = mul(x = var_580_cast_fp16, y = hidden_state_63_cast_fp16)[name = tensor<string, []>("op_581_cast_fp16")];
            tensor<int32, [4]> var_583_begin_0 = const()[name = tensor<string, []>("op_583_begin_0"), val = tensor<int32, [4]>([0, 31, 0, 0])];
            tensor<int32, [4]> var_583_end_0 = const()[name = tensor<string, []>("op_583_end_0"), val = tensor<int32, [4]>([1, 32, 1, 16])];
            tensor<bool, [4]> var_583_end_mask_0 = const()[name = tensor<string, []>("op_583_end_mask_0"), val = tensor<bool, [4]>([true, false, true, true])];
            tensor<bool, [4]> var_583_squeeze_mask_0 = const()[name = tensor<string, []>("op_583_squeeze_mask_0"), val = tensor<bool, [4]>([false, true, false, false])];
            tensor<fp16, [1, 1, 16]> var_583_cast_fp16 = slice_by_index(begin = var_583_begin_0, end = var_583_end_0, end_mask = var_583_end_mask_0, squeeze_mask = var_583_squeeze_mask_0, x = delta_B_u_1_cast_fp16)[name = tensor<string, []>("op_583_cast_fp16")];
            tensor<fp16, [1, 256, 16]> hidden_state_65_cast_fp16 = add(x = var_581_cast_fp16, y = var_583_cast_fp16)[name = tensor<string, []>("hidden_state_65_cast_fp16")];
            tensor<int32, [3]> var_586_begin_0 = const()[name = tensor<string, []>("op_586_begin_0"), val = tensor<int32, [3]>([0, 31, 0])];
            tensor<int32, [3]> var_586_end_0 = const()[name = tensor<string, []>("op_586_end_0"), val = tensor<int32, [3]>([1, 32, 16])];
            tensor<bool, [3]> var_586_end_mask_0 = const()[name = tensor<string, []>("op_586_end_mask_0"), val = tensor<bool, [3]>([true, false, true])];
            tensor<bool, [3]> var_586_squeeze_mask_0 = const()[name = tensor<string, []>("op_586_squeeze_mask_0"), val = tensor<bool, [3]>([false, true, false])];
            tensor<fp16, [1, 16]> var_586_cast_fp16 = slice_by_index(begin = var_586_begin_0, end = var_586_end_0, end_mask = var_586_end_mask_0, squeeze_mask = var_586_squeeze_mask_0, x = C_proj_1_cast_fp16)[name = tensor<string, []>("op_586_cast_fp16")];
            tensor<int32, [1]> var_588_axes_0 = const()[name = tensor<string, []>("op_588_axes_0"), val = tensor<int32, [1]>([-1])];
            tensor<fp16, [1, 16, 1]> var_588_cast_fp16 = expand_dims(axes = var_588_axes_0, x = var_586_cast_fp16)[name = tensor<string, []>("op_588_cast_fp16")];
            tensor<bool, []> var_589_transpose_x_0 = const()[name = tensor<string, []>("op_589_transpose_x_0"), val = tensor<bool, []>(false)];
            tensor<bool, []> var_589_transpose_y_0 = const()[name = tensor<string, []>("op_589_transpose_y_0"), val = tensor<bool, []>(false)];
            tensor<fp16, [1, 256, 1]> var_589_cast_fp16 = matmul(transpose_x = var_589_transpose_x_0, transpose_y = var_589_transpose_y_0, x = hidden_state_65_cast_fp16, y = var_588_cast_fp16)[name = tensor<string, []>("op_589_cast_fp16")];
            tensor<int32, [1]> var_590_axes_0 = const()[name = tensor<string, []>("op_590_axes_0"), val = tensor<int32, [1]>([-1])];
            tensor<fp16, [1, 256]> var_590_cast_fp16 = squeeze(axes = var_590_axes_0, x = var_589_cast_fp16)[name = tensor<string, []>("op_590_cast_fp16")];
            tensor<int32, [4]> var_592_begin_0 = const()[name = tensor<string, []>("op_592_begin_0"), val = tensor<int32, [4]>([0, 32, 0, 0])];
            tensor<int32, [4]> var_592_end_0 = const()[name = tensor<string, []>("op_592_end_0"), val = tensor<int32, [4]>([1, 33, 256, 16])];
            tensor<bool, [4]> var_592_end_mask_0 = const()[name = tensor<string, []>("op_592_end_mask_0"), val = tensor<bool, [4]>([true, false, true, true])];
            tensor<bool, [4]> var_592_squeeze_mask_0 = const()[name = tensor<string, []>("op_592_squeeze_mask_0"), val = tensor<bool, [4]>([false, true, false, false])];
            tensor<fp16, [1, 256, 16]> var_592_cast_fp16 = slice_by_index(begin = var_592_begin_0, end = var_592_end_0, end_mask = var_592_end_mask_0, squeeze_mask = var_592_squeeze_mask_0, x = clip_1_to_fp16)[name = tensor<string, []>("op_592_cast_fp16")];
            tensor<fp16, [1, 256, 16]> var_593_cast_fp16 = mul(x = var_592_cast_fp16, y = hidden_state_65_cast_fp16)[name = tensor<string, []>("op_593_cast_fp16")];
            tensor<int32, [4]> var_595_begin_0 = const()[name = tensor<string, []>("op_595_begin_0"), val = tensor<int32, [4]>([0, 32, 0, 0])];
            tensor<int32, [4]> var_595_end_0 = const()[name = tensor<string, []>("op_595_end_0"), val = tensor<int32, [4]>([1, 33, 1, 16])];
            tensor<bool, [4]> var_595_end_mask_0 = const()[name = tensor<string, []>("op_595_end_mask_0"), val = tensor<bool, [4]>([true, false, true, true])];
            tensor<bool, [4]> var_595_squeeze_mask_0 = const()[name = tensor<string, []>("op_595_squeeze_mask_0"), val = tensor<bool, [4]>([false, true, false, false])];
…
            tensor<fp16, [1, 1, 1, 320]> input_211_cast_fp16 = tanh(x = input_209_cast_fp16)[name = tensor<string, []>("input_211_cast_fp16")];
            tensor<fp16, [1, 1, 1, 1024]> linear_147_cast_fp16 = linear(bias = model_joiner_vocabulary_projection_bias_to_fp16, weight = model_joiner_vocabulary_projection_weight_to_fp16, x = input_211_cast_fp16)[name = tensor<string, []>("linear_147_cast_fp16")];
            tensor<int32, [3]> var_6515_begin_0 = const()[name = tensor<string, []>("op_6515_begin_0"), val = tensor<int32, [3]>([0, 39, 0])];
            tensor<int32, [3]> var_6515_end_0 = const()[name = tensor<string, []>("op_6515_end_0"), val = tensor<int32, [3]>([1, 40, 256])];
            tensor<bool, [3]> var_6515_end_mask_0 = const()[name = tensor<string, []>("op_6515_end_mask_0"), val = tensor<bool, [3]>([true, false, true])];
            tensor<fp16, [1, 1, 256]> var_6515_cast_fp16 = slice_by_index(begin = var_6515_begin_0, end = var_6515_end_0, end_mask = var_6515_end_mask_0, x = acoustic_encoded_cast_fp16)[name = tensor<string, []>("op_6515_cast_fp16")];
            tensor<fp16, [1, 1, 320]> linear_148_cast_fp16 = linear(bias = model_joiner_acoustic_projection_bias_to_fp16, weight = model_joiner_acoustic_projection_weight_to_fp16, x = var_6515_cast_fp16)[name = tensor<string, []>("linear_148_cast_fp16")];
            tensor<int32, [1]> acoustic_broadcast_79_axes_0 = const()[name = tensor<string, []>("acoustic_broadcast_79_axes_0"), val = tensor<int32, [1]>([2])];
            tensor<fp16, [1, 1, 1, 320]> acoustic_broadcast_79_cast_fp16 = expand_dims(axes = acoustic_broadcast_79_axes_0, x = linear_148_cast_fp16)[name = tensor<string, []>("acoustic_broadcast_79_cast_fp16")];
            tensor<fp16, [1, 1, 1, 320]> input_213_cast_fp16 = add(x = acoustic_broadcast_79_cast_fp16, y = linguistic_broadcast_1_cast_fp16)[name = tensor<string, []>("input_213_cast_fp16")];
            tensor<fp16, [1, 1, 1, 320]> input_215_cast_fp16 = tanh(x = input_213_cast_fp16)[name = tensor<string, []>("input_215_cast_fp16")];
            tensor<fp16, [1, 1, 1, 1024]> linear_150_cast_fp16 = linear(bias = model_joiner_vocabulary_projection_bias_to_fp16, weight = model_joiner_vocabulary_projection_weight_to_fp16, x = input_215_cast_fp16)[name = tensor<string, []>("linear_150_cast_fp16")];
            tensor<int32, [3]> var_6548_begin_0 = const()[name = tensor<string, []>("op_6548_begin_0"), val = tensor<int32, [3]>([0, 40, 0])];
            tensor<int32, [3]> var_6548_end_0 = const()[name = tensor<string, []>("op_6548_end_0"), val = tensor<int32, [3]>([1, 41, 256])];
            tensor<bool, [3]> var_6548_end_mask_0 = const()[name = tensor<string, []>("op_6548_end_mask_0"), val = tensor<bool, [3]>([true, false, true])];
            tensor<fp16, [1, 1, 256]> var_6548_cast_fp16 = slice_by_index(begin = var_6548_begin_0, end = var_6548_end_0, end_mask = var_6548_end_mask_0, x = acoustic_encoded_cast_fp16)[name = tensor<string, []>("op_6548_cast_fp16")];
            tensor<fp16, [1, 1, 320]> linear_151_cast_fp16 = linear(bias = model_joiner_acoustic_projection_bias_to_fp16, weight = model_joiner_acoustic_projection_weight_to_fp16, x = var_6548_cast_fp16)[name = tensor<string, []>("linear_151_cast_fp16")];
            tensor<int32, [1]> acoustic_broadcast_81_axes_0 = const()[name = tensor<string, []>("acoustic_broadcast_81_axes_0"), val = tensor<int32, [1]>([2])];
            tensor<fp16, [1, 1, 1, 320]> acoustic_broadcast_81_cast_fp16 = expand_dims(axes = acoustic_broadcast_81_axes_0, x = linear_151_cast_fp16)[name = tensor<string, []>("acoustic_broadcast_81_cast_fp16")];
            tensor<fp16, [1, 1, 1, 320]> input_217_cast_fp16 = add(x = acoustic_broadcast_81_cast_fp16, y = linguistic_broadcast_1_cast_fp16)[name = tensor<string, []>("input_217_cast_fp16")];
            tensor<fp16, [1, 1, 1, 320]> input_219_cast_fp16 = tanh(x = input_217_cast_fp16)[name = tensor<string, []>("input_219_cast_fp16")];
            tensor<fp16, [1, 1, 1, 1024]> linear_153_cast_fp16 = linear(bias = model_joiner_vocabulary_projection_bias_to_fp16, weight = model_joiner_vocabulary_projection_weight_to_fp16, x = input_219_cast_fp16)[name = tensor<string, []>("linear_153_cast_fp16")];
            tensor<int32, [3]> var_6581_begin_0 = const()[name = tensor<string, []>("op_6581_begin_0"), val = tensor<int32, [3]>([0, 41, 0])];
            tensor<int32, [3]> var_6581_end_0 = const()[name = tensor<string, []>("op_6581_end_0"), val = tensor<int32, [3]>([1, 42, 256])];
            tensor<bool, [3]> var_6581_end_mask_0 = const()[name = tensor<string, []>("op_6581_end_mask_0"), val = tensor<bool, [3]>([true, false, true])];
            tensor<fp16, [1, 1, 256]> var_6581_cast_fp16 = slice_by_index(begin = var_6581_begin_0, end = var_6581_end_0, end_mask = var_6581_end_mask_0, x = acoustic_encoded_cast_fp16)[name = tensor<string, []>("op_6581_cast_fp16")];
            tensor<fp16, [1, 1, 320]> linear_154_cast_fp16 = linear(bias = model_joiner_acoustic_projection_bias_to_fp16, weight = model_joiner_acoustic_projection_weight_to_fp16, x = var_6581_cast_fp16)[name = tensor<string, []>("linear_154_cast_fp16")];
            tensor<int32, [1]> acoustic_broadcast_83_axes_0 = const()[name = tensor<string, []>("acoustic_broadcast_83_axes_0"), val = tensor<int32, [1]>([2])];
            tensor<fp16, [1, 1, 1, 320]> acoustic_broadcast_83_cast_fp16 = expand_dims(axes = acoustic_broadcast_83_axes_0, x = linear_154_cast_fp16)[name = tensor<string, []>("acoustic_broadcast_83_cast_fp16")];
            tensor<fp16, [1, 1, 1, 320]> input_221_cast_fp16 = add(x = acoustic_broadcast_83_cast_fp16, y = linguistic_broadcast_1_cast_fp16)[name = tensor<string, []>("input_221_cast_fp16")];
            tensor<fp16, [1, 1, 1, 320]> input_223_cast_fp16 = tanh(x = input_221_cast_fp16)[name = tensor<string, []>("input_223_cast_fp16")];
            tensor<fp16, [1, 1, 1, 1024]> linear_156_cast_fp16 = linear(bias = model_joiner_vocabulary_projection_bias_to_fp16, weight = model_joiner_vocabulary_projection_weight_to_fp16, x = input_223_cast_fp16)[name = tensor<string, []>("linear_156_cast_fp16")];
            tensor<int32, [3]> var_6614_begin_0 = const()[name = tensor<string, []>("op_6614_begin_0"), val = tensor<int32, [3]>([0, 42, 0])];
            tensor<int32, [3]> var_6614_end_0 = const()[name = tensor<string, []>("op_6614_end_0"), val = tensor<int32, [3]>([1, 43, 256])];
            tensor<bool, [3]> var_6614_end_mask_0 = const()[name = tensor<string, []>("op_6614_end_mask_0"), val = tensor<bool, [3]>([true, false, true])];
            tensor<fp16, [1, 1, 256]> var_6614_cast_fp16 = slice_by_index(begin = var_6614_begin_0, end = var_6614_end_0, end_mask = var_6614_end_mask_0, x = acoustic_encoded_cast_fp16)[name = tensor<string, []>("op_6614_cast_fp16")];
            tensor<fp16, [1, 1, 320]> linear_157_cast_fp16 = linear(bias = model_joiner_acoustic_projection_bias_to_fp16, weight = model_joiner_acoustic_projection_weight_to_fp16, x = var_6614_cast_fp16)[name = tensor<string, []>("linear_157_cast_fp16")];
            tensor<int32, [1]> acoustic_broadcast_85_axes_0 = const()[name = tensor<string, []>("acoustic_broadcast_85_axes_0"), val = tensor<int32, [1]>([2])];
            tensor<fp16, [1, 1, 1, 320]> acoustic_broadcast_85_cast_fp16 = expand_dims(axes = acoustic_broadcast_85_axes_0, x = linear_157_cast_fp16)[name = tensor<string, []>("acoustic_broadcast_85_cast_fp16")];
            tensor<fp16, [1, 1, 1, 320]> input_225_cast_fp16 = add(x = acoustic_broadcast_85_cast_fp16, y = linguistic_broadcast_1_cast_fp16)[name = tensor<string, []>("input_225_cast_fp16")];
            tensor<fp16, [1, 1, 1, 320]> input_227_cast_fp16 = tanh(x = input_225_cast_fp16)[name = tensor<string, []>("input_227_cast_fp16")];
            tensor<fp16, [1, 1, 1, 1024]> linear_159_cast_fp16 = linear(bias = model_joiner_vocabulary_projection_bias_to_fp16, weight = model_joiner_vocabulary_projection_weight_to_fp16, x = input_227_cast_fp16)[name = tensor<string, []>("linear_159_cast_fp16")];
            tensor<int32, [3]> var_6647_begin_0 = const()[name = tensor<string, []>("op_6647_begin_0"), val = tensor<int32, [3]>([0, 43, 0])];
            tensor<int32, [3]> var_6647_end_0 = const()[name = tensor<string, []>("op_6647_end_0"), val = tensor<int32, [3]>([1, 44, 256])];
            tensor<bool, [3]> var_6647_end_mask_0 = const()[name = tensor<string, []>("op_6647_end_mask_0"), val = tensor<bool, [3]>([true, false, true])];
            tensor<fp16, [1, 1, 256]> var_6647_cast_fp16 = slice_by_index(begin = var_6647_begin_0, end = var_6647_end_0, end_mask = var_6647_end_mask_0, x = acoustic_encoded_cast_fp16)[name = tensor<string, []>("op_6647_cast_fp16")];
            tensor<fp16, [1, 1, 320]> linear_160_cast_fp16 = linear(bias = model_joiner_acoustic_projection_bias_to_fp16, weight = model_joiner_acoustic_projection_weight_to_fp16, x = var_6647_cast_fp16)[name = tensor<string, []>("linear_160_cast_fp16")];
            tensor<int32, [1]> acoustic_broadcast_87_axes_0 = const()[name = tensor<string, []>("acoustic_broadcast_87_axes_0"), val = tensor<int32, [1]>([2])];
            tensor<fp16, [1, 1, 1, 320]> acoustic_broadcast_87_cast_fp16 = expand_dims(axes = acoustic_broadcast_87_axes_0, x = linear_160_cast_fp16)[name = tensor<string, []>("acoustic_broadcast_87_cast_fp16")];
            tensor<fp16, [1, 1, 1, 320]> input_229_cast_fp16 = add(x = acoustic_broadcast_87_cast_fp16, y = linguistic_broadcast_1_cast_fp16)[name = tensor<string, []>("input_229_cast_fp16")];
            tensor<fp16, [1, 1, 1, 320]> input_231_cast_fp16 = tanh(x = input_229_cast_fp16)[name = tensor<string, []>("input_231_cast_fp16")];
            tensor<fp16, [1, 1, 1, 1024]> linear_162_cast_fp16 = linear(bias = model_joiner_vocabulary_projection_bias_to_fp16, weight = model_joiner_vocabulary_projection_weight_to_fp16, x = input_231_cast_fp16)[name = tensor<string, []>("linear_162_cast_fp16")];
            tensor<int32, [3]> var_6680_begin_0 = const()[name = tensor<string, []>("op_6680_begin_0"), val = tensor<int32, [3]>([0, 44, 0])];
            tensor<int32, [3]> var_6680_end_0 = const()[name = tensor<string, []>("op_6680_end_0"), val = tensor<int32, [3]>([1, 45, 256])];
            tensor<bool, [3]> var_6680_end_mask_0 = const()[name = tensor<string, []>("op_6680_end_mask_0"), val = tensor<bool, [3]>([true, false, true])];
            tensor<fp16, [1, 1, 256]> var_6680_cast_fp16 = slice_by_index(begin = var_6680_begin_0, end = var_6680_end_0, end_mask = var_6680_end_mask_0, x = acoustic_encoded_cast_fp16)[name = tensor<string, []>("op_6680_cast_fp16")];
            tensor<fp16, [1, 1, 320]> linear_163_cast_fp16 = linear(bias = model_joiner_acoustic_projection_bias_to_fp16, weight = model_joiner_acoustic_projection_weight_to_fp16, x = var_6680_cast_fp16)[name = tensor<string, []>("linear_163_cast_fp16")];
            tensor<int32, [1]> acoustic_broadcast_89_axes_0 = const()[name = tensor<string, []>("acoustic_broadcast_89_axes_0"), val = tensor<int32, [1]>([2])];
            tensor<fp16, [1, 1, 1, 320]> acoustic_broadcast_89_cast_fp16 = expand_dims(axes = acoustic_broadcast_89_axes_0, x = linear_163_cast_fp16)[name = tensor<string, []>("acoustic_broadcast_89_cast_fp16")];
            tensor<fp16, [1, 1, 1, 320]> input_233_cast_fp16 = add(x = acoustic_broadcast_89_cast_fp16, y = linguistic_broadcast_1_cast_fp16)[name = tensor<string, []>("input_233_cast_fp16")];
            tensor<fp16, [1, 1, 1, 320]> input_235_cast_fp16 = tanh(x = input_233_cast_fp16)[name = tensor<string, []>("input_235_cast_fp16")];
            tensor<fp16, [1, 1, 1, 1024]> linear_165_cast_fp16 = linear(bias = model_joiner_vocabulary_projection_bias_to_fp16, weight = model_joiner_vocabulary_projection_weight_to_fp16, x = input_235_cast_fp16)[name = tensor<string, []>("linear_165_cast_fp16")];
            tensor<int32, [3]> var_6713_begin_0 = const()[name = tensor<string, []>("op_6713_begin_0"), val = tensor<int32, [3]>([0, 45, 0])];
            tensor<int32, [3]> var_6713_end_0 = const()[name = tensor<string, []>("op_6713_end_0"), val = tensor<int32, [3]>([1, 46, 256])];
            tensor<bool, [3]> var_6713_end_mask_0 = const()[name = tensor<string, []>("op_6713_end_mask_0"), val = tensor<bool, [3]>([true, false, true])];
            tensor<fp16, [1, 1, 256]> var_6713_cast_fp16 = slice_by_index(begin = var_6713_begin_0, end = var_6713_end_0, end_mask = var_6713_end_mask_0, x = acoustic_encoded_cast_fp16)[name = tensor<string, []>("op_6713_cast_fp16")];
            tensor<fp16, [1, 1, 320]> linear_166_cast_fp16 = linear(bias = model_joiner_acoustic_projection_bias_to_fp16, weight = model_joiner_acoustic_projection_weight_to_fp16, x = var_6713_cast_fp16)[name = tensor<string, []>("linear_166_cast_fp16")];
            tensor<int32, [1]> acoustic_broadcast_91_axes_0 = const()[name = tensor<string, []>("acoustic_broadcast_91_axes_0"), val = tensor<int32, [1]>([2])];
            tensor<fp16, [1, 1, 1, 320]> acoustic_broadcast_91_cast_fp16 = expand_dims(axes = acoustic_broadcast_91_axes_0, x = linear_166_cast_fp16)[name = tensor<string, []>("acoustic_broadcast_91_cast_fp16")];
            tensor<fp16, [1, 1, 1, 320]> input_237_cast_fp16 = add(x = acoustic_broadcast_91_cast_fp16, y = linguistic_broadcast_1_cast_fp16)[name = tensor<string, []>("input_237_cast_fp16")];
            tensor<fp16, [1, 1, 1, 320]> input_239_cast_fp16 = tanh(x = input_237_cast_fp16)[name = tensor<string, []>("input_239_cast_fp16")];
            tensor<fp16, [1, 1, 1, 1024]> linear_168_cast_fp16 = linear(bias = model_joiner_vocabulary_projection_bias_to_fp16, weight = model_joiner_vocabulary_projection_weight_to_fp16, x = input_239_cast_fp16)[name = tensor<string, []>("linear_168_cast_fp16")];
            tensor<int32, [3]> var_6746_begin_0 = const()[name = tensor<string, []>("op_6746_begin_0"), val = tensor<int32, [3]>([0, 46, 0])];
            tensor<int32, [3]> var_6746_end_0 = const()[name = tensor<string, []>("op_6746_end_0"), val = tensor<int32, [3]>([1, 47, 256])];
            tensor<bool, [3]> var_6746_end_mask_0 = const()[name = tensor<string, []>("op_6746_end_mask_0"), val = tensor<bool, [3]>([true, false, true])];
            tensor<fp16, [1, 1, 256]> var_6746_cast_fp16 = slice_by_index(begin = var_6746_begin_0, end = var_6746_end_0, end_mask = var_6746_end_mask_0, x = acoustic_encoded_cast_fp16)[name = tensor<string, []>("op_6746_cast_fp16")];
            tensor<fp16, [1, 1, 320]> linear_169_cast_fp16 = linear(bias = model_joiner_acoustic_projection_bias_to_fp16, weight = model_joiner_acoustic_projection_weight_to_fp16, x = var_6746_cast_fp16)[name = tensor<string, []>("linear_169_cast_fp16")];
            tensor<int32, [1]> acoustic_broadcast_93_axes_0 = const()[name = tensor<string, []>("acoustic_broadcast_93_axes_0"), val = tensor<int32, [1]>([2])];
            tensor<fp16, [1, 1, 1, 320]> acoustic_broadcast_93_cast_fp16 = expand_dims(axes = acoustic_broadcast_93_axes_0, x = linear_169_cast_fp16)[name = tensor<string, []>("acoustic_broadcast_93_cast_fp16")];
            tensor<fp16, [1, 1, 1, 320]> input_241_cast_fp16 = add(x = acoustic_broadcast_93_cast_fp16, y = linguistic_broadcast_1_cast_fp16)[name = tensor<string, []>("input_241_cast_fp16")];
            tensor<fp16, [1, 1, 1, 320]> input_243_cast_fp16 = tanh(x = input_241_cast_fp16)[name = tensor<string, []>("input_243_cast_fp16")];
            tensor<fp16, [1, 1, 1, 1024]> linear_171_cast_fp16 = linear(bias = model_joiner_vocabulary_projection_bias_to_fp16, weight = model_joiner_vocabulary_projection_weight_to_fp16, x = input_243_cast_fp16)[name = tensor<string, []>("linear_171_cast_fp16")];
            tensor<int32, [3]> var_6779_begin_0 = const()[name = tensor<string, []>("op_6779_begin_0"), val = tensor<int32, [3]>([0, 47, 0])];
            tensor<int32, [3]> var_6779_end_0 = const()[name = tensor<string, []>("op_6779_end_0"), val = tensor<int32, [3]>([1, 48, 256])];
            tensor<bool, [3]> var_6779_end_mask_0 = const()[name = tensor<string, []>("op_6779_end_mask_0"), val = tensor<bool, [3]>([true, false, true])];
            tensor<fp16, [1, 1, 256]> var_6779_cast_fp16 = slice_by_index(begin = var_6779_begin_0, end = var_6779_end_0, end_mask = var_6779_end_mask_0, x = acoustic_encoded_cast_fp16)[name = tensor<string, []>("op_6779_cast_fp16")];
            tensor<fp16, [1, 1, 320]> linear_172_cast_fp16 = linear(bias = model_joiner_acoustic_projection_bias_to_fp16, weight = model_joiner_acoustic_projection_weight_to_fp16, x = var_6779_cast_fp16)[name = tensor<string, []>("linear_172_cast_fp16")];
            tensor<int32, [1]> acoustic_broadcast_95_axes_0 = const()[name = tensor<string, []>("acoustic_broadcast_95_axes_0"), val = tensor<int32, [1]>([2])];
            tensor<fp16, [1, 1, 1, 320]> acoustic_broadcast_95_cast_fp16 = expand_dims(axes = acoustic_broadcast_95_axes_0, x = linear_172_cast_fp16)[name = tensor<string, []>("acoustic_broadcast_95_cast_fp16")];
            tensor<fp16, [1, 1, 1, 320]> input_245_cast_fp16 = add(x = acoustic_broadcast_95_cast_fp16, y = linguistic_broadcast_1_cast_fp16)[name = tensor<string, []>("input_245_cast_fp16")];
            tensor<fp16, [1, 1, 1, 320]> input_247_cast_fp16 = tanh(x = input_245_cast_fp16)[name = tensor<string, []>("input_247_cast_fp16")];
            tensor<fp16, [1, 1, 1, 1024]> linear_174_cast_fp16 = linear(bias = model_joiner_vocabulary_projection_bias_to_fp16, weight = model_joiner_vocabulary_projection_weight_to_fp16, x = input_247_cast_fp16)[name = tensor<string, []>("linear_174_cast_fp16")];
            tensor<int32, [3]> var_6812_begin_0 = const()[name = tensor<string, []>("op_6812_begin_0"), val = tensor<int32, [3]>([0, 48, 0])];
            tensor<int32, [3]> var_6812_end_0 = const()[name = tensor<string, []>("op_6812_end_0"), val = tensor<int32, [3]>([1, 49, 256])];
            tensor<bool, [3]> var_6812_end_mask_0 = const()[name = tensor<string, []>("op_6812_end_mask_0"), val = tensor<bool, [3]>([true, false, true])];
            tensor<fp16, [1, 1, 256]> var_6812_cast_fp16 = slice_by_index(begin = var_6812_begin_0, end = var_6812_end_0, end_mask = var_6812_end_mask_0, x = acoustic_encoded_cast_fp16)[name = tensor<string, []>("op_6812_cast_fp16")];
            tensor<fp16, [1, 1, 320]> linear_175_cast_fp16 = linear(bias = model_joiner_acoustic_projection_bias_to_fp16, weight = model_joiner_acoustic_projection_weight_to_fp16, x = var_6812_cast_fp16)[name = tensor<string, []>("linear_175_cast_fp16")];
            tensor<int32, [1]> acoustic_broadcast_97_axes_0 = const()[name = tensor<string, []>("acoustic_broadcast_97_axes_0"), val = tensor<int32, [1]>([2])];
            tensor<fp16, [1, 1, 1, 320]> acoustic_broadcast_97_cast_fp16 = expand_dims(axes = acoustic_broadcast_97_axes_0, x = linear_175_cast_fp16)[name = tensor<string, []>("acoustic_broadcast_97_cast_fp16")];
            tensor<fp16, [1, 1, 1, 320]> input_249_cast_fp16 = add(x = acoustic_broadcast_97_cast_fp16, y = linguistic_broadcast_1_cast_fp16)[name = tensor<string, []>("input_249_cast_fp16")];
            tensor<fp16, [1, 1, 1, 320]> input_251_cast_fp16 = tanh(x = input_249_cast_fp16)[name = tensor<string, []>("input_251_cast_fp16")];
            tensor<fp16, [1, 1, 1, 1024]> linear_177_cast_fp16 = linear(bias = model_joiner_vocabulary_projection_bias_to_fp16, weight = model_joiner_vocabulary_projection_weight_to_fp16, x = input_251_cast_fp16)[name = tensor<string, []>("linear_177_cast_fp16")];
            tensor<int32, [3]> var_6845_begin_0 = const()[name = tensor<string, []>("op_6845_begin_0"), val = tensor<int32, [3]>([0, 49, 0])];
            tensor<int32, [3]> var_6845_end_0 = const()[name = tensor<string, []>("op_6845_end_0"), val = tensor<int32, [3]>([1, 50, 256])];
            tensor<bool, [3]> var_6845_end_mask_0 = const()[name = tensor<string, []>("op_6845_end_mask_0"), val = tensor<bool, [3]>([true, false, true])];
            tensor<fp16, [1, 1, 256]> var_6845_cast_fp16 = slice_by_index(begin = var_6845_begin_0, end = var_6845_end_0, end_mask = var_6845_end_mask_0, x = acoustic_encoded_cast_fp16)[name = tensor<string, []>("op_6845_cast_fp16")];
            tensor<fp16, [1, 1, 320]> linear_178_cast_fp16 = linear(bias = model_joiner_acoustic_projection_bias_to_fp16, weight = model_joiner_acoustic_projection_weight_to_fp16, x = var_6845_cast_fp16)[name = tensor<string, []>("linear_178_cast_fp16")];
            tensor<int32, [1]> acoustic_broadcast_99_axes_0 = const()[name = tensor<string, []>("acoustic_broadcast_99_axes_0"), val = tensor<int32, [1]>([2])];
            tensor<fp16, [1, 1, 1, 320]> acoustic_broadcast_99_cast_fp16 = expand_dims(axes = acoustic_broadcast_99_axes_0, x = linear_178_cast_fp16)[name = tensor<string, []>("acoustic_broadcast_99_cast_fp16")];
            tensor<fp16, [1, 1, 1, 320]> input_253_cast_fp16 = add(x = acoustic_broadcast_99_cast_fp16, y = linguistic_broadcast_1_cast_fp16)[name = tensor<string, []>("input_253_cast_fp16")];
            tensor<fp16, [1, 1, 1, 320]> input_255_cast_fp16 = tanh(x = input_253_cast_fp16)[name = tensor<string, []>("input_255_cast_fp16")];
            tensor<fp16, [1, 1, 1, 1024]> linear_180_cast_fp16 = linear(bias = model_joiner_vocabulary_projection_bias_to_fp16, weight = model_joiner_vocabulary_projection_weight_to_fp16, x = input_255_cast_fp16)[name = tensor<string, []>("linear_180_cast_fp16")];
            tensor<int32, [3]> var_6878_begin_0 = const()[name = tensor<string, []>("op_6878_begin_0"), val = tensor<int32, [3]>([0, 50, 0])];
            tensor<int32, [3]> var_6878_end_0 = const()[name = tensor<string, []>("op_6878_end_0"), val = tensor<int32, [3]>([1, 51, 256])];
            tensor<bool, [3]> var_6878_end_mask_0 = const()[name = tensor<string, []>("op_6878_end_mask_0"), val = tensor<bool, [3]>([true, false, true])];
            tensor<fp16, [1, 1, 256]> var_6878_cast_fp16 = slice_by_index(begin = var_6878_begin_0, end = var_6878_end_0, end_mask = var_6878_end_mask_0, x = acoustic_encoded_cast_fp16)[name = tensor<string, []>("op_6878_cast_fp16")];
            tensor<fp16, [1, 1, 320]> linear_181_cast_fp16 = linear(bias = model_joiner_acoustic_projection_bias_to_fp16, weight = model_joiner_acoustic_projection_weight_to_fp16, x = var_6878_cast_fp16)[name = tensor<string, []>("linear_181_cast_fp16")];
            tensor<int32, [1]> acoustic_broadcast_101_axes_0 = const()[name = tensor<string, []>("acoustic_broadcast_101_axes_0"), val = tensor<int32, [1]>([2])];
            tensor<fp16, [1, 1, 1, 320]> acoustic_broadcast_101_cast_fp16 = expand_dims(axes = acoustic_broadcast_101_axes_0, x = linear_181_cast_fp16)[name = tensor<string, []>("acoustic_broadcast_101_cast_fp16")];
            tensor<fp16, [1, 1, 1, 320]> input_257_cast_fp16 = add(x = acoustic_broadcast_101_cast_fp16, y = linguistic_broadcast_1_cast_fp16)[name = tensor<string, []>("input_257_cast_fp16")];
            tensor<fp16, [1, 1, 1, 320]> input_259_cast_fp16 = tanh(x = input_257_cast_fp16)[name = tensor<string, []>("input_259_cast_fp16")];
            tensor<fp16, [1, 1, 1, 1024]> linear_183_cast_fp16 = linear(bias = model_joiner_vocabulary_projection_bias_to_fp16, weight = model_joiner_vocabulary_projection_weight_to_fp16, x = input_259_cast_fp16)[name = tensor<string, []>("linear_183_cast_fp16")];
            tensor<int32, [3]> var_6911_begin_0 = const()[name = tensor<string, []>("op_6911_begin_0"), val = tensor<int32, [3]>([0, 51, 0])];
            tensor<int32, [3]> var_6911_end_0 = const()[name = tensor<string, []>("op_6911_end_0"), val = tensor<int32, [3]>([1, 52, 256])];
            tensor<bool, [3]> var_6911_end_mask_0 = const()[name = tensor<string, []>("op_6911_end_mask_0"), val = tensor<bool, [3]>([true, false, true])];
            tensor<fp16, [1, 1, 256]> var_6911_cast_fp16 = slice_by_index(begin = var_6911_begin_0, end = var_6911_end_0, end_mask = var_6911_end_mask_0, x = acoustic_encoded_cast_fp16)[name = tensor<string, []>("op_6911_cast_fp16")];
            tensor<fp16, [1, 1, 320]> linear_184_cast_fp16 = linear(bias = model_joiner_acoustic_projection_bias_to_fp16, weight = model_joiner_acoustic_projection_weight_to_fp16, x = var_6911_cast_fp16)[name = tensor<string, []>("linear_184_cast_fp16")];
            tensor<int32, [1]> acoustic_broadcast_103_axes_0 = const()[name = tensor<string, []>("acoustic_broadcast_103_axes_0"), val = tensor<int32, [1]>([2])];
            tensor<fp16, [1, 1, 1, 320]> acoustic_broadcast_103_cast_fp16 = expand_dims(axes = acoustic_broadcast_103_axes_0, x = linear_184_cast_fp16)[name = tensor<string, []>("acoustic_broadcast_103_cast_fp16")];
            tensor<fp16, [1, 1, 1, 320]> input_261_cast_fp16 = add(x = acoustic_broadcast_103_cast_fp16, y = linguistic_broadcast_1_cast_fp16)[name = tensor<string, []>("input_261_cast_fp16")];
            tensor<fp16, [1, 1, 1, 320]> input_263_cast_fp16 = tanh(x = input_261_cast_fp16)[name = tensor<string, []>("input_263_cast_fp16")];
            tensor<fp16, [1, 1, 1, 1024]> linear_186_cast_fp16 = linear(bias = model_joiner_vocabulary_projection_bias_to_fp16, weight = model_joiner_vocabulary_projection_weight_to_fp16, x = input_263_cast_fp16)[name = tensor<string, []>("linear_186_cast_fp16")];
            tensor<int32, [3]> var_6944_begin_0 = const()[name = tensor<string, []>("op_6944_begin_0"), val = tensor<int32, [3]>([0, 52, 0])];
            tensor<int32, [3]> var_6944_end_0 = const()[name = tensor<string, []>("op_6944_end_0"), val = tensor<int32, [3]>([1, 53, 256])];
            tensor<bool, [3]> var_6944_end_mask_0 = const()[name = tensor<string, []>("op_6944_end_mask_0"), val = tensor<bool, [3]>([true, false, true])];
            tensor<fp16, [1, 1, 256]> var_6944_cast_fp16 = slice_by_index(begin = var_6944_begin_0, end = var_6944_end_0, end_mask = var_6944_end_mask_0, x = acoustic_encoded_cast_fp16)[name = tensor<string, []>("op_6944_cast_fp16")];
            tensor<fp16, [1, 1, 320]> linear_187_cast_fp16 = linear(bias = model_joiner_acoustic_projection_bias_to_fp16, weight = model_joiner_acoustic_projection_weight_to_fp16, x = var_6944_cast_fp16)[name = tensor<string, []>("linear_187_cast_fp16")];
            tensor<int32, [1]> acoustic_broadcast_105_axes_0 = const()[name = tensor<string, []>("acoustic_broadcast_105_axes_0"), val = tensor<int32, [1]>([2])];
            tensor<fp16, [1, 1, 1, 320]> acoustic_broadcast_105_cast_fp16 = expand_dims(axes = acoustic_broadcast_105_axes_0, x = linear_187_cast_fp16)[name = tensor<string, []>("acoustic_broadcast_105_cast_fp16")];
            tensor<fp16, [1, 1, 1, 320]> input_265_cast_fp16 = add(x = acoustic_broadcast_105_cast_fp16, y = linguistic_broadcast_1_cast_fp16)[name = tensor<string, []>("input_265_cast_fp16")];
            tensor<fp16, [1, 1, 1, 320]> input_267_cast_fp16 = tanh(x = input_265_cast_fp16)[name = tensor<string, []>("input_267_cast_fp16")];
            tensor<fp16, [1, 1, 1, 1024]> linear_189_cast_fp16 = linear(bias = model_joiner_vocabulary_projection_bias_to_fp16, weight = model_joiner_vocabulary_projection_weight_to_fp16, x = input_267_cast_fp16)[name = tensor<string, []>("linear_189_cast_fp16")];
            tensor<int32, [3]> var_6977_begin_0 = const()[name = tensor<string, []>("op_6977_begin_0"), val = tensor<int32, [3]>([0, 53, 0])];
            tensor<int32, [3]> var_6977_end_0 = const()[name = tensor<string, []>("op_6977_end_0"), val = tensor<int32, [3]>([1, 54, 256])];
            tensor<bool, [3]> var_6977_end_mask_0 = const()[name = tensor<string, []>("op_6977_end_mask_0"), val = tensor<bool, [3]>([true, false, true])];
            tensor<fp16, [1, 1, 256]> var_6977_cast_fp16 = slice_by_index(begin = var_6977_begin_0, end = var_6977_end_0, end_mask = var_6977_end_mask_0, x = acoustic_encoded_cast_fp16)[name = tensor<string, []>("op_6977_cast_fp16")];
            tensor<fp16, [1, 1, 320]> linear_190_cast_fp16 = linear(bias = model_joiner_acoustic_projection_bias_to_fp16, weight = model_joiner_acoustic_projection_weight_to_fp16, x = var_6977_cast_fp16)[name = tensor<string, []>("linear_190_cast_fp16")];
            tensor<int32, [1]> acoustic_broadcast_107_axes_0 = const()[name = tensor<string, []>("acoustic_broadcast_107_axes_0"), val = tensor<int32, [1]>([2])];
            tensor<fp16, [1, 1, 1, 320]> acoustic_broadcast_107_cast_fp16 = expand_dims(axes = acoustic_broadcast_107_axes_0, x = linear_190_cast_fp16)[name = tensor<string, []>("acoustic_broadcast_107_cast_fp16")];
            tensor<fp16, [1, 1, 1, 320]> input_269_cast_fp16 = add(x = acoustic_broadcast_107_cast_fp16, y = linguistic_broadcast_1_cast_fp16)[name = tensor<string, []>("input_269_cast_fp16")];
            tensor<fp16, [1, 1, 1, 320]> input_271_cast_fp16 = tanh(x = input_269_cast_fp16)[name = tensor<string, []>("input_271_cast_fp16")];
            tensor<fp16, [1, 1, 1, 1024]> linear_192_cast_fp16 = linear(bias = model_joiner_vocabulary_projection_bias_to_fp16, weight = model_joiner_vocabulary_projection_weight_to_fp16, x = input_271_cast_fp16)[name = tensor<string, []>("linear_192_cast_fp16")];
            tensor<int32, [3]> var_7010_begin_0 = const()[name = tensor<string, []>("op_7010_begin_0"), val = tensor<int32, [3]>([0, 54, 0])];
            tensor<int32, [3]> var_7010_end_0 = const()[name = tensor<string, []>("op_7010_end_0"), val = tensor<int32, [3]>([1, 55, 256])];
            tensor<bool, [3]> var_7010_end_mask_0 = const()[name = tensor<string, []>("op_7010_end_mask_0"), val = tensor<bool, [3]>([true, false, true])];
            tensor<fp16, [1, 1, 256]> var_7010_cast_fp16 = slice_by_index(begin = var_7010_begin_0, end = var_7010_end_0, end_mask = var_7010_end_mask_0, x = acoustic_encoded_cast_fp16)[name = tensor<string, []>("op_7010_cast_fp16")];
            tensor<fp16, [1, 1, 320]> linear_193_cast_fp16 = linear(bias = model_joiner_acoustic_projection_bias_to_fp16, weight = model_joiner_acoustic_projection_weight_to_fp16, x = var_7010_cast_fp16)[name = tensor<string, []>("linear_193_cast_fp16")];
            tensor<int32, [1]> acoustic_broadcast_109_axes_0 = const()[name = tensor<string, []>("acoustic_broadcast_109_axes_0"), val = tensor<int32, [1]>([2])];
            tensor<fp16, [1, 1, 1, 320]> acoustic_broadcast_109_cast_fp16 = expand_dims(axes = acoustic_broadcast_109_axes_0, x = linear_193_cast_fp16)[name = tensor<string, []>("acoustic_broadcast_109_cast_fp16")];
            tensor<fp16, [1, 1, 1, 320]> input_273_cast_fp16 = add(x = acoustic_broadcast_109_cast_fp16, y = linguistic_broadcast_1_cast_fp16)[name = tensor<string, []>("input_273_cast_fp16")];
            tensor<fp16, [1, 1, 1, 320]> input_275_cast_fp16 = tanh(x = input_273_cast_fp16)[name = tensor<string, []>("input_275_cast_fp16")];
            tensor<fp16, [1, 1, 1, 1024]> linear_195_cast_fp16 = linear(bias = model_joiner_vocabulary_projection_bias_to_fp16, weight = model_joiner_vocabulary_projection_weight_to_fp16, x = input_275_cast_fp16)[name = tensor<string, []>("linear_195_cast_fp16")];
            tensor<int32, [3]> var_7043_begin_0 = const()[name = tensor<string, []>("op_7043_begin_0"), val = tensor<int32, [3]>([0, 55, 0])];
            tensor<int32, [3]> var_7043_end_0 = const()[name = tensor<string, []>("op_7043_end_0"), val = tensor<int32, [3]>([1, 56, 256])];
            tensor<bool, [3]> var_7043_end_mask_0 = const()[name = tensor<string, []>("op_7043_end_mask_0"), val = tensor<bool, [3]>([true, false, true])];
            tensor<fp16, [1, 1, 256]> var_7043_cast_fp16 = slice_by_index(begin = var_7043_begin_0, end = var_7043_end_0, end_mask = var_7043_end_mask_0, x = acoustic_encoded_cast_fp16)[name = tensor<string, []>("op_7043_cast_fp16")];
            tensor<fp16, [1, 1, 320]> linear_196_cast_fp16 = linear(bias = model_joiner_acoustic_projection_bias_to_fp16, weight = model_joiner_acoustic_projection_weight_to_fp16, x = var_7043_cast_fp16)[name = tensor<string, []>("linear_196_cast_fp16")];
            tensor<int32, [1]> acoustic_broadcast_111_axes_0 = const()[name = tensor<string, []>("acoustic_broadcast_111_axes_0"), val = tensor<int32, [1]>([2])];
            tensor<fp16, [1, 1, 1, 320]> acoustic_broadcast_111_cast_fp16 = expand_dims(axes = acoustic_broadcast_111_axes_0, x = linear_196_cast_fp16)[name = tensor<string, []>("acoustic_broadcast_111_cast_fp16")];
            tensor<fp16, [1, 1, 1, 320]> input_277_cast_fp16 = add(x = acoustic_broadcast_111_cast_fp16, y = linguistic_broadcast_1_cast_fp16)[name = tensor<string, []>("input_277_cast_fp16")];
            tensor<fp16, [1, 1, 1, 320]> input_279_cast_fp16 = tanh(x = input_277_cast_fp16)[name = tensor<string, []>("input_279_cast_fp16")];
            tensor<fp16, [1, 1, 1, 1024]> linear_198_cast_fp16 = linear(bias = model_joiner_vocabulary_projection_bias_to_fp16, weight = model_joiner_vocabulary_projection_weight_to_fp16, x = input_279_cast_fp16)[name = tensor<string, []>("linear_198_cast_fp16")];
            tensor<int32, [3]> var_7076_begin_0 = const()[name = tensor<string, []>("op_7076_begin_0"), val = tensor<int32, [3]>([0, 56, 0])];
            tensor<int32, [3]> var_7076_end_0 = const()[name = tensor<string, []>("op_7076_end_0"), val = tensor<int32, [3]>([1, 57, 256])];
            tensor<bool, [3]> var_7076_end_mask_0 = const()[name = tensor<string, []>("op_7076_end_mask_0"), val = tensor<bool, [3]>([true, false, true])];
            tensor<fp16, [1, 1, 256]> var_7076_cast_fp16 = slice_by_index(begin = var_7076_begin_0, end = var_7076_end_0, end_mask = var_7076_end_mask_0, x = acoustic_encoded_cast_fp16)[name = tensor<string, []>("op_7076_cast_fp16")];
            tensor<fp16, [1, 1, 320]> linear_199_cast_fp16 = linear(bias = model_joiner_acoustic_projection_bias_to_fp16, weight = model_joiner_acoustic_projection_weight_to_fp16, x = var_7076_cast_fp16)[name = tensor<string, []>("linear_199_cast_fp16")];
            tensor<int32, [1]> acoustic_broadcast_113_axes_0 = const()[name = tensor<string, []>("acoustic_broadcast_113_axes_0"), val = tensor<int32, [1]>([2])];
            tensor<fp16, [1, 1, 1, 320]> acoustic_broadcast_113_cast_fp16 = expand_dims(axes = acoustic_broadcast_113_axes_0, x = linear_199_cast_fp16)[name = tensor<string, []>("acoustic_broadcast_113_cast_fp16")];
            tensor<fp16, [1, 1, 1, 320]> input_281_cast_fp16 = add(x = acoustic_broadcast_113_cast_fp16, y = linguistic_broadcast_1_cast_fp16)[name = tensor<string, []>("input_281_cast_fp16")];
            tensor<fp16, [1, 1, 1, 320]> input_283_cast_fp16 = tanh(x = input_281_cast_fp16)[name = tensor<string, []>("input_283_cast_fp16")];
            tensor<fp16, [1, 1, 1, 1024]> linear_201_cast_fp16 = linear(bias = model_joiner_vocabulary_projection_bias_to_fp16, weight = model_joiner_vocabulary_projection_weight_to_fp16, x = input_283_cast_fp16)[name = tensor<string, []>("linear_201_cast_fp16")];
            tensor<int32, [3]> var_7109_begin_0 = const()[name = tensor<string, []>("op_7109_begin_0"), val = tensor<int32, [3]>([0, 57, 0])];
            tensor<int32, [3]> var_7109_end_0 = const()[name = tensor<string, []>("op_7109_end_0"), val = tensor<int32, [3]>([1, 58, 256])];
            tensor<bool, [3]> var_7109_end_mask_0 = const()[name = tensor<string, []>("op_7109_end_mask_0"), val = tensor<bool, [3]>([true, false, true])];
            tensor<fp16, [1, 1, 256]> var_7109_cast_fp16 = slice_by_index(begin = var_7109_begin_0, end = var_7109_end_0, end_mask = var_7109_end_mask_0, x = acoustic_encoded_cast_fp16)[name = tensor<string, []>("op_7109_cast_fp16")];
            tensor<fp16, [1, 1, 320]> linear_202_cast_fp16 = linear(bias = model_joiner_acoustic_projection_bias_to_fp16, weight = model_joiner_acoustic_projection_weight_to_fp16, x = var_7109_cast_fp16)[name = tensor<string, []>("linear_202_cast_fp16")];
            tensor<int32, [1]> acoustic_broadcast_115_axes_0 = const()[name = tensor<string, []>("acoustic_broadcast_115_axes_0"), val = tensor<int32, [1]>([2])];
            tensor<fp16, [1, 1, 1, 320]> acoustic_broadcast_115_cast_fp16 = expand_dims(axes = acoustic_broadcast_115_axes_0, x = linear_202_cast_fp16)[name = tensor<string, []>("acoustic_broadcast_115_cast_fp16")];
            tensor<fp16, [1, 1, 1, 320]> input_285_cast_fp16 = add(x = acoustic_broadcast_115_cast_fp16, y = linguistic_broadcast_1_cast_fp16)[name = tensor<string, []>("input_285_cast_fp16")];
            tensor<fp16, [1, 1, 1, 320]> input_287_cast_fp16 = tanh(x = input_285_cast_fp16)[name = tensor<string, []>("input_287_cast_fp16")];
            tensor<fp16, [1, 1, 1, 1024]> linear_204_cast_fp16 = linear(bias = model_joiner_vocabulary_projection_bias_to_fp16, weight = model_joiner_vocabulary_projection_weight_to_fp16, x = input_287_cast_fp16)[name = tensor<string, []>("linear_204_cast_fp16")];
            tensor<int32, [3]> var_7142_begin_0 = const()[name = tensor<string, []>("op_7142_begin_0"), val = tensor<int32, [3]>([0, 58, 0])];
            tensor<int32, [3]> var_7142_end_0 = const()[name = tensor<string, []>("op_7142_end_0"), val = tensor<int32, [3]>([1, 59, 256])];
            tensor<bool, [3]> var_7142_end_mask_0 = const()[name = tensor<string, []>("op_7142_end_mask_0"), val = tensor<bool, [3]>([true, false, true])];
            tensor<fp16, [1, 1, 256]> var_7142_cast_fp16 = slice_by_index(begin = var_7142_begin_0, end = var_7142_end_0, end_mask = var_7142_end_mask_0, x = acoustic_encoded_cast_fp16)[name = tensor<string, []>("op_7142_cast_fp16")];
            tensor<fp16, [1, 1, 320]> linear_205_cast_fp16 = linear(bias = model_joiner_acoustic_projection_bias_to_fp16, weight = model_joiner_acoustic_projection_weight_to_fp16, x = var_7142_cast_fp16)[name = tensor<string, []>("linear_205_cast_fp16")];
            tensor<int32, [1]> acoustic_broadcast_117_axes_0 = const()[name = tensor<string, []>("acoustic_broadcast_117_axes_0"), val = tensor<int32, [1]>([2])];
            tensor<fp16, [1, 1, 1, 320]> acoustic_broadcast_117_cast_fp16 = expand_dims(axes = acoustic_broadcast_117_axes_0, x = linear_205_cast_fp16)[name = tensor<string, []>("acoustic_broadcast_117_cast_fp16")];
            tensor<fp16, [1, 1, 1, 320]> input_289_cast_fp16 = add(x = acoustic_broadcast_117_cast_fp16, y = linguistic_broadcast_1_cast_fp16)[name = tensor<string, []>("input_289_cast_fp16")];
            tensor<fp16, [1, 1, 1, 320]> input_291_cast_fp16 = tanh(x = input_289_cast_fp16)[name = tensor<string, []>("input_291_cast_fp16")];
            tensor<fp16, [1, 1, 1, 1024]> linear_207_cast_fp16 = linear(bias = model_joiner_vocabulary_projection_bias_to_fp16, weight = model_joiner_vocabulary_projection_weight_to_fp16, x = input_291_cast_fp16)[name = tensor<string, []>("linear_207_cast_fp16")];
            tensor<int32, [3]> var_7175_begin_0 = const()[name = tensor<string, []>("op_7175_begin_0"), val = tensor<int32, [3]>([0, 59, 0])];
            tensor<int32, [3]> var_7175_end_0 = const()[name = tensor<string, []>("op_7175_end_0"), val = tensor<int32, [3]>([1, 60, 256])];
            tensor<bool, [3]> var_7175_end_mask_0 = const()[name = tensor<string, []>("op_7175_end_mask_0"), val = tensor<bool, [3]>([true, false, true])];
            tensor<fp16, [1, 1, 256]> var_7175_cast_fp16 = slice_by_index(begin = var_7175_begin_0, end = var_7175_end_0, end_mask = var_7175_end_mask_0, x = acoustic_encoded_cast_fp16)[name = tensor<string, []>("op_7175_cast_fp16")];
            tensor<fp16, [1, 1, 320]> linear_208_cast_fp16 = linear(bias = model_joiner_acoustic_projection_bias_to_fp16, weight = model_joiner_acoustic_projection_weight_to_fp16, x = var_7175_cast_fp16)[name = tensor<string, []>("linear_208_cast_fp16")];
            tensor<int32, [1]> acoustic_broadcast_119_axes_0 = const()[name = tensor<string, []>("acoustic_broadcast_119_axes_0"), val = tensor<int32, [1]>([2])];
            tensor<fp16, [1, 1, 1, 320]> acoustic_broadcast_119_cast_fp16 = expand_dims(axes = acoustic_broadcast_119_axes_0, x = linear_208_cast_fp16)[name = tensor<string, []>("acoustic_broadcast_119_cast_fp16")];
            tensor<fp16, [1, 1, 1, 320]> input_293_cast_fp16 = add(x = acoustic_broadcast_119_cast_fp16, y = linguistic_broadcast_1_cast_fp16)[name = tensor<string, []>("input_293_cast_fp16")];
            tensor<fp16, [1, 1, 1, 320]> input_295_cast_fp16 = tanh(x = input_293_cast_fp16)[name = tensor<string, []>("input_295_cast_fp16")];
            tensor<fp16, [1, 1, 1, 1024]> linear_210_cast_fp16 = linear(bias = model_joiner_vocabulary_projection_bias_to_fp16, weight = model_joiner_vocabulary_projection_weight_to_fp16, x = input_295_cast_fp16)[name = tensor<string, []>("linear_210_cast_fp16")];
            tensor<int32, [3]> var_7208_begin_0 = const()[name = tensor<string, []>("op_7208_begin_0"), val = tensor<int32, [3]>([0, 60, 0])];
            tensor<int32, [3]> var_7208_end_0 = const()[name = tensor<string, []>("op_7208_end_0"), val = tensor<int32, [3]>([1, 61, 256])];
            tensor<bool, [3]> var_7208_end_mask_0 = const()[name = tensor<string, []>("op_7208_end_mask_0"), val = tensor<bool, [3]>([true, false, true])];
            tensor<fp16, [1, 1, 256]> var_7208_cast_fp16 = slice_by_index(begin = var_7208_begin_0, end = var_7208_end_0, end_mask = var_7208_end_mask_0, x = acoustic_encoded_cast_fp16)[name = tensor<string, []>("op_7208_cast_fp16")];
            tensor<fp16, [1, 1, 320]> linear_211_cast_fp16 = linear(bias = model_joiner_acoustic_projection_bias_to_fp16, weight = model_joiner_acoustic_projection_weight_to_fp16, x = var_7208_cast_fp16)[name = tensor<string, []>("linear_211_cast_fp16")];
            tensor<int32, [1]> acoustic_broadcast_121_axes_0 = const()[name = tensor<string, []>("acoustic_broadcast_121_axes_0"), val = tensor<int32, [1]>([2])];
            tensor<fp16, [1, 1, 1, 320]> acoustic_broadcast_121_cast_fp16 = expand_dims(axes = acoustic_broadcast_121_axes_0, x = linear_211_cast_fp16)[name = tensor<string, []>("acoustic_broadcast_121_cast_fp16")];
            tensor<fp16, [1, 1, 1, 320]> input_297_cast_fp16 = add(x = acoustic_broadcast_121_cast_fp16, y = linguistic_broadcast_1_cast_fp16)[name = tensor<string, []>("input_297_cast_fp16")];
            tensor<fp16, [1, 1, 1, 320]> input_299_cast_fp16 = tanh(x = input_297_cast_fp16)[name = tensor<string, []>("input_299_cast_fp16")];
            tensor<fp16, [1, 1, 1, 1024]> linear_213_cast_fp16 = linear(bias = model_joiner_vocabulary_projection_bias_to_fp16, weight = model_joiner_vocabulary_projection_weight_to_fp16, x = input_299_cast_fp16)[name = tensor<string, []>("linear_213_cast_fp16")];
            tensor<int32, [3]> var_7241_begin_0 = const()[name = tensor<string, []>("op_7241_begin_0"), val = tensor<int32, [3]>([0, 61, 0])];
            tensor<int32, [3]> var_7241_end_0 = const()[name = tensor<string, []>("op_7241_end_0"), val = tensor<int32, [3]>([1, 62, 256])];
            tensor<bool, [3]> var_7241_end_mask_0 = const()[name = tensor<string, []>("op_7241_end_mask_0"), val = tensor<bool, [3]>([true, false, true])];
            tensor<fp16, [1, 1, 256]> var_7241_cast_fp16 = slice_by_index(begin = var_7241_begin_0, end = var_7241_end_0, end_mask = var_7241_end_mask_0, x = acoustic_encoded_cast_fp16)[name = tensor<string, []>("op_7241_cast_fp16")];
            tensor<fp16, [1, 1, 320]> linear_214_cast_fp16 = linear(bias = model_joiner_acoustic_projection_bias_to_fp16, weight = model_joiner_acoustic_projection_weight_to_fp16, x = var_7241_cast_fp16)[name = tensor<string, []>("linear_214_cast_fp16")];
            tensor<int32, [1]> acoustic_broadcast_123_axes_0 = const()[name = tensor<string, []>("acoustic_broadcast_123_axes_0"), val = tensor<int32, [1]>([2])];
            tensor<fp16, [1, 1, 1, 320]> acoustic_broadcast_123_cast_fp16 = expand_dims(axes = acoustic_broadcast_123_axes_0, x = linear_214_cast_fp16)[name = tensor<string, []>("acoustic_broadcast_123_cast_fp16")];
            tensor<fp16, [1, 1, 1, 320]> input_301_cast_fp16 = add(x = acoustic_broadcast_123_cast_fp16, y = linguistic_broadcast_1_cast_fp16)[name = tensor<string, []>("input_301_cast_fp16")];
            tensor<fp16, [1, 1, 1, 320]> input_303_cast_fp16 = tanh(x = input_301_cast_fp16)[name = tensor<string, []>("input_303_cast_fp16")];
            tensor<fp16, [1, 1, 1, 1024]> linear_216_cast_fp16 = linear(bias = model_joiner_vocabulary_projection_bias_to_fp16, weight = model_joiner_vocabulary_projection_weight_to_fp16, x = input_303_cast_fp16)[name = tensor<string, []>("linear_216_cast_fp16")];
            tensor<int32, [3]> var_7274_begin_0 = const()[name = tensor<string, []>("op_7274_begin_0"), val = tensor<int32, [3]>([0, 62, 0])];
            tensor<int32, [3]> var_7274_end_0 = const()[name = tensor<string, []>("op_7274_end_0"), val = tensor<int32, [3]>([1, 63, 256])];
            tensor<bool, [3]> var_7274_end_mask_0 = const()[name = tensor<string, []>("op_7274_end_mask_0"), val = tensor<bool, [3]>([true, false, true])];
            tensor<fp16, [1, 1, 256]> var_7274_cast_fp16 = slice_by_index(begin = var_7274_begin_0, end = var_7274_end_0, end_mask = var_7274_end_mask_0, x = acoustic_encoded_cast_fp16)[name = tensor<string, []>("op_7274_cast_fp16")];
            tensor<fp16, [1, 1, 320]> linear_217_cast_fp16 = linear(bias = model_joiner_acoustic_projection_bias_to_fp16, weight = model_joiner_acoustic_projection_weight_to_fp16, x = var_7274_cast_fp16)[name = tensor<string, []>("linear_217_cast_fp16")];
            tensor<int32, [1]> acoustic_broadcast_125_axes_0 = const()[name = tensor<string, []>("acoustic_broadcast_125_axes_0"), val = tensor<int32, [1]>([2])];
            tensor<fp16, [1, 1, 1, 320]> acoustic_broadcast_125_cast_fp16 = expand_dims(axes = acoustic_broadcast_125_axes_0, x = linear_217_cast_fp16)[name = tensor<string, []>("acoustic_broadcast_125_cast_fp16")];
            tensor<fp16, [1, 1, 1, 320]> input_305_cast_fp16 = add(x = acoustic_broadcast_125_cast_fp16, y = linguistic_broadcast_1_cast_fp16)[name = tensor<string, []>("input_305_cast_fp16")];
            tensor<fp16, [1, 1, 1, 320]> input_307_cast_fp16 = tanh(x = input_305_cast_fp16)[name = tensor<string, []>("input_307_cast_fp16")];
            tensor<fp16, [1, 1, 1, 1024]> linear_219_cast_fp16 = linear(bias = model_joiner_vocabulary_projection_bias_to_fp16, weight = model_joiner_vocabulary_projection_weight_to_fp16, x = input_307_cast_fp16)[name = tensor<string, []>("linear_219_cast_fp16")];
            tensor<int32, [3]> var_7307_begin_0 = const()[name = tensor<string, []>("op_7307_begin_0"), val = tensor<int32, [3]>([0, 63, 0])];
            tensor<int32, [3]> var_7307_end_0 = const()[name = tensor<string, []>("op_7307_end_0"), val = tensor<int32, [3]>([1, 1, 256])];
            tensor<bool, [3]> var_7307_end_mask_0 = const()[name = tensor<string, []>("op_7307_end_mask_0"), val = tensor<bool, [3]>([true, true, true])];
            tensor<fp16, [1, 1, 256]> var_7307_cast_fp16 = slice_by_index(begin = var_7307_begin_0, end = var_7307_end_0, end_mask = var_7307_end_mask_0, x = acoustic_encoded_cast_fp16)[name = tensor<string, []>("op_7307_cast_fp16")];
            tensor<fp16, [1, 1, 320]> linear_220_cast_fp16 = linear(bias = model_joiner_acoustic_projection_bias_to_fp16, weight = model_joiner_acoustic_projection_weight_to_fp16, x = var_7307_cast_fp16)[name = tensor<string, []>("linear_220_cast_fp16")];
            tensor<int32, [1]> acoustic_broadcast_axes_0 = const()[name = tensor<string, []>("acoustic_broadcast_axes_0"), val = tensor<int32, [1]>([2])];
            tensor<fp16, [1, 1, 1, 320]> acoustic_broadcast_cast_fp16 = expand_dims(axes = acoustic_broadcast_axes_0, x = linear_220_cast_fp16)[name = tensor<string, []>("acoustic_broadcast_cast_fp16")];
            tensor<fp16, [1, 1, 1, 320]> input_309_cast_fp16 = add(x = acoustic_broadcast_cast_fp16, y = linguistic_broadcast_1_cast_fp16)[name = tensor<string, []>("input_309_cast_fp16")];
            tensor<fp16, [1, 1, 1, 320]> input_cast_fp16 = tanh(x = input_309_cast_fp16)[name = tensor<string, []>("input_cast_fp16")];
            tensor<fp16, [1, 1, 1, 1024]> linear_222_cast_fp16 = linear(bias = model_joiner_vocabulary_projection_bias_to_fp16, weight = model_joiner_vocabulary_projection_weight_to_fp16, x = input_cast_fp16)[name = tensor<string, []>("linear_222_cast_fp16")];
            tensor<int32, []> var_7332 = const()[name = tensor<string, []>("op_7332"), val = tensor<int32, []>(1)];
            tensor<bool, []> var_7333_interleave_0 = const()[name = tensor<string, []>("op_7333_interleave_0"), val = tensor<bool, []>(false)];
            tensor<fp16, [1, 64, 1, 1024]> logits_time = concat(axis = var_7332, interleave = var_7333_interleave_0, values = (linear_33_cast_fp16, linear_36_cast_fp16, linear_39_cast_fp16, linear_42_cast_fp16, linear_45_cast_fp16, linear_48_cast_fp16, linear_51_cast_fp16, linear_54_cast_fp16, linear_57_cast_fp16, linear_60_cast_fp16, linear_63_cast_fp16, linear_66_cast_fp16, linear_69_cast_fp16, linear_72_cast_fp16, linear_75_cast_fp16, linear_78_cast_fp16, linear_81_cast_fp16, linear_84_cast_fp16, linear_87_cast_fp16, linear_90_cast_fp16, linear_93_cast_fp16, linear_96_cast_fp16, linear_99_cast_fp16, linear_102_cast_fp16, linear_105_cast_fp16, linear_108_cast_fp16, linear_111_cast_fp16, linear_114_cast_fp16, linear_117_cast_fp16, linear_120_cast_fp16, linear_123_cast_fp16, linear_126_cast_fp16, linear_129_cast_fp16, linear_132_cast_fp16, linear_135_cast_fp16, linear_138_cast_fp16, linear_141_cast_fp16, linear_144_cast_fp16, linear_147_cast_fp16, linear_150_cast_fp16, linear_153_cast_fp16, linear_156_cast_fp16, linear_159_cast_fp16, linear_162_cast_fp16, linear_165_cast_fp16, linear_168_cast_fp16, linear_171_cast_fp16, linear_174_cast_fp16, linear_177_cast_fp16, linear_180_cast_fp16, linear_183_cast_fp16, linear_186_cast_fp16, linear_189_cast_fp16, linear_192_cast_fp16, linear_195_cast_fp16, linear_198_cast_fp16, linear_201_cast_fp16, linear_204_cast_fp16, linear_207_cast_fp16, linear_210_cast_fp16, linear_213_cast_fp16, linear_216_cast_fp16, linear_219_cast_fp16, linear_222_cast_fp16))[name = tensor<string, []>("op_7333_cast_fp16")];
        } -> (logits_time, predictor_hidden_out);
}